weights/vsself4/vsself384_theta.npy (npy, 65152 bytes, 1 tensors)

array f8 [8128]
0	0x400ae97f3b1919ed	3.3640122048411656
1	0xbf6557d28a24c6ac	-0.0026053535558723997
2	0x3ff76acedc7333b6	1.463576184399455
3	0x3f80aaff0c08a90f	0.008138649515860878
4	0x3f7d1f33ef8918ff	0.0071098355043146535
5	0x3febab64e08b9008	0.8646721254012855
6	0x3f8cc65978a516c0	0.014050196642198087
7	0xbfaca5a1f68a43aa	-0.05595117697260517
8	0x3f8018fde4583b70	0.007860168009782703
9	0x3fe45cb534354b6c	0.6363168735209519
10	0x3f86a3c655f720c1	0.011054563044027412
11	0xbfc0538fdc01588c	-0.12755010836071212
12	0xbf8ad23ff71665e4	-0.013096332290660713
13	0x3f8b84c73f35be12	0.013436848274721167
14	0x3ff6c0faeb9670a7	1.4221142962115125
15	0xbf823b74d50687c3	-0.00890246653654348
16	0xbf9154e9ce05d6fa	-0.01692548103297662
17	0xbf94eb239694da8b	-0.020428234163058206
18	0x3f72f622d0983de6	0.004629264827158397
19	0xbfd31388c5a7f916	-0.2980672769771372
20	0x4006d33d06184195	2.853143737426033
21	0xbf7f5ffc5c59b54a	-0.007659898552089326
22	0xbfbe8c8e0a19e860	-0.11933219668017747
23	0x3fca6f9fa8f7c5b0	0.20653148413070488
24	0x3fb160aa2a3df79d	0.06788123637485773
25	0xbfb6ca37a44da177	-0.08902309190091794
26	0x3fc10f309c147b9f	0.13327605839819243
27	0x40041e55dcf9eb16	2.5148122085351003
28	0xbfccd44cbe53e2ca	-0.225228875096738
29	0x3fb4ac2ddadcbdd3	0.08075224488560843
30	0xbfc2de5d5f3c6b90	-0.14741103315540416
31	0x3f8972aa30e723d3	0.012425737016103533
32	0x3fd7dad7ead10e9c	0.3727321427470345
33	0x3fcab373d8e7d44a	0.20860145655720636
34	0xbfb62403111946c8	-0.0864869992012941
35	0x3ff9c19dd03b5284	1.6097696432163113
36	0xbf94a20866bedcf9	-0.020149356146899475
37	0x3f9c03abdfb5873f	0.027357755211944165
38	0xbf701134e0d7c52e	-0.003922659450368555
39	0x3f732395cd3aa9dc	0.004672608530805946
40	0xbf93a5d51c2f686d	-0.01918728813675623
41	0x3fa7edf5c39cf4df	0.04673736584525456
42	0x3f598a6c1ab2efdb	0.0015588813501343699
43	0x3f839a1afe107e93	0.00957127654879678
44	0x3fd40bbd76395f84	0.31321655793498615
45	0x3f9cafa4e5d76e7d	0.02801377919045799
46	0xbf9cb704f55e48c0	-0.028041913486568815
47	0x3f6d2f09b420c1f2	0.0035624684833452875
48	0x3f7832f4182c4c8e	0.005907968038417212
49	0x3f794fde94401c33	0.006179685067770046
50	0x3f956a49951e7ce4	0.020913266874797012
51	0x3fc65e476823dc87	0.17475216469731356
52	0x3f91cbebbc6dee6f	0.017379458785838183
53	0x3f7c802d631bef28	0.006958176892790914
54	0x3fc81a51c70c6082	0.1883032056728134
55	0xbfaf88171f58b2db	-0.06158516175887537
56	0xbfbc722eedda1c2f	-0.11111729914601719
57	0xbf9ad548293c6e93	-0.02620423080143881
58	0xbf84b8137ed58036	-0.010116722400823713
59	0x3fc9f825fd0fd444	0.20288538795981215
60	0xbfda7879d3fdf156	-0.41360326483097276
61	0x3fc5e6820887c51f	0.1710970441486461
62	0xbfc9ffc286a78e91	-0.20311767172744458
63	0x3fa203ed188e73b2	0.035186204192747
64	0xbf9a47079fd0d37d	-0.02566158211648738
65	0x3ff0fd84b840f96c	1.061894149533681
66	0x3f5a0c7e6e862c49	0.001589892834178002
67	0xbfad5fff64124f86	-0.05737302872253651
68	0x3fa6327f65e1665a	0.04335401648195321
69	0x3fb261bfe51903a7	0.07180404036718234
70	0xbfb5020b0ba7ce7a	-0.08206242594297378
71	0xbfb63c0bdb727715	-0.08685373408885895
72	0x3f9b7995d539eb10	0.02683099855355936
73	0x3fa334fd59e5e68c	0.037513653968699406
74	0x3f40eb048fcec632	0.0005162975572742866
75	0x3fc1c383ab77ab16	0.13877912399706166
76	0x3fd38b9e0842d492	0.30539656454795605
77	0x40015dbdf8c08198	2.170772498488258
78	0x3f815ac2d2138270	0.0084738941536113
79	0xbf9cda5517ad2b7a	-0.02817662198075819
80	0xbfa383be04412119	-0.03811448862012607
81	0x3f6df17d287ae267	0.003655189942801496
82	0xbf868a0b812d2444	-0.011005487327240833
83	0x3fadc9b9a981d38c	0.05817966646365055
84	0xbfd7a24a39bf4154	-0.3692803920685226
85	0x3fca8a5e0a2b7781	0.20734763619014632
86	0xbfa5099c546e16e7	-0.041088948542023655
87	0xbfa84dcaaccf966b	-0.047468503565863816
88	0x3f7dd366995356c8	0.007281685616552465
89	0xbfc442510d093063	-0.15827382217901506
90	0x3feb5d7fa9db017c	0.8551634137620989
91	0x3fb541c04cda3db6	0.08303453327447738
92	0x3f9982307888d011	0.024910695416295484
93	0x3f985e51a8515cf9	0.02379729833441233
94	0x3fa29fd4c7597ef0	0.036375665030161985
95	0xbfc006a6d261c583	-0.12520299217753114
96	0x3fa8cd947aa4790d	0.04844345090008249
97	0x3fd45aa6dd96c26c	0.31803294791737957
98	0xbfc579c154c84145	-0.16777817382581808
99	0xbf9eb6da52304452	-0.02999440313948682
100	0xbfbaaff27df28a64	-0.10424724173439298
101	0xbfa8309069a82d17	-0.04724551477201027
102	0x3faecb05bcb89e6d	0.060142688071491125
103	0x3fbbe2b11c5084af	0.10892779294273923
104	0x3fe2e81045f9c46b	0.5908280722343425
105	0x3fac6f3051ceb55d	0.05553580282808455
106	0xbfa24541b0b3ccf6	-0.03568463594447195
107	0xbfa9c4ef7725b495	-0.05033062295374539
108	0x3f6dea05dd3b7e71	0.003651629880422829
109	0x3fb3e5d9a0634a31	0.0777259842464353
110	0x3fad3935ff445773	0.057077109728353025
111	0x3fbee8c29122f27a	0.12073913615581403
112	0xbfc55498832f276e	-0.16664415746191302
113	0xbfbcac29d4094b27	-0.11200200487773469
114	0x3f94eec9c3562086	0.020442154452695614
115	0xbfb4d86dd22b536b	-0.08142744427762032
116	0xbfc0ea373c87acb1	-0.13214769797864315
117	0xbfb20ccf50f25417	-0.07050796247706646
118	0xbfb7a3e887d77707	-0.09234479252287651
119	0xbfdaea3e54e7d1f1	-0.4205470875888571
120	0x3fa5ac5b7e782350	0.04233060759367524
121	0xbfce485b001a17b0	-0.23658311371781116
122	0x3f686eadb2336c1e	0.0029824631215951266
123	0xbf924bc9bb9af6f9	-0.01786723334838933
124	0xbf915dfa5e82fcc0	-0.016960060137304778
125	0x3f7198f0deef0da0	0.004296246434879164
126	0x3fb3d700de7ffda9	0.0774994414532474
127	0x3f9d453321cc48f8	0.02858428853785086
128	0x3f853f0ea7f88479	0.010374178410588396
129	0xbfa5fbc4a1a82087	-0.04293646310185389
130	0xbfae4135a08997b1	-0.059091258856639135
131	0x3fc879d2cbd3a175	0.19121775581812597
132	0xbfa6a9a1bae22618	-0.0442629376057761
133	0xbfc6e07e8a35d3eb	-0.17872602222965325
134	0x3f805d6010cfcbc0	0.007990599167873813
135	0xbfddd31a8603b26c	-0.4660097416624811
136	0x3f92cb146e98182a	0.018352813005570713
137	0x3f74de7b419ba43a	0.005094987363670584
138	0x3f8ae59ea3e993c5	0.013133277299127397
139	0xbf96fe56cdf26712	-0.022454601593017882
140	0xbf9b0735e7dc0cf5	-0.026394693638406037
141	0x3fc1c6f5bdfbfbb2	0.13888427521302799
142	0x3fb366b9411a1b90	0.07578618850139507
143	0x3fb383a5b8b659a4	0.07622752914026037
144	0xbf9fd6cb19d7d314	-0.03109280915483044
145	0xbf94710cbbe20151	-0.019962500541170162
146	0xbfd2cce75bb4d98b	-0.2937563319750544
147	0x3fc3caaa94518315	0.1546223854266137
148	0xbfc2167cf5de6cdd	-0.14131128316225885
149	0x3f901fd7b9924569	0.015746470166566526
150	0xbfbaf9cb1982b8bf	-0.10537404415910866
151	0xbfaacf45f0de01b3	-0.05236261906884767
152	0xbfd5db3f49cfe341	-0.34150678833207243
153	0x3fa1d88a63fe349b	0.034855198579955636
154	0xbfab140a3bfd57e5	-0.05288726789756008
155	0xbf98ea51d8766e4c	-0.024331358753995766
156	0xbf643423063b86db	-0.002466267020154384
157	0x3fcd7c1b3efe79a5	0.23034992767220533
158	0xbfb97b26d748c4dd	-0.09953539615596037
159	0xbf882a858735ee82	-0.011799853504945949
160	0x3f8ad4075b3fd58c	0.013099725219926105
161	0xbf8aec7bdcc13db5	-0.013146369623568835
162	0x3f61243f41b2ebcd	0.0020924792748622024
163	0x3fd66b76d9c6cb95	0.35030909793129555
164	0xbfd8d27570749e8d	-0.3878453825186419
165	0xbfb56f5e58c0f108	-0.08373059908712233
166	0xbfbca0e4b24c12db	-0.11183003762205194
167	0x3f98563b920aca06	0.02376645163412585
168	0x3fbe15b460bd9990	0.11751868593055392
169	0xbf957ce8acc9ea48	-0.020984302087962342
170	0x3feb9fc432539392	0.863252733510864
171	0x3fc0769dd9e35ebb	0.1286198915392925
172	0x3fb53bb13294d431	0.082942080353704
173	0xbfa9d4fdc744f680	-0.05045311982619882
174	0x3f5315013989868a	0.001164675899552855
175	0xbfb2a9d0b2069223	-0.0729036745675065
176	0x3fc1b5826c58b39c	0.1383517293010329
177	0xbfcc3f382bb8a8e4	-0.2206793035014193
178	0x3fc2ce16e76ea7e9	0.1469143514671594
179	0xbf7dd91ddb16007d	-0.00728713667319891
180	0xbf82f6130bd3f723	-0.009258412168943025
181	0xbfbe3a00d1cf9c62	-0.11807255861605051
182	0x3fb8863153931606	0.09579761782068638
183	0xbfd412908426bfad	-0.31363308816343755
184	0xbfb7e0b354eee4e4	-0.09327240775646178
185	0xbfb7e143c28c0c70	-0.09328101634678077
186	0xbfc518dab798c904	-0.16482099499405234
187	0xbfa745115c5129b0	-0.045448820609255036
188	0xbfb3b92fddec6a2c	-0.07704447906545714
189	0xbfdb4b4cd2bc9f34	-0.4264709527947048
190	0x3fb839c859c04200	0.09463169280230233
191	0xbfd1f7092b1936da	-0.2807028694995616
192	0xbfb7cda3d29710a9	-0.09298156634673894
193	0xbf8fd204e5fb0565	-0.01553729845852798
194	0xbfc1818491214b10	-0.13676507078579236
195	0x3fc3a60f2c91ed0e	0.15350522686262774
196	0x3fcdb0cb5bdc9058	0.23195783601215925
197	0x3fc268a682337519	0.14381867749663327
198	0xbfa1a97de135a8be	-0.03449624418392848
199	0x3fb6ca1218919105	0.08902085399455835
200	0x3f92b0ac46687f0d	0.018252078816771312
201	0xbfd214b3da770f62	-0.2825135835121185
202	0xbfb41b26237a9390	-0.0785392605417441
203	0xbfda41dca59984fc	-0.41026989147037773
204	0xbfb731418fc42509	-0.09059533843914748
205	0xbfc65c36d66cb6b2	-0.1746891543384002
206	0xbfb66957a87776e9	-0.08754489767985842
207	0xbfaeccc7ec16f8bd	-0.06015610463099239
208	0xbfb4df6c6151cc5c	-0.08153416992154078
209	0xbfe28b6cfe5ca6a6	-0.5795197456365784
210	0x3fbd74e650a5dc97	0.11506499737685015
211	0xbfc49adfedd9e4f0	-0.16097640146089232
212	0xbf6e89667271ebd0	-0.0037276268881760513
213	0xbf8d18c1fc89ed2f	-0.014207377929088409
214	0x3fa29204531735e0	0.03627027048387865
215	0x3fbbbac3b4fd2e40	0.10831854981113853
216	0x3f78e8b56850af85	0.006081303236935902
217	0x3fb0da364e9eed98	0.06582965297177734
218	0xbfa11f0930ae55de	-0.03343991011858426
219	0xbf7350d5e5db3710	-0.004715762651995595
220	0xbf9742ec3506781f	-0.022716227280049957
221	0xbfbfa17ac257b98b	-0.12355773205465519
222	0x3f9de721197dc550	0.029202000790467253
223	0x3f9878f2ee4a6f6e	0.02389888362323183
224	0xbfb75d3130f0d9d7	-0.09126574940533004
225	0xbf8503496e1e313d	-0.010260175393135835
226	0xbfc2f5b4c651fe74	-0.14812335666282517
227	0x3fa953725e315009	0.04946477317631099
228	0xbfb2faebd7189996	-0.07414125443810912
229	0xbfc4f7f376fdbeb0	-0.16381686506382698
230	0xc00053b0e2f65450	-2.0408647281097174
231	0x3fe1bcacee95fcca	0.5542816791420588
232	0x3fa03f10bd0c5b24	0.031731150700741645
233	0xbf34f1e618de7a33	-0.00031959407430718066
234	0xbf7105b55e3dfe03	-0.004155834645529935
235	0x3fc02c3cd26f66f0	0.12635002398638262
236	0x3fc76237302e66be	0.18268480160332062
237	0xbfc2459d1888539a	-0.14274944017293195
238	0x3fd9af7572b5d134	0.4013341541497255
239	0x3fb2d9da94e05e45	0.07363668570212052
240	0x3f80c8f2e1737d35	0.008195779328558398
241	0xbfc4322f67e47ee1	-0.1577815301216026
242	0x3fb45461ebd5cca2	0.07941257484144384
243	0xbfa86c2c5984709a	-0.04770029633275037
244	0x3fd97edd4e0659f3	0.3983681928597484
245	0xbfb3ec97373ab6f4	-0.07782883737919716
246	0xbfc6a668092cf84f	-0.17695332000761474
247	0xbfd35786ee1939a1	-0.3022172284298908
248	0xbfc375eb55ab7a60	-0.15203611071679557
249	0xbfd1a330e48ec02b	-0.27558538742141775
250	0x3fc2f33669ecd412	0.14804725811123426
251	0xbfce515c3f801995	-0.2368579206524372
252	0xbfe76b52c8a0632d	-0.7318509977804745
253	0x3fda56e2164293fa	0.41155292676768307
254	0x3f8fbb04084a1c59	0.015493422987914384
255	0x3f91b1062c082599	0.01727685588597225
