weights/vsself4/vsself220_w.npy (npy, 65152 bytes, 1 tensors)

array f8 [8128]
0	0x3ff360063768f82b	1.2109434284643708
1	0xbf1beaa0a3fd1224	-0.00010649304840366268
2	0x3fc946dfde01931b	0.19747541751998984
3	0xbf371cb3bdb134a1	-0.0003526629277004843
4	0xbf93fec02fa6c90b	-0.019526484402100624
5	0x3fa666b9141cf333	0.043752464013300595
6	0x3f13a0e3e3171cd3	7.487669861127042e-05
7	0x3f41894349938e6c	0.0005351618339343839
8	0x3f3230397316ead6	0.00027753260209421643
9	0x3fb4eab5cdca0cc7	0.08170639299537462
10	0x3f50e3877b1db7f2	0.0010308096938973469
11	0xbf51f29e02042dca	-0.0010954421086947102
12	0x3f6fe61f23b6630f	0.0038939102357286102
13	0x3f5980439570f454	0.0015564594266515202
14	0x3fd24d4a915108b1	0.28596748534267663
15	0x3f520fe1d0cf43d1	0.0011024193984108153
16	0x3f548e338c72eae6	0.0012546065716338372
17	0x3f2138120e3f6b20	0.00013137073903987054
18	0x3f5b13eebf2f76d2	0.0016527015220541463
19	0xbf53255fb11144bd	-0.0011685785759889954
20	0x3ff3f2aa32fa9349	1.246744345794655
21	0xbf636a7c8c948beb	-0.002370112667124049
22	0xbfc46ce37d0f7a81	-0.15957301718204422
23	0xbf9a03d50af31034	-0.025405243676473968
24	0x3f7ff30a66328952	0.007800140973957719
25	0x3f9635068e77942c	0.021686651654722208
26	0x3f8062bafe98e422	0.0080008133837613
27	0x3fd386204b5dea04	0.30506141052288194
28	0xbf34110fad2b10f4	-0.0003061927101664218
29	0xbfb0c6f7f5e59d65	-0.06553601983397568
30	0xbfa63e9d0e23c0fd	-0.04344645307162585
31	0x3f5e221c148ecf6d	0.0018391870710105743
32	0x3fa8f636510d4f1d	0.04875344981578975
33	0x3f7250277eabf5df	0.004470972324950278
34	0xbfb21302a5a0bd6d	-0.07060257476472538
35	0x3fb62e4c23a6e9bf	0.08664394255075701
36	0x3f49d2d5f11b0dc3	0.0007880730283535354
37	0xbf9ae2e604b97ded	-0.026256174124112453
38	0xbf8cb37ef35fc92d	-0.01401423626154904
39	0x3f23e790998437a2	0.00015185966618286051
40	0x3f73dde63c64d982	0.0048502915945419795
41	0x3f571454465887a5	0.0014086554523449004
42	0x3fa349b93ef22f71	0.03767184155830606
43	0xbf9b5044391bb4f7	-0.026673379884347672
44	0x3f7d063f6618c95e	0.0070860363498915484
45	0x3f387a40d22b186d	0.00037349779647078454
46	0x3f06f45962903424	4.3782213033784456e-05
47	0x3f51cdc8c9ea7774	0.0010866604640464546
48	0x3f5f95598eab3c20	0.001927697618771658
49	0xbf8b4b5a539d56e2	-0.013327317883220006
50	0x3f50e1ba88e4c85d	0.001030380404313045
51	0x3f8ff9d95ab23999	0.015613267975166422
52	0xbf6081ca2e2aa5a9	-0.002015013583634502
53	0x3f4f7589e55b7591	0.000960056621547233
54	0x3f90a36369bf452a	0.016248277024549264
55	0x3f792796bdba6cac	0.006141270477793597
56	0xbf89fbaa4bd94cfc	-0.01268704456302893
57	0xbf6bad357df03ec0	-0.0033784909023849286
58	0xbf8ccf5ce9eb86d0	-0.014067388428375877
59	0xbfc15ec4094c1294	-0.13570452169382874
60	0xbf2124da2ae7ee28	-0.000130797988688745
61	0x3fb2c3a48143c69c	0.07329776912572544
62	0x3fab60a1cbb821cb	0.05347161876494829
63	0x3f7e0cb16afe647e	0.007336323775143259
64	0xbf83527d64102434	-0.009434680572683353
65	0x3fc01bff563dce1c	0.125854413137504
66	0x3f6b47800a11a895	0.003329992367572985
67	0xbf60ea0a77276cb8	-0.0020647243884304965
68	0xbf4e2f85e8611164	-0.0009211925360053494
69	0xbf557d5dca1f2772	-0.0013116279519515797
70	0xbfc972765c7bd42b	-0.19880561366849867
71	0x3f14f1c35b62e718	7.989649643294313e-05
72	0x3fb0c8ac39ba5ac9	0.0655620232522366
73	0x3f8fec5619d07688	0.015587494528570348
74	0xbf876282cd981cbd	-0.01141836347507163
75	0x3f8029c543a99237	0.007892171027557555
76	0xbfa48c74c9e76ba7	-0.04013409580848953
77	0x3fd820af1eb47ecb	0.37699487684765803
78	0x3f77830f259b8f0a	0.00574022213706705
79	0xbfa26d313d887050	-0.035989321481083025
80	0xbf895c32fa05a5ae	-0.012382887129848221
81	0xbf606cab49444558	-0.0020049424584917368
82	0xbf63052b25b0b042	-0.0023218004912646537
83	0x3f845ef7e516e8e2	0.009946762732273521
84	0xbfc44c489de06c7a	-0.15857799252339416
85	0xbf817d9021e104e1	-0.00854027369871563
86	0xbf69dbb4fdfb6f2c	-0.003156522274236814
87	0xbf7bea939c606f9b	-0.006815506558293462
88	0xbf71cb5d603aadf6	-0.004344334363547633
89	0xbf761d75bc6fadf3	-0.005399188906249008
90	0x3fb038a1df80a927	0.06336414057355864
91	0x3f6c1d320c180b5d	0.003431890247840226
92	0xbfafbd211899f512	-0.061989816907024445
93	0xbf8363a2d70edd5d	-0.009467384517718608
94	0xbf5cf3cf377ef5ea	-0.0017671130753876781
95	0x3f8caa96bdd0aa83	0.013997247379014205
96	0x3f800520559fb140	0.007822277653723675
97	0x3f934e9d4a636b88	0.018854577698998592
98	0x3f896b6fc9a1682a	0.012411950436376957
99	0xbf6d739eb2465082	-0.003595170930745851
100	0xbf71ae3053bc3d92	-0.004316509988498212
101	0x3fa4265fc7a77378	0.039355271455611296
102	0x3f50a8628b8afc06	0.001016708598555517
103	0xbf95acc791185afd	-0.02116691420641369
104	0x3f9b998bae9447f9	0.026952917604894797
105	0x3f66d4bbd728486f	0.002786986232657766
106	0xbfa033c44a4087d7	-0.031644949020360684
107	0xbf7fc66c2daa03e9	-0.007757589885501106
108	0x3f54b15cbcd1cee5	0.0012629895820994105
109	0x3f81a2930bbea416	0.008610867305678876
110	0x3f62b0887bbac0b9	0.0022814431848346664
111	0x3f9ba611583f62c7	0.02700068570252048
112	0xbf9615512c1c53e6	-0.021565693204212887
113	0xbf927db4da93955e	-0.01805765709004469
114	0x3f631dcdbd6a187f	0.002333547435514893
115	0x3f331a74987ea077	0.0002914938599993875
116	0xbf9880b3fcd13c26	-0.02392846327375877
117	0xbf8f3005d8bdf550	-0.015228315045301116
118	0xbf93e768c9a83b43	-0.01943744402711479
119	0xbf7b61bd3504dc32	-0.0066850081350855895
120	0x3f676c013564e90d	0.002859117851724885
121	0xbf7546f2b7e514fc	-0.0051946145234229545
122	0xbf5e8e424d5f363c	-0.0018649718744997565
123	0x3f2d58f87d550005	0.0002239039737705896
124	0xbf8637ef9548f3b1	-0.010848876708331763
125	0x3f7409770634dfb9	0.004891838968710199
126	0x3f969df3e3aef81a	0.022086916705795635
127	0xbf89dd853823532e	-0.012629547858901437
128	0x3f42e0502f0f4e91	0.0005760566256136237
129	0x3f1b2a1f155c6bf0	0.000103624484236439
130	0xbf929d97366b9b90	-0.018179285713724236
131	0xbf7c47dab8869865	-0.006904463174953167
132	0xbf8e5b5b3a42044f	-0.014822685923947669
133	0xbf9660daed2a983d	-0.021853848195540804
134	0xbf4749dcbed7ff16	-0.0007107093676381483
135	0xbf95620d85354db3	-0.020881854300865487
136	0x3f77e23ac9bf9ef7	0.0058309837731724745
137	0x3f711b6849396085	0.004176528327285327
138	0xbf452f9d69f12cf4	-0.0006465452787635371
139	0x3f55b807709f798e	0.0013256142287826097
140	0xbfb56b0bdd555dad	-0.08366464761399213
141	0x3f904acf79f6860f	0.01591037923720334
142	0x3f6dd687edba14b3	0.0036423354011413055
143	0x3fa0adc6829a650d	0.032575801317941445
144	0xbf6d60c81704e342	-0.003586188126203289
145	0xbf7aaf528f255b3a	-0.006514856812222908
146	0xbfb8d76057c9a310	-0.09703638213398968
147	0xbf9cacdbf9fe493a	-0.028003155835514472
148	0xbf9800a6c059fe06	-0.02343998478909095
149	0x3f6a5fb4e1190047	0.003219464568957195
150	0xbf83ca99a9d065ef	-0.009663773054898931
151	0xbf8df5320d03a452	-0.014627829572832738
152	0x3fbdad0f75897190	0.11592194194367367
153	0x3f847f8f37d7d318	0.010008925334639637
154	0x3f33266eb7396297	0.0002922077467011701
155	0xbf68728c05acca8e	-0.0029843077476468588
156	0xbf62348cda8e1bc7	-0.0022223235177451814
157	0xbfb6d4d2cbecf9ac	-0.08918492773680126
158	0x3f6d268985574db5	0.003558415027080842
159	0x3fa7859a8b3e2b9c	0.04594119024030549
160	0x3fb0e66e58f20e6b	0.06601609870454588
161	0xbf80c5637906d5a1	-0.008188988810483635
162	0x3f58e81ede7ea465	0.0015201856094597896
163	0xbfac7ea7ebbc30e4	-0.055653808141956224
164	0xbfd2c9e2e5baece4	-0.293572162958027
165	0xbf9eb6d32c36f5ca	-0.029994296620989215
166	0xbf7447bf6d67189f	-0.004951236498930949
167	0x3f9578ae5b1824aa	0.020968174276309405
168	0x3f875d4da330a675	0.01140843061701278
169	0xbf9e178013fbeeab	-0.029386521548970517
170	0x3fbb203d9f666e10	0.10596070424656312
171	0x3f8cbc87145f7bdf	0.014031462964281203
172	0xbf92a7cb29e0f9fa	-0.01821820681674955
173	0xbf8ea75bf55ad05b	-0.014967649865276813
174	0xbf488acecd0be509	-0.0007489690561605376
175	0xbf823fbcb8deff71	-0.00891063155347613
176	0x3f988ed38541d10e	0.02398233891331452
177	0xbfb1befde3b02c0a	-0.06932055290978681
178	0xbf93405666e87767	-0.018800115614900827
179	0xbf58d53913c2f5cb	-0.0015156800646275333
180	0xbf783d92b8270dc3	-0.005918095705456708
181	0xbfa0c21a2acd967a	-0.032730882382378604
182	0x3f5cfd8deb71abd4	0.0017694364485361007
183	0xbfb67171f3c967d4	-0.08766853524994583
184	0xbfa540168c89e0ff	-0.041504578261937645
185	0xbf93c326e5538adb	-0.019299133059471934
186	0xbf91a58b6661b850	-0.017233064769634432
187	0xbf8caab9160d5177	-0.013997503266786933
188	0x3f406104933ed7a9	0.0004998466815695396
189	0xbf99e575083af3c0	-0.02528937208875326
190	0x3f88669adc50d99a	0.011914453361993083
191	0xbfabac2703c224a8	-0.054047793587480186
192	0xbf909b783e5abb92	-0.01621806984502034
193	0x3f52c37220f63ae0	0.0011452307261127712
194	0x3fb0c87d75065efa	0.06555923564007662
195	0x3f8639f95e52920b	0.010852764311786186
196	0x3f93097c35b054f2	0.018590870644477904
197	0x3f985585553c3a9c	0.02376373608336256
198	0xbf5c484286a9176d	-0.0017262124698773321
199	0x3f66e83972ee1aa1	0.0027962801027031224
200	0x3fa842b685888f1b	0.04738397960707471
201	0x3fa6bc90627f4b4e	0.04440737917288705
202	0xbfa5d9f347231836	-0.042678453859068474
203	0xbf9a6ecf74549811	-0.025813333010908993
204	0xbf9f79719e34e17f	-0.030736708909189666
205	0xbfa48ad6b0b884ab	-0.04012175471530929
206	0xbf8a9406a5e310f3	-0.012977649629086296
207	0x3f72d133f14faa9d	0.004594042683474212
208	0xbfab45051a4ee51e	-0.05326095529694384
209	0xbfa6c57f4a4220e0	-0.044475534262405025
210	0x3f89de9b74e80c88	0.012631620888902143
211	0xbfa5ad061cc9b6bf	-0.04233569241919843
212	0xbf81c7b8f8fd29b1	-0.00868172178129076
213	0x3f7698d2643cb455	0.005516836015698597
214	0xbf77c502c212de00	-0.005803118490056658
215	0x3f85a1e4f563fa5a	0.010562695254063548
216	0x3f92fb27f4d70d77	0.018536209410524997
217	0xbf86bab48e880276	-0.011098299598416999
218	0xbf93799c1f23f41c	-0.019018592262899245
219	0xbf571f1770d9c793	-0.001411221400669825
220	0xbf8ce303b7111f9c	-0.014104870819337915
221	0xbf93d0f2c99eebf4	-0.019351762348133364
222	0x3f91729c6c611cc6	0.01703876887793567
223	0xbf85c44c099dcd73	-0.010628313106031162
224	0xbf98c07a359218e6	-0.02417174293489035
225	0xbf8b48a2a3a4385f	-0.013322134608213241
226	0xbf935139bef0b3cb	-0.018864538458888618
227	0x3f9252f5d082d410	0.01789459309721414
228	0x3f9c261d3b0a2931	0.027489144066330688
229	0xbfa41b687338d40a	-0.03927160650747659
230	0xbfbb98c929465847	-0.1078000760811345
231	0x3fa196057f042550	0.03434769797793058
232	0x3fb423a1ef2f757a	0.07866870965468378
233	0xbf6cf9a801d281ba	-0.003537014140036568
234	0x3f53df5f9966b18f	0.001212924345604358
235	0xbf61b5cacf68af54	-0.0021618806015534595
236	0x3f9a23c50b9982d3	0.0255270756082407
237	0x3fbb30f20c2eb860	0.10621559903549516
238	0x3f92734becee70d9	0.018017946563859553
239	0x3f958991854d2a53	0.021032594452928
240	0xbf6c0f745bbd50ba	-0.003425338041703166
241	0xbf8efad251552281	-0.01512684164721745
242	0x3f5aa99dcd847ad6	0.0016273537676806857
243	0x3f9f9b570caf71e5	0.030866012715579223
244	0x3f87dc3258dfb2cd	0.011650460564817245
245	0x3f808e65b2cdd2e4	0.008084101218380942
246	0xbfa189eb9b98594c	-0.03425537371019746
247	0xbf6ee06bb648c191	-0.0037691215277606068
248	0xbf93e51b0a46a9f1	-0.019428656103324064
249	0x3f9f36ff5c6a8043	0.030483236327768514
250	0xbfaaba67693bccd8	-0.052203399272821194
251	0xbf9520de9daa4c57	-0.020633200047609126
252	0xbfa887be477ac5fc	-0.04791063902429113
253	0x3fb0fd202929d4eb	0.06636239056554742
254	0x3fa7900f34382236	0.04602096092645917
255	0xbf6d6f88d9fc5255	-0.003593222892855056
