weights/vsself4/vsself47_w.npy (npy, 65152 bytes, 1 tensors)

array f8 [8128]
00000000: c197 783a 1f88 e73f 021e 4ab8 def5 193f
00000010: 11d8 d7de 5c5e d33f 0972 a3a0 cf53 23bf
00000020: 7bcb c990 3502 263f 7ace c59d 54ac b03f
00000030: 8dd8 cef2 05c9 313f 3abf 307a e159 343f
00000040: a409 f8ea fb71 313f f6be 6249 96f9 b73f
00000050: 397d c76d f639 3f3f 8cdc 87a3 7561 44bf
00000060: 5c53 3b1f 5713 33bf 6b8c ab27 c736 373f
00000070: 7b94 99fd acbc da3f c430 b2ec 115b 583f
00000080: d9a2 c1cc 46cb 4a3f 4ac1 4ebc e0a9 273f
00000090: 0b3b 776f f205 5b3f 1394 3e00 a984 433f
000000a0: 8237 5e16 fd08 eb3f 2a42 21ca 7749 533f
000000b0: 92b6 9b71 9176 3d3f 8836 d5a9 d207 45bf
000000c0: d52c dbe9 b5c0 2c3f eae3 a639 ef4c 52bf
000000d0: b617 20b2 7264 663f c64a 0bf4 b7f0 d03f
000000e0: 4245 d5bb f927 433f 5174 3aa8 1d79 81bf
000000f0: de17 6a3c 29ee 273f 34a5 8f25 4219 363f
00000100: 23dc 92c9 f581 4e3f 764f 6eb7 e5c0 5a3f
00000110: 8ed8 446f dc93 393f dc84 e62d 2718 bf3f
00000120: f501 6af5 255a 42bf 16c9 a8ee bdd4 3cbf
00000130: bab7 3f8d 8d4d 443f ba82 8f1b 7963 363f
00000140: d0bc 7737 8151 43bf aeed 7360 37d3 433f
00000150: 2080 11d7 7ed5 543f cdaa 97d4 38c4 60bf
00000160: b724 aee0 0eba 9f3f 31c3 c024 4d5a 313f
00000170: 748e b97e ba2d 413f 2eab 45b8 263f 4e3f
00000180: 203c ab8e 5995 5f3f 9aa2 27ed 9572 4ebf
00000190: 3204 6a1f 3e9e 543f 6bf1 5ca4 2d61 65bf
000001a0: ccb5 23ca 69d1 49bf a00a 9d09 ce93 d83e
000001b0: b5a5 32e2 334f be3f 00fe 2461 04b3 593f
000001c0: 817c c73c 7039 5bbf 3d10 271e d453 563f
000001d0: fbcd d292 a903 5f3f 22aa e522 fa5d 4bbf
000001e0: b334 14a3 a0df 613f 6825 d44e 9be2 6dbf
000001f0: 381f db00 c3ad 56bf 335e ddba 63f7 2c3f
00000200: 7b77 9f58 6ec8 61bf 6e2f 9990 fe55 cb3f
00000210: 472d 7598 91ac 49bf 4ba0 0cdb a70e 33bf
00000220: dea2 5e7d 29f6 333f 744c 8a3c dd81 3c3f
00000230: 72a6 3f1c c3a1 45bf c77a 17a5 5263 603f
00000240: 219a 61df 583d 503f 7015 84fc 88ac 39bf
00000250: 7f32 b031 27b1 44bf bee4 74a7 89a4 41bf
00000260: 828b 2f91 1bf9 41bf 28fd 2d8b 8aa1 d53f
00000270: f9a8 4b14 55fd 763f 2dbd b808 8c60 7b3f
00000280: f2e0 cbc4 e520 54bf 6c33 89f1 5088 5dbf
00000290: 3cba 349e 0b08 643f e903 0f46 d10b 823f
000002a0: a6b5 e93b 89cf 9ebf 45f9 9bbf 3352 883f
000002b0: 5f27 8d2d 99d8 66bf 03a5 2c03 ff51 77bf
000002c0: f7ee b62a 5cde 7abf 0b7e 44d5 1552 74bf
000002d0: 4a9d 7750 cc56 733f a458 63fa 2b8e 6f3f
000002e0: 7613 cb91 559d 91bf b766 225e 15df 283f
000002f0: 5106 a7eb 8610 5abf f8b3 8c74 7d40 543f
00000300: 52c6 019c 6a95 723f ccdd aac8 b4a4 76bf
00000310: de68 2359 0e80 99bf 5c8f ebbc 3f65 463f
00000320: 98d6 6a4f 9ff7 43bf bbec 4d22 e501 6ebf
00000330: 6ffd c42f 3267 703f 0717 3502 bbe3 6bbf
00000340: c870 dbb4 0929 9d3f ea11 5029 d65a 5d3f
00000350: 77c9 3584 2647 49bf 7cca a6c9 d89e 5cbf
00000360: 30e9 6fbf 8844 513f 4b0b 8541 a6d9 52bf
00000370: 0eb5 fc17 642b 553f d6fb 7d37 2f0b 463f
00000380: 9036 c0bd 23de 10bf 53e1 ac4c e1fd 54bf
00000390: c4e5 5a77 1905 5f3f f3cb b01d 0096 513f
000003a0: 50ec 52cd 3287 54bf 87c4 2b82 6061 75bf
000003b0: 9450 08fb 3d20 6abf 9319 d64f 1a0f 903f
000003c0: 6659 0730 433b 673f 439e bdc9 9e0e 52bf
000003d0: 88b3 9e91 faf0 21bf b6e8 3003 9abd 363f
000003e0: e0d5 5e6a 95dc 273f 2994 ddf6 af6b 753f
000003f0: f4a2 d455 4f3d 6bbf 97b9 83c9 d7e1 113f
00000400: 666d 38ca 83cb 163f b752 3460 747a 643f
00000410: 1536 e529 ddcc 7dbf 1b14 8755 a57b 673f
00000420: 2eaf 3483 5b9c 90bf 150d ecf3 1be9 54bf
00000430: f944 8168 72d6 583f 0d84 4054 0afe b23f
00000440: fe1d 43ae 0176 5f3f 12be 83f6 af9b 60bf
00000450: a69f eec8 856f 0abf 19de 50a4 ed52 573f
00000460: eca9 cee7 e628 693f e638 8d24 57c6 8b3f
00000470: 8485 8e0d 873d 353f 4a9c 70df 47e1 233f
00000480: 2c51 fbba aecc 1cbf 7078 4d34 b063 b9be
00000490: 16c8 74b7 569e 9dbf 5a95 f508 b39d 633f
000004a0: d2ae 11dc 70d1 72bf 71ea 2903 e5fd 70bf
000004b0: b43a c560 6798 713f 4449 8150 9fbd 81bf
000004c0: e49b b82b 4b55 af3f 98ae 6e13 f7e5 763f
000004d0: 997c 99d7 26c0 443f 186b 21ff 0f55 4dbf
000004e0: f5f2 dd33 5075 40bf e6d4 3a2e 73eb 6a3f
000004f0: 67e6 cf67 c4e4 813f 66b9 d35d 6a6e 50bf
00000500: d8c9 c791 97d2 703f ac52 35f0 fdc7 46bf
00000510: 799a e5bb b520 343f dd96 5675 cbd8 7dbf
00000520: 3b05 73d1 9087 543f e454 6557 669d 8dbf
00000530: c59a b7d3 af7e 5ebf 8c89 aeac bc20 6e3f
00000540: a4f0 9590 40e0 803f f380 ba58 7b15 77bf
00000550: 24ad c1da 9ec2 9e3f 0688 1e0f adb8 843f
00000560: f365 4644 7f3a 7f3f e95b dbd9 084f 52bf
00000570: 5b33 1d14 fc54 3dbf 171d 0fb3 061c 5a3f
00000580: 5556 dc35 51b0 923f 8bed f17e 7566 9fbf
00000590: eba9 d221 573b 66bf 1626 c832 6ec5 64bf
000005a0: 3ba9 34a6 3f43 7bbf 44ba e992 b35c 8dbf
000005b0: 859a 76b8 927f a4bf ba62 5d91 3aac b1bf
000005c0: 9869 b873 4381 90bf c96f 639a cd01 6ebf
000005d0: 3e77 7d49 fd44 90bf ebe6 f680 9fe7 51bf
000005e0: 6d54 1752 00ce 6a3f 953e c597 c86f b3bf
000005f0: 9a9e 2b95 273a 873f 5554 69f4 9160 90bf
00000600: ed7b a01b 37a4 6c3f 04df fa0d 9db4 4c3f
00000610: fea5 9d6d 92d1 733f 36a7 28fb 2d01 803f
00000620: 2f14 65ca 2992 7ebf 3bfb 5398 4ed5 a8bf
00000630: eac5 478c ef11 5e3f 5da5 2ff3 d019 653f
00000640: 2650 af85 b1c3 62bf 9756 44b2 36ad 443f
00000650: ee80 f7fa 9702 a4bf fd47 0089 63ee aabf
00000660: e995 fcd2 dec3 73bf 467c 52bc e1a7 75bf
00000670: ec65 9820 d727 99bf f756 4348 eca0 7ebf
00000680: aacd 2a84 5215 95bf 6bc5 6f8c 442a a6bf
00000690: 9beb 6877 2f06 743f 9921 9e38 3c6a 77bf
000006a0: 6b5f a98b 62fd 4abf 8f6c 69f7 92f6 753f
000006b0: 7cb4 b755 98f7 523f 8fbd 4445 bfd8 783f
000006c0: ff9a ec9b 2d9d 75bf 626c 3c31 33e8 82bf
000006d0: a378 7f85 f506 5fbf e289 da86 915d 41bf
000006e0: 2001 817b 6381 6dbf 7aa4 b3f3 2e7e 6c3f
000006f0: e927 77a6 a4a5 77bf 1d1f 5d9f 50eb 95bf
00000700: 66a4 932f d25e 7bbf befe 60dc dd2e 79bf
00000710: 898e 5521 50d7 513f 9558 ea2f 8011 703f
00000720: a53a 0946 2645 6b3f 26b0 13ec 0d7f 98bf
00000730: 27a1 57dc 80c4 7a3f 96bd 29ab b49b 7b3f
00000740: 4aae 6ebf ac6d 25bf a242 f7ab 4049 573f
00000750: a026 3629 d417 483f 9f7e 6096 91f1 533f
00000760: 4167 93a5 52d8 853f dde9 c879 b050 383f
00000770: f8a8 351f 68e9 43bf 10bb cb53 4711 63bf
00000780: 3f29 ed63 2d2c 7a3f 85c5 cb01 1385 89bf
00000790: 6311 7737 112e 743f 437f 8573 df08 97bf
000007a0: 50d0 6b07 ba67 88bf 312b 9caa 09d9 533f
000007b0: 7551 f2fe 89e8 89bf 72bb 5da1 0e4f 94bf
000007c0: 35f9 3e72 9e8c 85bf 180d 26b0 c509 8fbf
000007d0: e829 d3a3 9263 98bf b345 67c7 395e 713f
000007e0: 580f 043d 4944 983f b856 e301 f9db 9e3f
000007f0: ba26 aa64 e331 853f 1960 aa2d 861a 61bf
0.735366453362751 9.903118013642606e-05 0.30263444673562484 -0.00014745625987346047 0.0001679125201864104 0.0651295552432262 0.0002713813326481539 0.00031053309266136956
0.00026619339311664326 0.0936521462597247 0.00047647730187168645 -0.0006219696434176677 -0.000291069765109333 0.0003542171686332143 0.41776585355393764 0.0014865565342772483
0.0008176894857686259 0.00018053882936675875 0.0016493670972185816 0.0005956483077979045 0.8448472439647363 0.0011771840877551434 0.0004495720946654315 -0.0006418017034463689
0.00021936627029215416 -0.0011169754203434975 0.0027334442283999073 0.26469229538376415 0.0005845994379944169 -0.008531791397496631 0.00018257382744851688 0.0003371988764785006
0.0009310197957778137 0.0016329043698748136 0.000390282933284588 0.121462296205681 -0.0005600629181828342 -0.00043992650049341894 0.0006195965929671678 0.000341622416781855
-0.0005895501080298796 0.0006050129312877206 0.0012716044114071748 -0.0020466909379498245 0.030983192885774637 0.0002647817934784856 0.0005242500896653472 0.0009230555593096928
0.001927697618771658 -0.0009291870176727113 0.0012584311167815995 -0.0026098147817760673 -0.0007879034567658759 5.859699877155483e-06 0.11839603683860996 0.001568559910609113
-0.0016616436070007459 0.0013627597296457371 0.0018929630271430342 -0.0008351775521025543 0.00218182920855855 -0.0036480935438062863 -0.0013842014627005305 0.00022099583059785737
-0.0021707682799236272 0.21356184063403866 -0.000783511249133375 -0.00029079053915604243 0.00030458939488168895 0.0004349866035592905 -0.0006601526915776658 0.002000485816764683
0.0009911888023680442 -0.00039175362009332467 -0.0006314698579231308 -0.0005384132518094981 -0.0005484947781691926 0.3379846915413105 0.005612690297065231 0.006683871276933301
-0.0012285465083419736 -0.0018025198425164158 0.0024452425874621746 0.008811602545280866 -0.03008856228045933 0.011875538144064843 -0.002788829017309632 -0.00569343198984851
-0.006559715296528649 -0.0049610951284928635 0.004721448996384334 0.0038519724795192545 -0.017201745055689575 0.00018975387417157426 -0.0015908544142892065 0.0012360787533893785
0.004537025874115823 -0.005528169810240024 -0.024902557554789755 0.0006834565372994916 -0.0006093528634980193 -0.00366301300749469 0.004004665414242366 -0.003404488803115838
0.02847685972561534 0.0017916766566951022 -0.0007714212483008039 -0.001746856409778146 0.0010539374759433555 -0.0011505244820717183 0.0012920834996735272 0.0006727200079551475
-6.434529444751037e-05 -0.0012812328520351482 0.0018933056539210827 0.0010733605511290517 -0.0012529369462715052 -0.005219819055796943 -0.003189202361918284 0.015682612536261308
0.0028358757265138255 -0.0011021185555025882 -0.00013688143445502962 0.0003469944960589154 0.00018204997939867597 0.0052296517950241395 -0.003325133277617071 6.821517525044115e-05
8.695594674928072e-05 0.002499797150117135 -0.007275451584360511 0.0028665761167041676 -0.016221456416288742 -0.0012762806870235167 0.0015159718768880655 0.07418884808477362
0.0019202248013686636 -0.002027362516052519 -5.042197255217201e-05 0.0014235802384642336 0.0030712613938323943 0.013561898043601816 0.00032410189811046147 0.00015167238572752684
-0.0001098615309687619 -1.5133266099902406e-06 -0.028924326846386426 0.002394532850007164 -0.00459426961706884 -0.004148382739567511 0.004295734234189542 -0.008662457126921048
0.061197613799144596 0.005590405597938684 0.0006332578333959781 -0.0008951500042358755 -0.0005022660841259285 0.003286099397736042 0.008737120073408279 -0.0010028876052348922
0.004107086246664747 -0.0006952276166126334 0.00030712544312053825 -0.007286829718770452 0.0012530245056015649 -0.014460372488125768 -0.0018612591801400607 0.0036777195977759133
0.008240227138905994 -0.0056357210375212905 0.030039293386306856 0.010117866538909236 0.007624146590751379 -0.0011174761233883007 -0.000447570364589469 0.0015935960220632755
0.018250721847911617 -0.03066428744612674 -0.0027138425635559924 -0.002535548430618882 -0.006655930166099384 -0.014336970253876598 -0.04003580571889124 -0.06903425263352406
-0.01611810106087716 -0.003662969177737428 -0.015888173685531408 -0.0010928208974818009 0.0032720571768814406 -0.07592443185171256 0.01134138988477611 -0.01599338583249151
0.003496272690440608 0.000876022993870657 0.004838535294632516 0.007814749934442849 -0.0074636108823300925 -0.04850240334962171 0.0018353308997770498 0.0025757866910579978
-0.0022905795317260834 0.000631000239567486 -0.03908228815612512 -0.05260001227738085 -0.0048254684514055035 -0.005287057666605815 -0.024566041340312525 -0.007477686860701153
-0.020589150730939622 -0.04329122747720756 0.004888711372184408 -0.005716548193852943 -0.0008236628703554965 0.005362104499535238 0.0011576640744082314 0.00606608119078035
-0.005276849899735535 -0.009231948795379977 -0.0018937490149180467 -0.0005299530582372725 -0.003601736356387289 0.003478137686773905 -0.005773204007207136 -0.021405467726508854
-0.006682225264037367 -0.00614821113964553 0.0010889322778319408 0.003922939997798154 0.0033288714915110256 -0.02392217400931442 0.006535056459576339 0.006740289437046873
-0.00016348584878521567 0.0014212733802773454 0.0007352624838159079 0.0012172624351548878 0.010666509321186292 0.0003710203980379615 -0.000607658234384161 -0.0023275750266899056
0.006389787012105962 -0.012460850231465379 0.004926745655613326 -0.022494784761305963 -0.01191659293315453 0.0012114138029938987 -0.012650564282275603 -0.019832829092986733
-0.01052211557532399 -0.015155357778672982 -0.02381734013469297 0.004240251253990679 0.02369799075042009 0.03013600420020765 0.01034906054453032 -0.0020878430053237304
