weights/vsself4/vsself419_theta.npy (npy, 65152 bytes, 1 tensors)

array f8 [8128]
0	0x400ca7bd319fd88b	3.581903827372178
1	0xbf7e113a4452e0d7	-0.007340648274457537
2	0x3ff7ae7d9939f65a	1.480100248852429
3	0x3f69a0ceae4e5462	0.003128436730956128
4	0x3f8189c4834098ea	0.008563552146437965
5	0x3fee732b6775636d	0.951558782641866
6	0x3f86d92c6155607f	0.011156412811644366
7	0xbfaa5b3e2cfb75d8	-0.051477377882956865
8	0x3f83ee9881844df5	0.009732428982295519
9	0x3feb39830739462d	0.8507704869354648
10	0x3f77574c26b9fa20	0.005698487726134377
11	0xbfc188524a20284b	-0.13697270030417238
12	0xbf8af979abe37054	-0.013171148832434344
13	0x3f8d53eb740cca38	0.014320220450462093
14	0x3ff9ba30d9138de3	1.607956741289734
15	0xbf89cbda298a125b	-0.01259584845798505
16	0xbf900c88dad3dac4	-0.01567281566255009
17	0xbf9696812e668d24	-0.02205850454050763
18	0x3f839fa5e82e97b3	0.009581848285801308
19	0xbfd3162546f4bfbf	-0.2982266610078987
20	0x4007b7502587bffd	2.9645083362629507
21	0xbf87847985e0c529	-0.011483144186146337
22	0xbfc17c0ec5f2ab31	-0.13659844079423913
23	0x3fcd54191db5ad33	0.22912897062938384
24	0x3fae02d7ee6f3277	0.05861544404578905
25	0xbfb4d1416f4f638d	-0.0813179871323781
26	0x3fc412a00f9e14d1	0.15681839716504567
27	0x400276c93c541729	2.308001014057386
28	0xbfc032fad08b19d1	-0.12655577833920842
29	0x3fb91e8051be1717	0.09812166209857441
30	0xbfc27c310ebf5010	-0.14441502780994186
31	0x3fad0ccb41d811b2	0.05673823527107248
32	0x3fdc600afaad45da	0.44336199264679765
33	0x3fd0d72ddcd95bb6	0.2631334931115207
34	0xbfc95f692efd80e7	-0.19822420877881727
35	0x3ff665d178e0c556	1.399857971362811
36	0xbf90f584c93c7954	-0.016561579496845738
37	0x3f9c674eee9b55d5	0.027737839997674946
38	0xbf7b379c3ac57d47	-0.006644830962925958
39	0x3f626800a9da9716	0.0022468579253026684
40	0xbf931b0170abf052	-0.018657705785685437
41	0x3fa7ef5bfcc6e71e	0.04674804173141765
42	0xbf9e96c5069ca8b5	-0.02987201550346504
43	0xbf8a7f2a28fec363	-0.012937859893868702
44	0x3fd73da8ed8f3131	0.36313842009691927
45	0x3fa4c90a52266407	0.0405963158875196
46	0xbf99b763861d18d3	-0.025113635121010013
47	0x3f67e7eac18eacd3	0.0029182038383247315
48	0x3f7ace59cc1889f8	0.0065444476800018345
49	0x3f7e592cc72eca88	0.007409262575424187
50	0x3f9c2780f63f8474	0.027494444875518956
51	0x3f9ba6a8cce650bd	0.027002942567904798
52	0x3f98f13f0b309a8b	0.024357781465506306
53	0x3f812ff55c057a90	0.008392254706163699
54	0xbfdcc37a48486e8d	-0.44943100985413126
55	0xbfb7bf36747ecfbf	-0.09276142448544443
56	0xbfb8e1f83385c4b5	-0.09719802148699126
57	0xbf8775e8ad29f3e4	-0.011455362114469687
58	0xbf8ee21b51b1799b	-0.015079701834278583
59	0x3fcb8be1ee9fd453	0.21520637656763827
60	0xbfdbf53ab2321d20	-0.436842607516569
61	0x3fb8ac2379da8353	0.09637662625256142
62	0xbfcd4edb7b89670b	-0.22896903545443367
63	0x3f96382bc794a0bf	0.021698650413924932
64	0xbfa0ec3605fabb6a	-0.0330521471308803
65	0x3fee788f82f58cf2	0.952216869144108
66	0xbf85c8c30927db40	-0.010636829106244527
67	0xbfb3bbdb44d0b23b	-0.07708521299418518
68	0x3fb03af08db8f883	0.06339934787772177
69	0x3fb480869c3fc0cb	0.08008614840196342
70	0xbfc2dcece79310a3	-0.147367108415101
71	0xbfb9dce655aa4986	-0.10102691260752836
72	0x3fa1182ee32a00f5	0.03338762782095898
73	0x3f909d0ec0911cc9	0.016224127295825484
74	0xbf0d31e278304408	-5.5684779930349813e-05
75	0x3fc7db85eac57422	0.18638681376879257
76	0x3fd599519761bbc5	0.3374828317964183
77	0x3ffe989457758c4b	1.912250844609633
78	0xbf84fcb955d6bc73	-0.010247657711117441
79	0xbfaa1ad828e61415	-0.05098605632068868
80	0xbfa48dbb8fcf0195	-0.04014383440471928
81	0x3f80046558972d81	0.00782088448149554
82	0xbf94d9729982a9f6	-0.020360746974498377
83	0x3fb3f52060f31610	0.0779590832417727
84	0xbfdaab0e509bc6a3	-0.4166904246513729
85	0x3fd4986b448ceaf4	0.32180291838055486
86	0xbfa94327cdfad125	-0.0493404807033662
87	0xbfa269c4ef29e515	-0.03596320552328273
88	0x3f8325ed953932ee	0.009349685779989039
89	0xbfc976bb898879da	-0.19893593039974072
90	0x3fe274afa654faa7	0.5767439125700847
91	0x3fc19121a75a3608	0.13724156066420812
92	0x3faa1d80fef8d7a6	0.05100634682132403
93	0x3f96f48951e6aee7	0.02241720735916788
94	0x3fa413ab62838681	0.039212566161734415
95	0xbfbffbb501be5a52	-0.12493449490134736
96	0x3fae86942e3b5cec	0.05962050499300084
97	0x3fd718f00764f390	0.3608970710955015
98	0xbfd42bdce567d03c	-0.31517717745669294
99	0xbf987748ca3f1800	-0.023892533630508694
100	0xbfbd0a6f2c42564e	-0.11344046431107666
101	0xbfac0cc280a660ec	-0.054784849361739635
102	0x3fb1f1a07ee8bd2a	0.07009318445556248
103	0x3fb94a4027a9a9d6	0.09878922432259371
104	0x3fceda9c0b8f1bdc	0.24104643406300752
105	0x3fa97e56d9090ea3	0.049792016976906404
106	0xbfa15b7eaf7feedf	-0.03390117542582315
107	0xbfac1f1caa951aad	-0.05492486555390506
108	0xbf61cd7fb90b72d5	-0.0021731848322431393
109	0x3fb408ece7ddf68d	0.07826119099441993
110	0x3fab49cad9fc2dca	0.05329736624670607
111	0x3fcc698f93853e0e	0.2219714613261065
112	0xbfc773bb784f35ab	-0.18321936964495697
113	0xbfbd080aff3b7a44	-0.11340397578485645
114	0x3f95db1528419b23	0.02134354646878046
115	0xbfb914bba2d780b5	-0.09797260976438589
116	0xbfc3d018c931aab0	-0.15478811096121126
117	0xbfb4113f121b6a68	-0.07838815872256932
118	0xbfb841649bcf7645	-0.09474781803097539
119	0xbfcd09f4c412f17d	-0.2268663365738454
120	0x3fbacf32354fc01b	0.10472406198073296
121	0xbfd02748c2a98894	-0.2523977185247841
122	0x3f426ca7ea304ee2	0.0005622692009432351
123	0xbf87f74dc2144596	-0.011702163205458398
124	0xbf967a03fda05cd6	-0.021949827532890286
125	0x3f8c8b322f892895	0.013937370372463934
126	0xbfbd3facef9a2ee6	-0.1142528614965915
127	0x3fb66d91df2a8185	0.08760940264119739
128	0x3f9199e322fa6b49	0.017188595781230807
129	0xbfa579ac7c0e2852	-0.041943922179669926
130	0xbfaf7a825c96cb14	-0.06148154621350535
131	0x3fcdf490c04c5a5d	0.23402604474604774
132	0xbf7fa49819aac106	-0.007725328580520113
133	0xbfce82e44e97a4bb	-0.23836950147168587
134	0x3f7ad83d464ff064	0.00655387816823003
135	0xbfd5a4d16f66f822	-0.338184698859438
136	0x3f9cb060347a6452	0.028016570284851668
137	0x3f866c959ff6947c	0.010949295944394637
138	0x3f93fad67f3e6126	0.019511558071458122
139	0xbf983dfd398685bb	-0.02367396987540869
140	0xbf92f5d4552c2d06	-0.01851588983394683
141	0x3fc21c6378e5378c	0.14149135020346326
142	0x3fbb70022c73afb2	0.10717786393405396
143	0x3fb945f609099bd3	0.09872377129214209
144	0xbf9f8198ed825aea	-0.030767812248622052
145	0xbf9a6e7d8ea1b1bb	-0.02581211264662085
146	0xbfd1a41d818d8ba1	-0.27564180041934533
147	0x3fc9733ea43819c0	0.19882948893082464
148	0xbfc53403cea4b5d7	-0.16564986791620015
149	0x3f87d84060295530	0.011642935690512418
150	0xbfbb29aa2a13340b	-0.10610450293752664
151	0xbfb4a09c875305ae	-0.08057573608223009
152	0xbfca2052ab443ccc	-0.20411141741394656
153	0x3f9fbbfa6e8a39f5	0.03099051761324208
154	0xbfa8a69829c3eebe	-0.04814601430731845
155	0xbf8d6710b97658e6	-0.014356737766132398
156	0x3f7576ba6b284038	0.005240181157674377
157	0x3fd0239eab6c9043	0.2521740602553601
158	0xbfc0081d5fe77b32	-0.12524764235328117
159	0xbfbb8b8dd10b0492	-0.10759817460622603
160	0xbf736091bb5b83fb	-0.004730767502878481
161	0xbf93a12af5bb4ed4	-0.01916949391200158
162	0xbf6223db34f004c4	-0.0022143632299963262
163	0x3fd5a7bd66b64cf2	0.3383630278633084
164	0xbfd8ba4ff00a4490	-0.38637159768502105
165	0xbfb4020118ccbe56	-0.07815558295691835
166	0xbfba86ef72012a70	-0.10362144978822996
167	0x3f7dd64f0bc00b91	0.007284458897632088
168	0x3fc53a7dc732368f	0.16584751345037715
169	0xbfa461d6657ed4de	-0.039808940782146016
170	0x3feecb93facdb5b4	0.9623508356577788
171	0x3fbae3a9a3bd8631	0.1050363564259207
172	0x3fba3b1253cc196c	0.10246386094886412
173	0xbfb1248a72149cd4	-0.06696381840866944
174	0x3f95b1669cdd05c6	0.02118454296510721
175	0xbf9f3018ee0c5963	-0.030456914452849825
176	0x3fc177a9884d1c3b	0.13646430163700693
177	0xbfd5173420f89f01	-0.329541237066664
178	0x3fd16dbe1e970099	0.27232316005029983
179	0x3f74985d742cbe97	0.005028119138657103
180	0xbfa4719485a018b8	-0.03992904788178592
181	0xbfb31c81d1a1881a	-0.07465373390144273
182	0xbf7b1cfdd281dde0	-0.006619445317589151
183	0xbfd63c956924d634	-0.3474477316661677
184	0xbfc60230b9c2b980	-0.1719418437036886
185	0xbfb9851a48a599fe	-0.09968723558049672
186	0xbfc080f96f69f535	-0.12893598499423722
187	0xbfb3f099637312e8	-0.07789000204054342
188	0xbf90f53b53bbd0ac	-0.016560484872528633
189	0x3fd2a259844b6e30	0.29115903777503416
190	0x3fbc4ce1511ccae3	0.11054809789929325
191	0xbfd4aee003edd07a	-0.3231735266083501
192	0xbfb7e71f0cf5b192	-0.09337038103485032
193	0xbf8f51837499bb1d	-0.015292193408837524
194	0xbfc2126d5b16a0ff	-0.1411873526351499
195	0x3fc3745853781853	0.15198806834831888
196	0x3fd4a8459ea499ad	0.3227705048797372
197	0x3fd02e8ebfbded09	0.25284165119929064
198	0xbfa14d2a14f1f0cf	-0.03379184251477484
199	0x3fb9213cefdcd124	0.09816342216510471
200	0x3f9750513cdf4a2f	0.022767323818536574
201	0xbfd2086e18830546	-0.2817645301220931
202	0xbfb43357e3e389aa	-0.07890843690578345
203	0xbfd99dc62fd9dbe1	-0.4002547709746392
204	0xbfba1b6a3945e0e4	-0.10198081873193449
205	0xbfcb42566c3afd81	-0.21296196255387304
206	0xbfb57b658d783308	-0.08391413406225123
207	0xbfb52f1386c8d927	-0.0827495769561649
208	0xbfac3657f2912b6d	-0.05510210834525862
209	0xbfe50da37fefa624	-0.6579148768188969
210	0x3fbde9b215bb7d5b	0.1168471625382969
211	0xbfc42a9b8d1da112	-0.15755028143326705
212	0xbf7057bb92d4a888	-0.003989918431481006
213	0xbf8d19890fb8547b	-0.014208861152875443
214	0x3fa2948b42953519	0.036289550664699806
215	0x3fbbc68cd64762ab	0.10849838477532596
216	0xbf7afd9f4e09112a	-0.0065895293087730265
217	0x3fa9e4fb1597c442	0.050575109849781544
218	0xbfa113a752ddb44a	-0.03335307013080831
219	0xbf7350167f920928	-0.004715049633093472
220	0xbf98b936594f4774	-0.024144028855352898
221	0xbfbebbe55e2e3be1	-0.12005456494647106
222	0x3f9c68ae8b314eb0	0.027743079419748795
223	0x3fa3216c6f5b7da4	0.037364376634055035
224	0xbfb7de403ea24432	-0.09323503045222095
225	0xbf8585a047698a22	-0.010508777789429994
226	0xbfc2f569f325d3c7	-0.14811443684052802
227	0x3fa7321b1b7b09e0	0.04530415258843212
228	0xbfb6115edfe2038f	-0.08620255437746337
229	0xbfc3d60a411a7724	-0.15496948412776945
230	0xc001566e17a0731d	-2.167202171882663
231	0x3fe3eca847f4e009	0.6226388364220848
232	0xbfb8d662350e3fb0	-0.09702123446754629
233	0x3f7822075733e9a3	0.005891827272757419
234	0xbf65daf456bddfdd	-0.0026678821795336053
235	0x3fc067fc045fb9b5	0.12817335332461047
236	0x3fca2a3951511608	0.20441357107681335
237	0x3fce45ffba27a699	0.23651119794458422
238	0x3fc3a9d3470b7602	0.153620156946019
239	0x3fb46ca2bf4c7f7d	0.07978264971143108
240	0x3f7b501880cce624	0.006668182101571971
241	0xbfc94a215a285662	-0.1975747766706944
242	0xbfab0a694a99976d	-0.052813806873742354
243	0xbfc180e17fc10ebd	-0.1367456315803021
244	0x3fd4c4960383bc89	0.3244986566850874
245	0xbfbd5190ee2b4791	-0.11452585043596587
246	0xbfc6aad94fad4c19	-0.1770888937995501
247	0xbfd52595de379e68	-0.3304190321054876
248	0xbfb8b3405eba32c4	-0.09648515999488
249	0xbfa779831b2f219e	-0.04584893900716057
250	0x3fc1150e77ee76f0	0.13345509391813648
251	0xbfc76ac3cf37fe5c	-0.18294570558645062
252	0xbfed4d58436352b2	-0.915691501252317
253	0x3fda5b8b5a428d59	0.4118374234623921
254	0x3f9079228fd464db	0.016087093380609523
255	0x3f8625609b365367	0.010813479172421215
