weights/vsself4/vsself268_theta.npy (npy, 65152 bytes, 1 tensors)

array f8 [8128]
000000 90 8e c4 cf d1 58 06 40 f4 a5 b8 6e b4 d4 64 3f
       2.7933689338549996 0.0025428318092692807
000010 4c 5c c6 a6 20 a5 f6 3f ea 23 64 af 22 1e 64 bf
       1.4153143419878402 -0.0024557759708199083
000020 d0 3b 98 24 d3 4c 74 3f b2 55 27 f4 90 8a e5 3f
       0.004956078316822279 0.6731648224473956
000030 04 52 4b b2 80 8d 24 3f 82 a2 32 8d c7 5a a3 bf
       0.0001568050003216832 -0.03780196760755407
000040 0e 22 a2 83 9b 81 43 bf df e8 5f fd ea b3 f1 3f
       -0.0005952843996662198 1.1064252755591537
000050 63 f7 5c 95 fa 2a 90 3f 4a 24 b7 c8 3c 27 c0 bf
       0.01578895126953429 -0.12619743156963842
000060 9c 9a f8 4f 24 af 47 3f c5 10 a4 ff 08 7d 85 3f
       0.0007227828318193299 0.010492391873875193
000070 7b 69 48 f9 d6 94 fb 3f 68 b4 63 1f ba 38 82 bf
       1.723837827454729 -0.008897260744982385
000080 d3 d5 5e ec 7c 4a 8d bf 67 76 e3 c6 6f e5 72 3f
       -0.014302230800107651 0.004613339069889122
000090 b7 d8 6e 04 41 42 69 3f 25 b8 61 22 07 94 d0 bf
       0.003083350169130385 -0.25903490407552204
0000a0 ee 01 89 54 ca 76 07 40 4b 99 c8 94 06 c4 8f bf
       2.9330031017600424 -0.015510608115687182
0000b0 42 31 ae f3 18 80 bd bf 96 f7 dd 72 85 3f c5 3f
       -0.1152358622477481 0.16600101574652787
0000c0 1c a6 b6 58 b6 db c4 3f 46 17 72 33 7e f2 9f bf
       0.16295508701050287 -0.03119847477912365
0000d0 34 35 e8 db e1 24 b2 3f df 78 f9 f6 48 81 01 40
       0.07087527865242721 2.1881274504549846
0000e0 b2 6e 33 e0 da 3f d2 bf c6 39 fb 59 55 f1 a2 bf
       -0.28514739889736085 -0.03699747775464206
0000f0 bb 34 0d b9 64 e9 ab 3f 1c 49 14 39 56 1a c1 3f
       0.05451502570085994 0.133616235609744
000100 86 93 9b aa 1c 7d a2 3f a2 e1 5d c2 0c 41 9c 3f
       0.03611077864278571 0.027591895449832322
000110 80 18 c6 b3 b9 8c a1 3f a2 20 c2 0c 1d 28 f7 3f
       0.03427677459244283 1.4472933290835859
000120 10 10 a3 fb 27 a9 95 bf e5 4b 9c ca f1 fe 90 3f
       -0.02115309213037625 0.016597536078801673
000130 50 f8 fa 41 86 8c 38 3f 57 11 5e ad a9 09 5e 3f
       0.00037458684708358437 0.0018333584789341406
000140 a6 69 9d 42 18 db 93 bf 6c e8 4b dd bf 2c a8 3f
       -0.01939046770653765 0.04721641136525609
000150 35 18 ae 3d c2 01 82 3f d1 aa c6 23 69 50 b6 bf
       0.008792417056394533 -0.08716446994246076
000160 2c 7d 79 6d 5b 6a c0 3f d6 7d 86 5a cc 06 89 3f
       0.12824576230466656 0.012219997894873307
000170 b4 a7 71 cb c6 17 91 bf f7 df a5 99 22 ae 7c 3f
       -0.016692262809023098 0.0070020057267967594
000180 16 53 51 e3 64 b5 71 3f e3 04 60 cb 95 31 6f bf
       0.0043233815132069 -0.003807823722127611
000190 17 66 de 74 13 04 87 3f ff 1f 16 d3 86 13 97 3f
       0.01123824310689074 0.022535425790493942
0001a0 5d d0 fd 64 23 c6 ad bf ca 0b 15 ce a0 6a 7a 3f
       -0.05815229995542446 0.006449344772877683
0001b0 87 c8 d8 40 1f aa d8 3f e3 f5 eb fd ca a2 af 3f
       0.38538342793175 0.06178888654356365
0001c0 dd 00 87 e7 cc 34 be bf a4 4d 26 0a 9c 62 99 bf
       -0.11799317028544772 -0.024790228003963258
0001d0 4c f8 fd 9a c8 88 8a bf d7 21 03 33 70 e7 c6 3f
       -0.012956206541044811 0.17893793574172775
0001e0 85 50 95 fd 28 dc d4 bf 46 04 be c4 a7 96 a2 bf
       -0.32593750728597853 -0.03630565907133891
0001f0 34 ca b2 79 9b 2f ad bf 27 01 5f e6 02 b1 a3 3f
       -0.057003840070497 0.03845986425540309
000200 59 4b c1 ec 9f a0 ab bf d7 e3 e1 e1 51 81 e1 3f
       -0.05395984425617568 0.5470361148610391
000210 0b 64 0b cb e3 38 b5 3f dd d0 de c7 59 4b a4 bf
       0.08289931971684454 -0.039637380264510226
000220 76 eb b4 b9 47 8b 79 bf cd 69 04 71 9a 8d 89 3f
       -0.006236343552980075 0.012477118085873063
000230 3c f8 a7 b2 9d fe a2 bf 6c 5b 9a 05 48 75 b0 bf
       -0.037098815973863414 -0.06428957115927653
000240 b3 7d 50 e8 56 ca b8 bf 3e e3 63 be 3c 5b b8 3f
       -0.09683745547999116 0.09514217041204362
000250 7d 13 53 69 fb 9a 48 bf 18 f0 fe ba 0f d6 bd 3f
       -0.0007508971781581133 0.11654756846741099
000260 90 73 a3 77 ae 29 ce 3f 4c cc 8b 7e 12 42 fc 3f
       0.23564701883051642 1.766130918808602
000270 ec cf 35 3e d8 52 7f 3f d2 72 5c 97 03 32 9e bf
       0.0076473662369273936 -0.02948766337714199
000280 0c 18 8d 52 a2 e3 a2 bf 60 9d 60 00 d6 96 67 3f
       -0.03689296014503904 0.0028795413700383604
000290 49 6e 2a 63 3e c6 8f bf 89 18 79 2c 0f f9 ab 3f
       -0.015514838601396923 0.05463454645045924
0002a0 e2 88 38 6b 47 bc d6 bf 58 70 2d 96 d7 e7 b8 3f
       -0.35524163695130373 0.09728763023798714
0002b0 92 84 b4 17 6f 89 a5 bf fd 3e ad cd 7e c6 a7 bf
       -0.0420641628682087 -0.046436274153732505
0002c0 06 4d ac 92 ab a9 77 bf 28 a7 d5 62 e8 67 c4 bf
       -0.005777044493487487 -0.1594210131254894
0002d0 e8 2e 4d e9 a8 23 dd 3f 31 cc 0f c8 c1 e1 a2 bf
       0.4553015020689899 -0.03687863890800037
0002e0 e3 42 96 45 76 23 97 bf a9 cc 56 97 04 51 a3 3f
       -0.02259621429181181 0.03772749278450622
0002f0 5b 39 7f 7a 84 4c 73 3f 0b 99 d3 39 48 3f b0 bf
       0.0047116446439317795 -0.06346560870915512
000300 8c 02 45 5f fc f4 ab 3f de f8 bf d9 88 d5 d1 3f
       0.054603468541704364 0.27865811600339707
000310 a6 4c 94 3d 0a a6 c7 bf 45 78 34 02 b6 59 91 bf
       -0.18475463873673909 -0.01694378269632348
000320 6b 53 31 fd 5c 77 7d bf 12 f3 f8 a9 46 f5 60 bf
       -0.007193911779798205 -0.0020700817256326188
000330 ca fd fe 30 1e 1b ab 3f 6c e5 14 2b dc 3d b9 3f
       0.052941268425907476 0.09860015918538573
000340 e5 6f c9 bb e5 c7 e8 3f c5 13 57 6d 5c d4 ac 3f
       0.7744015376770191 0.056307686183152884
000350 a1 5b 09 42 7f 63 a1 bf 2f 2f 9f 69 69 c2 aa bf
       -0.03396222764120372 -0.052264494078910644
000360 33 96 9b 20 a4 81 71 3f 28 0f 2d e0 61 86 b5 3f
       0.004274026033930722 0.0840817615799635
000370 ed 04 51 86 c9 02 aa 3f 51 86 73 de 16 52 c2 3f
       0.05080251469235884 0.14313016759756406
000380 01 e1 2f 97 c6 04 bb bf 88 fa 33 24 70 15 bd bf
       -0.10554162207688834 -0.11360836871970481
000390 4f bd bb d3 2a 2e 97 3f fe 0b b4 b3 ad 5e af bf
       0.02263705174749236 -0.061269214807929004
0003a0 30 24 5c 58 27 c3 bd bf 17 7b 4b 0d 2b a6 b2 bf
       -0.11625905902123246 -0.07284802507954811
0003b0 7e 9c 43 e0 5c b4 b2 bf 43 14 2f f7 6f 18 d8 bf
       -0.07306461787412563 -0.37649153842022914
0003c0 1b e5 a3 59 d9 95 b1 3f 49 e5 d6 39 a1 17 b2 bf
       0.06869276464921763 -0.07067306196303948
0003d0 7b 5d 0f d3 83 4f 89 bf 90 8d a4 16 79 16 6f bf
       -0.012358693960705427 -0.00379489564979147
0003e0 84 a0 a5 e7 a0 34 90 bf a8 ca 75 0f 19 21 90 3f
       -0.01582576192723241 0.0157512584386931
0003f0 42 c1 7f 35 b4 d6 ac 3f 9c 25 87 e1 7d f7 d1 bf
       0.05632556107582555 -0.2807306959553786
000400 bc 45 93 e2 21 a2 90 3f 2e bb f1 f7 34 83 97 bf
       0.01624348588376788 -0.022961452134434505
000410 5e 31 c9 1c 57 ff b3 bf 9b e8 c9 29 8b 5d ca 3f
       -0.0781149335172748 0.20597972431625497
000420 e9 8d 4f 6c 39 7d b2 bf 32 81 05 86 ac 25 cf bf
       -0.07222327131562846 -0.24333721679705317
000430 f6 64 25 79 71 c4 8a 3f 18 2b 86 53 d9 85 ba bf
       0.013069998273453436 -0.10360487260019757
000440 6c af 52 28 98 c4 93 3f 8b 8f a2 44 ba 02 7b 3f
       0.01930463548767085 0.006594398126399069
000450 08 63 bf 1b 76 50 7e 3f 16 00 39 e2 8a 9d 47 bf
       0.007400952683348512 -0.0007206848280887381
000460 58 0d 30 f8 10 e2 95 bf a8 67 c4 c8 2c 70 c1 3f
       -0.021370186947036046 0.13623580744825614
000470 16 61 63 24 7c 32 6d bf 01 5e 5a 3d 99 e5 a6 3f
       -0.003564112153167663 0.044720448245410445
000480 74 96 a9 58 b0 4a 9d bf a4 4b 96 12 21 3b 8f bf
       -0.028605227862860308 -0.015249498729451201
000490 05 1f a3 83 0b 50 d3 bf f3 51 dd 2f e3 1f b8 3f
       -0.30176055770105875 0.09423656385963124
0004a0 16 10 ef f2 fd 1a c2 bf 27 04 8b e2 bd 6a 9a 3f
       -0.14144873010639064 0.025797812416161883
0004b0 1f 3b 42 b8 09 5c ba bf f9 c2 d6 59 2c 0a 97 bf
       -0.1029668879366281 -0.022499745353061738
0004c0 f4 28 17 6f cb 58 d9 bf 37 ac 26 6c 82 3a a1 3f
       -0.3960445961826189 0.03364951677516397
0004d0 e7 1b 7c 43 03 14 af bf 0d fa 11 aa 35 65 89 bf
       -0.06069956015385696 -0.012400073292380598
0004e0 33 51 d9 52 88 71 74 3f cf 56 3c 4c 2f 62 ce 3f
       0.0049910855428445975 0.2373713609928729
0004f0 c7 57 43 fe 98 eb ad bf 58 89 b0 af 39 63 75 bf
       -0.05843809226796242 -0.005221581780491334
000500 a9 e0 49 d4 98 0d 84 3f 01 f6 dd 47 2e be 98 bf
       0.00979155919888826 -0.02416298211709567
000510 29 ae 3a c5 2f 6a 8c 3f b4 73 f7 fe ac 20 cf 3f
       0.01387440987249196 0.2431846852258822
000520 43 48 b2 f1 fe 5b d2 bf 62 e5 17 29 be e1 b5 bf
       -0.2868649826351694 -0.08547581198935952
000530 66 2c 45 09 d5 8b b7 bf 2a af 3b 6f 3a 33 97 3f
       -0.09197741962741332 0.022656357802517103
000540 ab 49 85 2f 12 a9 ba 3f 8d 2f 87 0a 57 cc 98 bf
       0.10414231929943323 -0.024216995256025654
000550 93 d0 86 8e 8c c9 e5 3f 3d 4b f1 92 83 c7 c0 3f
       0.680853155491166 0.13108868288926515
000560 e5 3f df 5a b8 45 b4 3f 51 76 7d 59 af 47 aa bf
       0.07918884485775342 -0.05132816283615383
000570 89 f4 b8 9e 77 5a 72 3f b0 ae e8 a1 a2 b2 b3 bf
       0.004480807557738172 -0.07694450810293563
000580 3b 3f 66 e1 50 47 c1 3f 25 cc 79 95 b3 fb c9 bf
       0.1349888897498149 -0.20299382017728465
000590 a7 d1 67 d3 ec 96 ac 3f f8 d7 db e1 a9 f7 78 bf
       0.055838967138615296 -0.006095565416890374
0005a0 89 b7 a8 03 0b 34 95 bf a0 f8 86 41 97 45 b5 bf
       -0.020706340883570405 -0.083093122003421
0005b0 ee 22 bc 0a c3 1c b3 3f 24 51 ec ca ff 00 d4 bf
       0.07465762149889674 -0.31256098572454705
0005c0 01 81 f4 46 4e df b6 bf a1 3a 44 c8 22 07 b2 bf
       -0.08934487564375006 -0.07042138470954253
0005d0 b9 30 72 47 e0 ec ca bf b0 5c f7 80 56 8d a9 bf
       -0.21035388458802176 -0.04990644764228003
0005e0 bf 91 9c 08 d1 f0 b1 bf 6c 6b ce 11 3a a6 e5 bf
       -0.07008081875080217 -0.6765413615970437
0005f0 35 8f 5d 49 04 6d b9 3f 45 b2 ba 97 f8 a0 79 bf
       0.09931971350812037 -0.006257029595570678
000600 5e 58 34 58 1f 92 b1 bf 96 de b6 c1 d2 5f 94 3f
       -0.06863590148381735 0.019896786759743344
000610 bb 66 7c e1 61 02 c2 bf 32 a7 08 2b 30 2a c4 3f
       -0.1406977034574107 0.1575374803663237
000620 1e f8 ff 37 a0 a5 d2 3f 2a de ad 39 36 cf d0 bf
       0.2913589999078584 -0.2626472056649357
000630 7d 99 cb c1 1a f3 9f bf 3c 01 bd a9 39 c3 c0 3f
       -0.031200807646109652 0.13095780170443472
000640 a0 9b 3d 68 e1 ac 77 bf 80 80 0f aa 7f 30 cc bf
       -0.005780106064640217 -0.22023006252038968
000650 46 42 22 e3 41 f7 b3 bf d0 7e 62 36 4d 7e da bf
       -0.07799159808406228 -0.4139588385678339
000660 ee bc 74 7e bd 23 b5 bf 25 99 74 69 a3 f2 c5 bf
       -0.08257660233788375 -0.17146723412697287
000670 a7 66 f2 ff a1 c7 b2 bf 59 02 05 b3 b3 15 a8 bf
       -0.07335865496352288 -0.04704057274148416
000680 95 74 e8 4a 48 1f b6 bf 6c 4a 3c d6 49 2f de bf
       -0.08641483143624591 -0.4716362564223917
000690 84 6d 7c a6 a3 40 bf 3f 2f 56 df 1c 44 63 c1 bf
       0.12208006682015166 -0.1358418599108275
0006a0 6e 7b 10 10 93 78 63 bf 85 fb 6a 3c f7 64 8f 3f
       -0.0023768303222050846 0.01532929566508102
0006b0 ad 41 29 88 bd ba a1 3f 90 ef 96 67 df b9 bb 3f
       0.03462784087298885 0.10830494193117901
0006c0 30 6f da 20 57 47 6d 3f 78 d7 f9 21 e2 68 b4 3f
       0.0035740567898993256 0.07972539262286016
0006d0 6d fd e8 4d 09 16 a1 bf 87 57 bb 19 94 16 93 3f
       -0.03337124897052033 0.01864081770948858
0006e0 90 4a 5c 30 18 f7 93 bf 3d b6 d2 f4 cd 19 bc bf
       -0.019497278167430354 -0.10976874568105983
0006f0 3e e4 3b 91 ac cb 9d 3f 81 56 d4 84 c4 06 95 3f
       0.029097267498375816 0.020533629042879035
000700 f1 ce 89 62 ff 80 b7 bf 26 79 e5 cb 57 40 8c 3f
       -0.09181209712715678 0.013794599447177602
000710 89 7f bc 39 d8 f5 c2 bf 95 fd c4 47 e1 11 a8 3f
       -0.14812758273273754 0.047011413584637264
000720 3b f3 77 8c da c5 b2 bf b1 58 95 a7 ba fc c3 bf
       -0.07333150796325764 -0.15615018065245104
000730 a4 6e 8c 28 fc 36 ff bf 56 0a 2e 63 cf 0b db 3f
       -1.9509240707329036 0.4225958317330528
000740 ce 33 69 fe 7a 85 d4 3f ad 1d 63 63 15 76 46 bf
       0.3206469997865583 -0.0006854633745882376
000750 8a b4 8c 82 39 54 76 bf df 44 72 5b 8d e8 c1 3f
       -0.005451416633872283 0.13990942921785796
000760 dd c9 70 93 a9 da cd 3f 16 0d 58 ae bb 70 cc 3f
       0.23323554705855445 0.22219034207237404
000770 0c 95 db a2 16 26 d5 3f 3b 47 c8 6e 71 26 ad 3f
       0.33044973281933276 0.05693392255137871
000780 c9 6d d5 f0 7f fe 76 bf 04 d9 9b 3d 2b 1d c6 bf
       -0.005613803642826772 -0.17276516445389956
000790 44 70 c6 ea 2b 26 90 3f fa ea 20 d7 6a a9 8e bf
       0.01577061291173744 -0.014971575441554464
0007a0 a1 f7 bf d1 f5 6a cf 3f 4d c5 87 f6 55 56 9d bf
       0.24545166722958547 -0.028649657413500496
0007b0 12 ac 74 01 50 aa c8 bf 38 7a ed 12 25 06 d4 bf
       -0.19269752570230075 -0.3128750500526709
0007c0 f7 34 16 a9 40 77 c0 bf 30 45 ee 4f 4b 61 d0 bf
       -0.1286392999285579 -0.2559383659909882
0007d0 76 8c 2b 6e c3 87 b0 3f 0c 5b e1 41 3e 11 d1 bf
       0.06457158508014679 -0.26667744096396073
0007e0 95 6c 9b 4e 96 d6 e3 bf 3f 63 a6 a3 ae a4 da 3f
       -0.6199447188659116 0.4163014028686582
0007f0 82 3e 69 d2 41 4c 95 3f f2 66 8d d5 35 a6 80 3f
       0.020798710315203646 0.00812952096900996
