weights/vsself4/vsself258_w.npy (npy, 65152 bytes, 1 tensors)

array f8 [8128]
1.3544099113231793 -0.0007685979662804759 0.20824442182477346 -0.0002894228009707921 -0.019763932582277127 0.06953634244012798 8.216967345529441e-05 6.620035529247977e-05
0.00027753260209421643 0.13359990643202854 0.0008968545905568896 -0.002656989384051813 0.003965928545091259 0.0015564594266515202 0.2611683422176791 0.0011024315909658763
0.001426536198160113 0.00015249792280807523 0.0016546494580047281 -0.001510991531832159 1.2824727376689862 -0.0031373451173189607 -0.2282064974928346 -0.0222118553361482
0.009345427857890862 0.02305509012728104 0.009135753575234183 0.31663504687646754 8.945927333775283e-06 -0.07593903084476934 -0.03578203366343829 0.004982814585795282
0.01618546624145033 0.007568681058204102 -0.06027013301157087 0.10676557370556727 0.0008250974363995668 -0.02739716547587447 -0.014171218230669677 0.00019739292416047423
0.004490834568297564 0.0014184310917464507 0.04367692174671478 -0.031207662689304385 0.04211292600751594 0.00021062151577572278 -0.0019000847272828917 0.001202038784400779
0.0017406056468732003 -0.013780790603340226 0.0008665923833456854 -0.0005251563000650685 -0.00919989288419751 0.0009823735200757187 0.07192173288754912 0.006261463455783434
-0.012162427652335682 -0.003110592617557235 -0.01512781469104955 -0.14361218887487218 -0.00030266407987682864 0.0622568718136366 0.04835588036772597 0.007338862416173334
-0.010228771850931493 0.07712441219463179 0.005535040907316558 0.004115686657094028 -0.00022139800461783548 -0.0008250385977756578 -0.22131665160786715 0.00023251847235140858
0.07250705758915266 0.04038860112227902 -0.01425120274337792 0.020466415023298122 -0.05992091732345619 0.2758202722114066 0.005153929092394473 -0.03954260651293992
-0.009699378431397662 -0.0014397508374119565 -0.0022160899180948416 0.010283620690804029 -0.17665520873853155 -0.04989952379151855 -0.0034858807760954165 -0.012054246404979712
-0.002633215435845295 0.01165162865446978 0.10110137183962145 0.004320131606307919 -0.06071588102095881 -0.006853509376649588 -0.0012265492322434384 -0.008192140289115718
0.0076681883987236785 0.05975914140089023 0.06375103289085976 -0.00654581258369732 -0.009384392274291211 0.018455061366428865 -0.0029364367193162304 -0.025709455895920694
0.02223026206274079 0.002931703756341896 -0.03295725403020356 -0.007778901402243187 0.0012043154589419834 0.008140260335936822 0.002306821278808571 0.03142639836791458
-0.027963015309323956 -0.018178064373426128 0.0023047384766803226 0.0011386881756712346 -0.021961593449800917 -0.014249453433183956 -0.024110681669473607 0.0005605956271781622
0.0027241580463209587 -0.0072090232804113055 -0.0017057947751973246 -0.00015945195512072493 -0.011145292093101828 0.004950129984263085 0.012689980807610026 -0.022868672204040225
-1.6443896019403962e-05 0.00011306993299873442 -0.017043060527951518 0.015496188710302828 -0.026481831606642567 -0.04269533066812567 -0.0011034196181463215 0.00505992548375013
0.005700933105454091 0.003625856057372514 -0.0003816592815967468 0.0013256142287826097 -0.0851304187793378 0.01594896334820427 0.006753212949171853 0.030807839758353762
-0.0034468872271317206 -0.006292823388272947 -0.09681647187404577 -0.015334508224766785 -0.023883507628059894 -0.0028987835169764554 -0.009121771260016398 -0.014169926515917563
0.04331538072806472 0.010328033179585422 -0.0005294737594576051 -0.001823851155904869 -0.0022959563023986977 -0.10210778385125038 0.0035866492005455024 0.05305720200497197
0.0681762208316596 -0.009795470102210883 0.0002886841851802695 -0.062083802399288 -0.2869573900772615 -0.02010654352791906 -0.005454211855794928 0.019507961866832617
0.006725025445589578 -0.03554833385379844 0.04352478626077834 0.014413057625426457 -0.023112135430070978 -0.014127547399065972 -0.0005347516053358578 -0.008383648668547697
0.023818306015737842 -0.11008890877568181 -0.022205529988463778 -0.0021679246626311413 -0.012905754943245123 -0.03215307355852044 0.014898621214278469 -0.10374636026083275
-0.04104270642300956 -0.02205919040846366 -0.023157775184226317 -0.01666234550476694 0.024778079430538353 -0.022530481340108134 0.01298042527093379 -0.057797065319014206
-0.016044257633904532 0.0018218782978346123 0.046734646983304776 0.011293711419711229 0.04033088737380368 0.015142960311115136 -0.0009217664605557421 -7.998270938170657e-05
0.036523310576657496 0.012875728057145106 -0.05051506204551847 -0.04128158246021726 -0.03463831926570001 -0.05079175195129899 -0.017014607156556703 0.0031126634542332754
-0.047002700604649825 -0.05187615051559549 0.012641388569776316 -0.04244729117640362 -0.00868172178129076 0.0052684393021078645 -0.005803118490056658 0.010567159834815362
0.01736581744588366 -0.011178063932840392 -0.019241113374376877 -0.0015239194927563174 -0.014270857378637874 -0.019100502564589943 0.017154303384790442 -0.0107917318075504
-0.02399787754719781 -0.013006319475969731 -0.018864538458888618 0.018038207903150878 0.028037735708000538 -0.039412165657346655 -0.09624793759629992 0.07643543614220927
0.07562581927480337 -0.003995004122174218 0.0012243030536996564 0.003980522592322147 0.02601039536422295 0.08942754587947523 0.014918024060154361 0.029133730443921965
-0.005521168966361191 -0.020811354017431668 0.007119518113490504 0.04248613101783602 -0.01854248177262171 0.010572683248428501 -0.036108692081625385 -0.005729290669716774
-0.021767495612286948 0.02486987542948595 -0.02960864670693437 -0.021675470148024022 -0.09892694148584509 0.06644101222224685 0.045937967038535164 -0.0035099757182936006
00000000: 592e 28ba a9ab f53f c753 8190 772f 49bf
00000010: 11ea a7d2 c0a7 ca3f 5ac9 0277 b5f7 32bf
00000020: b82d 5310 ff3c 94bf 39ef a93c 22cd b13f
00000030: d59a a83d 508a 153f 68c0 a071 a15a 113f
00000040: d6ea 1673 3930 323f 87e6 6f3e cd19 c13f
00000050: 37ec 5e91 5c63 4d3f 388e 5450 1cc4 65bf
00000060: 021b 64d6 933e 703f 54f4 7095 4380 593f
00000070: 77d4 246c fbb6 d03f 890d 46e8 ee0f 523f
00000080: a381 5494 535f 573f 1da7 ad2e fbfc 233f
00000090: 8c0b be53 1a1c 5b3f 251d aecd 8ec1 58bf
000000a0: 52cc 2422 0285 f43f a2d4 9a55 7db3 69bf
000000b0: ffb3 bbd9 de35 cdbf 194b 0261 b4be 96bf
000000c0: 9257 2218 b223 833f 067a 69e8 c09b 973f
000000d0: acba a316 c4b5 823f cb84 c6a4 bf43 d43f
000000e0: 70bf fde3 cec2 e23e 3ddd f785 bd70 b3bf
000000f0: 67d8 bcd0 0552 a2bf e823 021b dc68 743f
00000100: 5dcd b540 ec92 903f 20c6 e659 5600 7f3f
00000110: 1aa8 6b14 badb aebf 6072 6717 fd54 bb3f
00000120: 864b af40 6b09 4b3f 054f e3a6 000e 9cbf
00000130: f8fa c2b6 cc05 8dbf e6d5 b54e 68df 293f
00000140: 742f a439 fb64 723f 2ac0 a4c9 543d 573f
00000150: 60f3 fb4c d25c a63f d767 8aca e6f4 9fbf
00000160: 42de e14f d38f a53f 2278 4f0b 499b 2b3f
00000170: 680e da70 8821 5fbf ee20 1f51 b7b1 533f
00000180: 8104 0715 a184 5c3f f08c a267 1a39 8cbf
00000190: e9ed 03f9 8065 4c3f 7d22 2991 5435 41bf
000001a0: 31c0 83b8 64d7 82bf 991e 0989 5f18 503f
000001b0: e9a8 9f72 7669 b23f 4074 48cc 9ea5 793f
000001c0: ccd1 0d68 9de8 88bf 5ce8 08b2 627b 69bf
000001d0: 5632 ddea 54fb 8ebf 7d24 435b e261 c2bf
000001e0: 837b 2253 dcd5 33bf 511b c8f8 21e0 af3f
000001f0: df51 7f19 1ac2 a83f 91b1 13e1 5a0f 7e3f
00000200: 72bc 9f84 d2f2 84bf 0463 19ec 6cbe b33f
00000210: 4df7 dc3a e9ab 763f 631e 7c39 9cdb 703f
00000220: 912e e360 e204 2dbf d525 cfe5 ec08 4bbf
00000230: 63a6 5ba2 1a54 ccbf f1d1 0b78 067a 2e3f
00000240: f018 1391 d28f b23f ed1a e791 d0ad a43f
00000250: 1819 b10d bc2f 8dbf d605 c4dc 25f5 943f
00000260: f349 8058 f4ad aebf 1e32 2e12 0aa7 d13f
00000270: b521 5d4e 491c 753f cc18 8bb3 ed3e a4bf
00000280: f82b 3c89 44dd 83bf 636b b5b0 c096 57bf
00000290: e28e 2437 7a27 62bf 466a 6934 940f 853f
000002a0: 1f9b 194c a39c c6bf 0585 8a2d 6e8c a9bf
000002b0: 9672 cbfd 6b8e 6cbf 63d1 b290 e5af 88bf
000002c0: 38d6 c4c5 4092 65bf bff0 2020 cfdc 873f
000002d0: d2c4 a18d c7e1 b93f d987 6a7f fcb1 713f
000002e0: af6a aae6 2616 afbf 492b 2bea 6c12 7cbf
000002f0: 780c b935 8518 54bf 300a 0275 0ac7 80bf
00000300: b8fa 45a6 ad68 7f3f c160 e80b c098 ae3f
00000310: 043b 5ad9 fc51 b03f 5b48 902f c8cf 7abf
00000320: 3b8e 49cf 1f38 83bf 2bd5 0e34 e2e5 923f
00000330: 3cbb a375 270e 68bf a96f 1561 9453 9abf
00000340: f9f6 29a2 87c3 963f 185c 2978 3a04 683f
00000350: 718d 73f0 c5df a0bf 3f6e f1f1 c4dc 7fbf
00000360: 947e a7e0 43bb 533f f3e3 633f d7ab 803f
00000370: 3909 683e c1e5 623f 1c49 71f2 1e17 a03f
00000380: b61e 0131 56a2 9cbf b32b f43f 459d 92bf
00000390: e4f7 420c 63e1 623f a6f0 631e 01a8 523f
000003a0: 6f2e 8a96 197d 96bf 40e8 d943 d12e 8dbf
000003b0: 7fc4 0475 78b0 98bf ce08 48f1 9d5e 423f
000003c0: d18a fa36 f950 663f 9685 9b73 3587 7dbf
000003d0: d774 7b31 9ff2 5bbf 3426 74dd 51e6 24bf
000003e0: 5d9a 5ac8 57d3 86bf c032 4b66 9646 743f
000003f0: a1c5 7164 34fd 893f 658f e09c e26a 97bf
00000400: c281 11ee 1f3e f1be 11fa 55a8 fea3 1d3f
00000410: d17d 5d6e bc73 91bf 5a83 c93d 77bc 8f3f
00000420: ec3c c1a2 0d1e 9bbf dcb0 d291 29dc a5bf
00000430: 46f4 1dcb 1314 52bf 9003 9167 b7b9 743f
00000440: 2beb e993 dc59 773f d223 f7a5 f8b3 6d3f
00000450: 9ad9 f621 2e03 39bf 8e79 9f70 07b8 553f
00000460: 8052 8d6c 1bcb b5bf 9d4b f1cf ec54 903f
00000470: f763 27cc 41a9 7b3f fde0 e320 178c 9f3f
00000480: 14a5 3b7d a53c 6cbf 6326 6fea 80c6 79bf
00000490: eac2 69dc f6c8 b8bf c0dc 9ada b267 8fbf
000004a0: bc83 b410 eb74 98bf cd45 ea8c 30bf 67bf
000004b0: 6068 f269 6fae 82bf d3dc c757 1f05 8dbf
000004c0: 6e1a 48ff 6e2d a63f 8315 e825 dd26 853f
000004d0: cf1d 903d 8c59 41bf aa01 5044 c9e1 5dbf
000004e0: 6f4b 6b27 f8ce 62bf 66e3 4e58 bc23 babf
000004f0: d31a 98a0 bf61 6d3f 1d74 db46 502a ab3f
00000500: ed3b d62e ff73 b13f e24d e7bd a50f 84bf
00000510: df59 5c22 51eb 323f 1e21 d5b9 72c9 afbf
00000520: f48c 6e87 825d d2bf 3c53 8d4b cf96 94bf
00000530: c7cd bcd8 2757 76bf 4e2c eb28 e5f9 933f
00000540: 543e a845 b38b 7b3f 15a1 a826 6433 a2bf
00000550: ba61 1c7b e148 a63f 0ab2 17d9 9784 8d3f
00000560: 0663 4027 b5aa 97bf 44d6 6950 e7ee 8cbf
00000570: c0f2 0454 d285 41bf 480e d246 722b 81bf
00000580: 59ec 8875 d363 983f 9208 d866 c92e bcbf
00000590: 76fa 5ce4 0bbd 96bf d591 d6b0 77c2 61bf
000005a0: d69a 4a1b 556e 8abf 1aa9 cc1e 5e76 a0bf
000005b0: 576f f716 2b83 8e3f 3a39 6618 1f8f babf
000005c0: d1fd a6b3 8c03 a5bf f1b8 8535 af96 96bf
000005d0: d7ea 41fc abb6 97bf b60c 1214 ef0f 91bf
000005e0: 4556 3fc3 6c5f 993f 3a5b 1302 3b12 97bf
000005f0: fef3 3630 7b95 8a3f 932b b3b2 9397 adbf
00000600: 2c0c 4ee7 e76d 90bf 6a29 37ed 82d9 5d3f
00000610: e24c c488 9aed a73f b4c0 9549 2821 873f
00000620: f60a 9404 40a6 a43f 2b2c 68ba 4503 8f3f
00000630: b0cb bc66 5634 4ebf 54e2 f17b 8cf7 14bf
00000640: 73d1 eff0 2eb3 a23f 454d 57f7 965e 8a3f
00000650: 4fbf e136 1cdd a9bf 5b01 300d dc22 a5bf
00000660: 5b82 de20 1dbc a1bf 9922 1363 6001 aabf
00000670: 09b3 2af5 466c 91bf 7b0d a977 ba7f 693f
00000680: 7e5f d7eb bc10 a8bf 744f d0c3 828f aabf
00000690: 22a1 dd73 bae3 893f 4919 d0be a6bb a5bf
000006a0: b129 fdf8 b8c7 81bf 0e65 0ee8 5b94 753f
000006b0: 00de 12c2 02c5 77bf 7893 372f 3ca4 853f
000006c0: 6d56 fe47 58c8 913f c973 3158 86e4 86bf
000006d0: 4bef b942 f1b3 93bf f21f 8518 c8f7 58bf
000006e0: 8329 d10d 0a3a 8dbf 1e87 6807 158f 93bf
000006f0: abe5 17d0 e590 913f 28ef 71b9 f919 86bf
00000700: b65a f44c e692 98bf 742f 53a6 0ea3 8abf
00000710: cbb3 f0be 3951 93bf 7505 17a4 9b78 923f
00000720: ebd3 ad97 ecb5 9c3f 552c 20d5 d42d a4bf
00000730: 3197 4870 b4a3 b8bf 307d 7cd2 4591 b33f
00000740: 8fbb 84b4 365c b33f 677f d5c0 105d 70bf
00000750: 55b9 dd64 190f 543f dd21 ae65 e14d 703f
00000760: 700e c815 78a2 9a3f 69f4 e940 b9e4 b63f
00000770: a3a7 ac4b 578d 8e3f dc55 de8d 3bd5 9d3f
00000780: cee1 5682 5d9d 76bf 2fb7 8f53 924f 95bf
00000790: 551d 5f17 5b29 7d3f 8ca6 82fe bdc0 a53f
000007a0: d649 33e3 ccfc 92bf 7184 4386 21a7 853f
000007b0: 820f 2fa7 d67c a2bf b931 e4c0 9877 77bf
000007c0: 1a17 15e7 374a 96bf e53d 8016 7d77 993f
000007d0: 93f1 23a5 ba51 9ebf 530e a52d 1832 96bf
000007e0: ad00 60aa 4653 b9bf 5891 9b36 4702 b13f
000007f0: 2385 2664 2e85 a73f 1935 6fdd f3c0 6cbf
