weights/weights_17/vsself8_w.npy (npy, 65152 bytes, 1 tensors)

array f8 [8128]
00000000: 5725 1829 8a2d ee3f 904e 9651 2dae d23e
00000010: 0fb7 7ad2 be27 c73f 0000 0000 0000 0000
00000020: 0000 0000 0000 0000 3884 2069 b8a2 ab3f
00000030: 0000 0000 0000 0000 0000 0000 0000 0000
00000040: 0000 0000 0000 0000 1d7f ac5a 5514 843f
00000050: 01c2 528e 02ae 23bf d555 2540 884a 223f
00000060: 0000 0000 0000 0000 0000 0000 0000 0000
00000070: bb92 a1f7 5d7f d43f dd18 a54d 7d1d 1c3f
00000080: 1579 96ec 7377 32bf 0000 0000 0000 0000
00000090: 8564 9e56 d2d2 29bf 8b78 f7bc 501e f3be
000000a0: 70b6 564f f023 ef3f 9695 f395 3dde 523f
000000b0: d595 562a ff32 14bf be50 5b92 279a 26bf
000000c0: 187e aef1 67a7 44bf a8c1 eedb d208 26bf
000000d0: 7898 9f30 42dc 663f 6e85 1658 1da6 de3f
000000e0: 8fe7 18dc b38d 433f 1c91 73e1 aefa 49bf
000000f0: 0000 0000 0000 0000 0000 0000 0000 0000
00000100: 7ccc 3493 d9e7 473f c916 f1ac 0a5e 15bf
00000110: 591b d93e b547 55bf b34f b332 8cf0 bb3f
00000120: d26a 4cb0 1715 38bf 0000 0000 0000 0000
00000130: 0000 0000 0000 0000 0000 0000 0000 0000
00000140: 1383 5dec b5f7 54bf 65eb f863 39cf 48bf
00000150: ccf6 8f44 9122 35bf d768 7a97 d641 5bbf
00000160: 07cf a61e 4ab7 a93f 0000 0000 0000 0000
00000170: 3249 387f 17d8 1cbf 7103 bc34 f7d5 34bf
00000180: 0000 0000 0000 0000 d063 daff 13f5 05bf
00000190: 2a79 dacc ee9b 40bf e706 b045 1a62 51bf
000001a0: 5ac9 81ce d1ca 34bf 625f bd2d 1a8a 59bf
000001b0: e294 9b79 af70 8c3f 69bd e164 e903 603f
000001c0: c689 bf42 65d9 5ebf 3d16 5faa 78a6 253f
000001d0: 1a7b 581f a8ef f9be feeb 5f0c 8867 42bf
000001e0: 762e bafa 18b8 463f 6a25 24eb 588c 76bf
000001f0: 3a15 956a 7507 73bf 9667 923d d922 48bf
00000200: 0296 a6af 8e72 26bf 98d5 fe16 0ed0 b73f
00000210: 4779 aa1d d2b4 463f 32b7 9088 a777 373f
00000220: 374a 2e4e 1810 2b3f 71af 6f43 e8b8 25bf
00000230: f25a 141a 46c0 3d3f 73fb e930 7b25 433f
00000240: 480c f118 6e1e 5fbf 5a3e 375c 84a3 6dbf
00000250: c954 a41a 1f34 203f 08e1 1c3f e659 06bf
00000260: d813 2b65 9c1a 7dbf b9d0 ffbd 58ef d13f
00000270: 9887 f6f0 2a7c 7b3f c619 8fa1 9b0f 8ebf
00000280: 1b13 238f bfe1 553f 2ade 2e17 6d45 3abf
00000290: e70e 8446 4176 74bf 39fe 448c 35a1 953f
000002a0: a945 b048 1ea1 99bf f645 4c1d 3e99 93bf
000002b0: 9cce e890 6b9d 413f 3f24 187f b827 5cbf
000002c0: 5b9b 2a4a ab58 783f 4fbc 4fd9 fd4e 743f
000002d0: e7b9 9e1b 883d b03f 7ad7 ab5f 18a9 483f
000002e0: 82a9 f54c a5d9 7abf 570f 2378 379f 60bf
000002f0: b693 bc65 ed3c 3abf 6585 cb20 2a69 5fbf
00000300: d233 e6aa 1d83 713f e923 3872 74d9 6b3f
00000310: 38e7 1475 7d9c 89bf f6c9 40f7 1848 71bf
00000320: 1339 5ad4 dc9d 433f 4d29 c40f db5f 92bf
00000330: f791 eaeb cbce 8bbf 88ea ecc1 16ce abbf
00000340: 9364 ef3f 9c3a 8e3f fbc4 a446 c5d4 403f
00000350: 0000 0000 0000 0000 7f2a 0183 358c 34bf
00000360: cffd 729d dc46 34bf 8f70 8d9c ad3d 3d3f
00000370: 3ab5 d3e6 63fc 1e3f 6b9c 11c0 94a9 40bf
00000380: 6023 2906 edac 58bf 7fbf 49b6 3285 4bbf
00000390: c5e4 5a9b 0166 4ebf 8997 fd15 7dca 373f
000003a0: 0ff1 98d9 8d33 573f 75fd 1191 8b2f 4dbf
000003b0: 37b0 cb38 835c 6fbf ba90 d828 9917 a3bf
000003c0: bf8f e244 7853 6c3f 76da 013f d004 5cbf
000003d0: 0000 0000 0000 0000 c2da cace 2e01 383f
000003e0: f764 f64b 613b 593f e198 e276 04b9 723f
000003f0: db04 c88f ae4f 463f 442e 1c62 5297 7abf
00000400: 5406 1661 a61c 353f 9bb0 f529 9764 223f
00000410: 3ac5 2c12 7341 70bf ee62 b375 004d 67bf
00000420: 0f3b b2dc 3ec5 8fbf 7aa8 20dc 698c 54bf
00000430: b84e de84 6129 d03e c9b3 0a99 f90b afbf
00000440: b05c 23c5 23c3 833f 5566 f39b 643d 323f
00000450: 4a82 57a5 3d8d 393f 3978 49aa 96d4 393f
00000460: 74d7 849a 6061 61bf 8ddf 3498 8411 793f
00000470: 40c4 f40e c880 333f 6829 53f7 426c 86bf
00000480: e896 e63d cacd 4f3f 4e2d 2c23 9441 22bf
00000490: 2357 19e2 3dd3 8cbf 5166 9d6e 2d15 9bbf
000004a0: 04a9 977c e757 953f 2dba b5c8 090a 8ebf
000004b0: 4a64 0405 511e 523f d6b6 1941 03e6 94bf
000004c0: 6554 2104 fe10 9a3f e44a e71b 2be5 7e3f
000004d0: 7fbe c236 3813 713f b21a 8644 af4a 5d3f
000004e0: de83 8b12 4a65 4e3f 5f72 14e7 646e 69bf
000004f0: 9ed1 5449 3179 783f f381 5abc 512d 863f
00000500: 440a 2618 fd6c 713f 6466 79a6 ca09 573f
00000510: 0da1 bf68 e311 543f 9a19 f532 8fc6 a2bf
00000520: 99d0 1d8a fb41 83bf be20 862d fc82 603f
00000530: 26f2 0b91 6771 80bf 617a 4f24 dc11 32bf
00000540: 6adc e870 fb62 8dbf e68e 7ca5 5f9d a8bf
00000550: 579a a7f8 e9e4 a93f 3a49 059e e448 803f
00000560: 2f90 c6b4 2ffb 63bf b642 b259 7428 673f
00000570: 310b 3cf9 7557 48bf 554f 9be9 0d9c 773f
00000580: f1b1 b3c7 106b 9a3f 20c8 38a8 5a3e a0bf
00000590: d382 2f87 01e1 96bf 28b3 6dbb 6be3 6dbf
000005a0: 32dd 3c95 6b02 663f f1da 12fa 8941 83bf
000005b0: 2abb d37f dee7 8e3f 07b5 8f48 794d bebf
000005c0: 04b6 6ca6 d837 a5bf 7e69 5bbd 418e 703f
000005d0: 9ab7 22cb 619f 8cbf ef66 cba0 2208 9d3f
000005e0: d2ed 5270 39b7 87bf 6c78 90bf 53e9 95bf
000005f0: 3334 521e b4b5 8d3f fdf2 34f0 6c9b 6e3f
00000600: 0692 955c 9e02 6f3f 07a2 5067 3699 4f3f
00000610: 4b45 54b5 3f60 773f 0d31 4c49 e4a0 903f
00000620: 55d2 06b2 13f2 87bf 2e13 2314 ec22 6ebf
00000630: a2bd fbdb b1fe 6d3f f670 87d6 ef80 663f
00000640: 7bfe e48f 91db 803f f9a7 0966 2e09 733f
00000650: 54c1 46fd 3097 a5bf b9f8 b367 3705 78bf
00000660: 006e 9ca1 602f d43e 0d67 ddc1 0510 81bf
00000670: cf83 6566 b43b 9abf b2be 5dd6 72de 703f
00000680: dc16 c139 52a6 9fbf 41c9 e299 3400 983f
00000690: 352f b512 3237 573f b6ea 04d0 0eba 7a3f
000006a0: f06a 3708 483e 673f aa44 9031 6ae9 42bf
000006b0: 80b0 0945 3943 7c3f f79a f69c fd88 7b3f
000006c0: 36d2 e1d2 058b 79bf 9a6c cab3 3e90 42bf
000006d0: 39c1 86c7 6055 6abf 0923 5bfc 22ee 64bf
000006e0: 3287 93a7 97b4 853f d709 f728 4f9c 753f
000006f0: 8ba6 f556 205a 9dbf 6453 8dc2 3bd4 673f
00000700: 1060 f12e 3615 50bf 9090 83fb 3445 84bf
00000710: da14 b271 2c6e 9d3f 1d12 f020 fec3 523f
00000720: 0dda 44a2 9c6e acbf 4e83 b0f2 e12f 5cbf
00000730: 08bc a6be 50b9 b4bf 1bbf ec28 e57b 813f
00000740: 2915 6f9c 1d5f 723f 6243 b5c8 7499 463f
00000750: a6d8 938e 2a72 60bf 6b28 86ba 2127 633f
00000760: d444 1775 6d6e 853f 861d c609 7850 773f
00000770: e3f7 f67f fb6c 71bf 57ed 35f8 30e0 7a3f
00000780: dc85 13fb 831b 463f 347d d5c1 c7fa 93bf
00000790: 677c 30fc c740 88bf e7a9 12e1 9bf8 7abf
000007a0: 37be c5db 581c 81bf 8cf8 b70c 8ad6 74bf
000007b0: 4c8b 551e c41d 88bf 2f5e d850 7161 a4bf
000007c0: 21fb fcc0 fb41 8fbf b7b2 c7f2 d6d9 96bf
000007d0: 01bc fdc0 f18a 9bbf 2750 d9f4 6a41 93bf
000007e0: b134 97a1 3d03 bfbf 5bd4 f1e9 a90d ae3f
000007f0: 19fb 6767 b425 903f 4d13 4299 501c 583f
0.9430590441344674 4.4537494202804775e-06 0.1809004333239774 0.0 0.0 0.05397583277977741 0.0 0.0
0.0 0.009804407910962315 -0.0001501443977409839 0.00013955033507310916 0.0 0.0 0.32027386839608213 0.00010725095072414448
-0.0002817781465526287 0.0 -0.00019701783758988372 -1.8232745615403194e-05 0.9731370496353531 0.001151619093257982 -7.705385595232286e-05 -0.0001724408440880783
-0.0006303079165838636 -0.00016810964549797175 0.0027905743381664815 0.4788888321146122 0.0005967262479267143 -0.0007928232106704544 0.0 0.0
0.0007295429590271764 -8.150997312935804e-05 -0.001298834798392176 0.10913921582988344 -0.0003674681504876434 0.0 0.0 0.0
-0.0012797619433159754 -0.0007571249224790187 -0.00032249495103529586 -0.0016636462804969132 0.05022651313939091 0.0 -0.00011003154195802082 -0.00031792912771782313
0.0 -4.188029559521573e-05 -0.0005068698898929348 -0.0010609871449109244 -0.0003172647689161555 -0.0015588050509531483 0.013886805437730524 0.001954990241806055
-0.0018828858255735977 0.00016517851798718451 -2.4734648795039697e-05 -0.0005616583155182429 0.0006933328599684891 -0.005504939401597889 -0.004645785005157161 -0.0007365761513426934
-0.00017126075529209922 0.09301841794407151 0.0006929422337014567 0.00035808410808867424 0.00020647331902219772 -0.00016572795149671527 0.0004539652964736094 0.0005843020934007528
-0.0018993449373432437 -0.003618010059405025 0.00012362365425447875 -4.263147265110191e-05 -0.007105456274705234 0.28023356012932826 0.006710212458900154 -0.014678207271470078
0.001335560864889013 -0.00040086663573954634 -0.004995589239346044 0.021122776686068632 -0.025028680025632664 -0.019139261758999347 0.0005375647759308824 -0.0017184545253050713
0.005943936443748433 0.004958144757423246 0.06343889879528995 0.0007525795948299795 -0.006555219369469236 -0.002029045427748881 -0.00040036006770299436 -0.0019171630294113281
0.004275432480778956 0.0033995889987221595 -0.012505512366817947 -0.004219148180754298 0.0005986526745845065 -0.017943785512252664 -0.01357802690228825 -0.05430670850042413
0.014760227872033382 0.0005136454831583809 0.0 -0.00031353289069061674 -0.00030939947232508103 0.0004461811882288191 0.0001182018256320098 -0.0005084968871757028
-0.0015060724914681342 -0.000839853059529702 -0.0009276874395346626 0.0003630214105129139 0.001416100049382033 -0.0008906775930341131 -0.003828293125812034 -0.037289415584639454
0.00345777025275315 -0.001710131993630929 0.0 0.00036628144043097607 0.0015400362170566154 0.004570977629702906 0.0006808855392252082 -0.006491967973271399
0.0003221422385522911 0.00014032693159593966 -0.003968667503430107 -0.002844334505067151 -0.015512934789766257 -0.0012541803157639906 3.85323626330189e-06 -0.06063823693452936
0.00964954324119413 0.00027831751135707256 0.00038988833452261297 0.0003941409907265467 -0.0021216284550530876 0.006120222041594914 0.00029759296644999225 -0.010948680088763665
0.0009705770024097367 -0.00013928349797996193 -0.0140747866272864 -0.02644797313346309 0.020843140582578648 -0.014667583882979585 0.0011058608252538953 -0.020408678863922024
0.02545544529160217 0.007542770761989035 0.004168719850141777 0.0017878257368423686 0.0009276019746630134 -0.0031043978457446077 0.005974953198620984 0.010828627167314564
0.004254330301025681 0.0014061430937516656 0.0012249680321421736 -0.03667113778151361 -0.009403195526580798 0.0020155835483742493 -0.008028802026722803 -0.0002757227378519575
-0.014348949797847694 -0.04807566542720369 0.050574599841458116 0.007951532432944764 -0.002439110923846875 0.002826907393292134 -0.0007428480189165307 0.005764059396557848
0.02579904765018343 -0.031725724253547805 -0.0223427046547638 -0.0036484817641650076 0.0026867009381949187 -0.009402349418775798 0.015090692783329713 -0.11836965581433755
-0.041441698375233954 0.004041916652307241 -0.01397587205095956 0.028351346077079616 -0.011579941501955657 -0.021397884909781714 0.014506728339506924 0.0037362220479323347
0.003785428333389132 0.0009643092768146241 0.005707024441350693 0.01623875329373541 -0.011692193861429315 -0.0036787615691501662 0.0036614869894646277 0.0027470287643450676
0.008231293872653858 0.004647427792045627 -0.042169123570945516 -0.005864349771625915 4.8124952856348595e-06 -0.008331341723237818 -0.02561838030794999 0.004118393500774852
-0.03090790250305174 0.0234382838177194 0.0014169682497877205 0.0065250948539935984 0.0028373152615420658 -0.0005771416209673548 0.0069000470253791635 0.006722441364593427
-0.0062360980501706045 -0.0005665117419825394 -0.003214539549127118 -0.0025549586597190016 0.010598358918688076 0.005276021212412072 -0.028664117152777762 0.0029088179766553635
-0.0009816197523573357 -0.009897626805873722 0.028740591468267997 0.0011453611111856895 -0.05553140145132227 -0.0017204004786963325 -0.08095268873761097 0.008537092505860813
0.004485240619890343 0.0006896801218464305 -0.0020075637045194493 0.002337995411100959 0.010464530120687966 0.005691975497377105 -0.004254324361168546 0.006561461722749704
0.0006746668279015672 -0.019511338430104178 -0.011842310317716277 -0.006584748175706845 -0.008354849059030929 -0.005087413078852642 -0.011775524306988715 -0.03980592834357954
-0.015262572123558695 -0.02231536728679614 -0.026897218136067384 -0.018804236597432713 -0.12114319987377332 0.05869799595613109 0.0157688320268746 0.0014715945335705583
