weights/vsself2/vsself420_w.npy (npy, 65152 bytes, 1 tensors)

array f8 [8128]
000000 d4 03 19 69 10 94 f5 3f 0a d0 c9 9e 6e 87 48 bf
       1.3486484628085593 -0.0007485666406652502
000010 ee 7f 24 3e 44 22 e2 3f 63 95 76 cb 25 2d 64 3f
       0.5666829313013275 0.002462934320379405
000020 3a f8 26 6b 9e d3 a6 bf 1d 5c 1f 42 d0 9c c3 3f
       -0.04458327348719178 0.1532230685104147
000030 77 53 88 ca 7f e7 6e 3f f8 89 18 4d 39 60 7f 3f
       0.003772496788096931 0.007660125572814362
000040 5f 3d bd 11 a7 f5 bf bf ff 42 ce 32 30 c6 c1 3f
       -0.12484211142622346 0.13886072617290066
000050 65 af c1 ab 78 1e 64 3f 68 ad a8 28 0c db 7f 3f
       0.002455936131857616 0.007777259345441358
000060 cf a0 be b4 40 f1 b7 bf 30 58 a2 79 97 9c b4 bf
       -0.09352497494421928 -0.08051439971527041
000070 c9 65 6b 99 0a 7f d3 3f db 96 00 c2 84 82 46 3f
       0.3046289919126051 0.0006869457465696576
000080 52 02 33 a4 cd c4 6d 3f 6d 7b 55 56 4b e7 68 3f
       0.0036338821824702184 0.0030399772100930173
000090 78 0d 44 f3 5c 05 63 3f 60 33 8f 8a b4 43 70 bf
       0.0023218932566366167 -0.00397081874775726
0000a0 02 9d 7e 39 a2 4c f5 3f db 4f a2 7f 82 17 57 3f
       1.331209396923271 0.0014094137573339358
0000b0 2f c6 94 b6 9b fc ce bf 59 29 de 28 c3 2c a8 bf
       -0.24208399214835327 -0.047216509569880834
0000c0 a8 e0 25 61 ad 60 84 3f b7 66 b9 c2 56 c2 87 3f
       0.009950022246571003 0.011601140801917749
0000d0 72 ba 4d 26 83 9b 84 3f 77 c2 1c 9c 23 40 e1 3f
       0.010062241178926377 0.5390794800824342
0000e0 8f 15 d8 74 3d 74 82 bf b8 0c 7d 8a 45 31 40 bf
       -0.009010772827432926 -0.0004941548877258816
0000f0 ea 8d 98 91 f9 6b c6 3f 20 64 a1 df 7f 57 bb 3f
       0.17517013177085455 0.10680388650634187
000100 e6 c4 a4 28 24 8a a6 3f 49 87 4f cc 25 b9 8a 3f
       0.04402268406045966 0.01304845361477515
000110 16 a4 e9 5a da 4c e0 bf 84 8e 92 8e b3 06 d2 3f
       -0.5093814635885134 0.28165902064413495
000120 54 65 70 15 49 40 55 3f d1 55 d4 09 db 8e 90 bf
       0.0012970651348552424 -0.01616995093816859
000130 98 a8 00 87 1b 71 a1 3f a7 97 cc c4 43 cb 8e bf
       0.03406606696110365 -0.015036134188971163
000140 af ac 41 27 22 a4 9f bf 24 11 99 4c 46 e7 61 3f
       -0.03089955677607453 0.0021854756385285713
000150 10 e6 2c 5a 5a 85 a0 3f d0 e6 fb 93 cd 43 a3 3f
       0.032267402179467664 0.03762667113728713
000160 43 c0 2c e8 84 6b a7 3f 9c e8 1e ee 04 52 57 3f
       0.045742181150104 0.0014233635088048207
000170 a0 68 f4 b8 f5 be 8c bf fa 79 a6 6b da 8b a0 bf
       -0.014036102015371477 -0.03231699527826844
000180 90 2a 2b 94 c3 a3 b4 bf 09 fd e3 a4 18 aa a3 bf
       -0.08062384002111345 -0.038407106521839714
000190 ce a2 e4 25 25 d0 70 3f 8e b8 c4 82 b6 fd 62 3f
       0.004104752644970856 0.0023182453789081852
0001a0 86 08 3c 35 5b e1 94 3f 91 ea 4e 3a 2b d1 74 bf
       0.020390915989090284 -0.005082291468108694
0001b0 2d 22 80 56 26 f0 b1 3f 22 65 78 d5 ee 86 69 3f
       0.07007064449147356 0.0031160988544455407
0001c0 6b f3 c5 bd e5 ce 89 3f e6 1b 9d 6b 5e f6 a8 bf
       0.012601656774444433 -0.04875464500087627
0001d0 35 69 27 24 23 a4 bd bf cc 25 87 1b 5e 47 b0 bf
       -0.11578578598656437 -0.06358898326938983
0001e0 48 58 39 f4 8b 09 04 3f 8d df 8f 8a 46 71 8d 3f
       3.821810107911043e-05 0.014376212218834694
0001f0 86 d9 4e ff 9a ac 9a 3f 3f d0 ee 23 97 bd 9b bf
       0.026049062569393232 -0.027090417450111422
000200 ba 45 c5 99 47 f8 a2 bf b9 d2 87 0d 70 9c c1 3f
       -0.03705047370989285 0.13758659992858727
000210 53 a5 8e 04 36 9e 8c 3f ce 7b 5f 99 02 05 9c bf
       0.01397363854796888 -0.027362862216133092
000220 8a e4 e8 25 d3 55 ad 3f 96 47 8f da f0 e9 c1 3f
       0.057295416238454314 0.13995180770740195
000230 2d cb fa 2c c2 af cf bf 1f c7 f9 68 37 cb 45 3f
       -0.2475512237193355 0.0006650944287242866
000240 f4 a7 81 d4 3e 64 ba bf 03 6d 54 e8 d7 5d af bf
       -0.10309212387224403 -0.06126284323746669
000250 a0 c1 74 3c 81 77 8b bf 0b c0 42 6f 4e ff ce 3f
       -0.013411531121705178 0.2421663325562807
000260 89 5c ab 6f cc da c7 3f 2d dc 5f 11 03 31 cd 3f
       0.18636470272642594 0.22805822704660397
000270 2f 83 7b 20 7f 66 87 3f 30 6c 94 a4 a3 dd bd bf
       0.011425965479646997 -0.11666319625912602
000280 9d de a8 81 d7 c2 96 bf 9f 09 44 39 4a 36 8f bf
       -0.022227637566372683 -0.015240268585789361
000290 b8 92 59 2a 06 fa 87 3f 50 f9 71 4c 9f 94 8b 3f
       0.01170735184423087 0.013467068214819605
0002a0 bf f2 67 f1 36 af c0 bf e3 d5 0c 6a 15 6e ca 3f
       -0.1303471258869617 0.20648448637227465
0002b0 c7 c8 0d bb 0e 5b b6 3f 94 47 b1 a7 11 2a 89 bf
       0.08732692782158145 -0.012287271432942316
0002c0 b8 d6 3a ee 19 ce 80 3f f1 36 10 4d db c3 92 bf
       0.008205607016275138 -0.018325258806774995
0002d0 b6 21 32 63 6b f2 c4 3f 51 1c 06 8d b9 bf 5a 3f
       0.16364805549188838 0.001632624818826551
0002e0 d7 06 db 15 a2 1f 94 bf be 37 fa 96 47 5f a5 3f
       -0.019651920875509567 0.041742551021442406
0002f0 f2 10 9a a5 5a 9b 72 bf 10 db 64 b0 d9 10 94 bf
       -0.004542688454993492 -0.01959552897570932
000300 92 b2 66 67 b7 64 7b 3f 61 af d3 86 52 93 87 bf
       0.006687847539450191 -0.011511463870611473
000310 9a c4 7b f1 a4 1b a4 3f 33 2c df b4 79 bc 8e 3f
       0.03927340934559105 0.015007925827282253
000320 32 84 b6 db a3 68 6d 3f 2a a0 fb ec 5c 0b 8f bf
       0.003589935336734595 -0.015158391935486366
000330 09 c1 c0 26 c7 8b a9 bf 94 31 6d 4e a5 47 b2 3f
       -0.04989454601343552 0.0714057270499267
000340 e5 3d f9 08 34 fd 9e bf 05 e5 37 9e 01 f9 83 3f
       -0.03026276879091751 0.009752285614910603
000350 03 9e e2 6d 49 87 97 bf c8 f1 fa 22 b8 e5 a1 3f
       -0.02297701581178836 0.034955744047212856
000360 12 e2 5a 3e 12 17 a1 bf f1 1b 25 e2 bf 34 a8 bf
       -0.033379144775100525 -0.04727744708593907
000370 7c 12 77 61 39 71 82 3f 5c 65 43 fb 58 35 a6 3f
       0.009005020415210334 0.04337575976542027
000380 a9 1f a1 01 da 4e 9c 3f 6d 5a 4b 78 9f ea 85 bf
       0.02764454493470195 -0.01070141397341936
000390 7e 27 62 52 36 4e 7e bf 84 32 60 34 55 51 a0 bf
       -0.007398807711192277 -0.03187052025177642
0003a0 a8 95 6b b9 3c 36 a1 bf 8a 80 06 96 f4 2a 98 3f
       -0.03361692202978911 0.023601361901115094
0003b0 9f 82 6a 7b 0d 22 a1 3f cd 8d 14 4d 03 fe ad bf
       0.033462926211773374 -0.05857858959123128
0003c0 45 c3 65 9e 6b d7 73 3f de ad 1d 23 f5 33 79 bf
       0.004844112764076429 -0.00615306622226394
0003d0 ec d7 d6 33 9f d6 ad bf a2 4c 9b 10 56 30 bd bf
       -0.058278060033828044 -0.11401880174098492
0003e0 b6 16 d6 04 78 ed be bf a7 5a 47 d6 43 81 78 3f
       -0.12081098669122067 0.005982651699432274
0003f0 28 38 13 17 4f 09 a0 3f 81 26 9c e0 53 6c a2 3f
       0.03132102162054223 0.03598272435017425
000400 c1 f3 9b c9 94 43 95 bf 80 f9 26 e6 bd 32 93 bf
       -0.020765614323852825 -0.018748252079370697
000410 58 5e 87 78 a5 1f b2 bf fc 36 cb 9d b3 9e a3 3f
       -0.07079538529011964 0.03832017232126181
000420 3e 52 11 67 32 9d 92 3f 72 b4 8d 2a e3 17 60 3f
       0.01817778352809029 0.0019645153847052616
000430 9b 71 99 a2 8a 7f ad bf 81 b7 ed ed 45 9e 9c bf
       -0.057613689755018536 -0.027947514197357307
000440 b2 62 c3 19 d1 33 91 3f 01 58 aa b7 e7 9e 70 3f
       0.016799227902853438 0.004057793756734541
000450 e7 46 0b 88 24 f5 a7 bf 51 c3 e3 6e 7e 63 b1 bf
       -0.046792165381374144 -0.0679244061209492
000460 85 2f 43 ab 50 39 a9 bf 29 00 22 f6 53 27 83 3f
       -0.04926540461164478 0.009352355908276948
000470 b0 19 85 16 c9 9e 7a bf 00 0b 30 4a 81 95 a4 bf
       -0.006499085903050192 -0.04020313292132549
000480 90 ac 12 d7 cd c1 6e bf 2d ea a5 e8 b1 6d 5b 3f
       -0.0037545223536504316 0.001674102534336651
000490 1b 89 80 5a 92 a3 9a bf 2f 06 07 2f d9 af c8 3f
       -0.026014601491746264 0.19286646648656489
0004a0 c6 70 0b 78 59 60 90 bf e9 7b 52 84 8a e3 96 bf
       -0.015992544128366835 -0.022352375341707562
0004b0 d6 19 c2 ac f7 fb 2f bf 1c d0 b9 7f c0 67 8a bf
       -0.00024402044653388963 -0.012893203637965249
0004c0 49 07 19 79 d6 e1 62 bf 9f d7 21 3f 25 b9 92 3f
       -0.0023049534727598614 0.018284399011882276
0004d0 2d 31 15 cc 07 2c 9f 3f 9c c2 a8 ab e7 86 75 bf
       0.030441400366997207 -0.005255608523427793
0004e0 12 07 0c 0c 9c f5 86 3f 7b a4 62 7e 65 35 9d bf
       0.01121065055622553 -0.028524003828952687
0004f0 34 2e 61 03 c2 7a 71 3f 3f 8e 5e 52 84 e2 93 bf
       0.004267461647099281 -0.019418780829836498
000500 af ed e0 b2 52 c4 35 3f b8 db e8 9c d3 c8 7e 3f
       0.0003321363354904195 0.007515741932869462
000510 03 8c 8f 91 96 2e 7b 3f 51 8c d4 a7 65 3b 9c bf
       0.006636226805286863 -0.02757033192495967
000520 1d ae 48 68 83 ed b1 bf 30 06 55 78 32 ab 6b 3f
       -0.07003041549676721 0.003377531599341642
000530 9f c2 4c 1e 50 8d 82 3f f3 83 44 49 94 e1 61 3f
       0.009058595585515859 0.0021827598776700207
000540 90 03 6d ec 37 c0 a1 3f dc 3b 74 65 e0 4b 92 3f
       0.034669635401321064 0.01786757106043156
000550 82 1d b8 9e 91 ad a2 3f 29 73 76 70 b0 a1 8c 3f
       0.03648047506799924 0.01398027270516307
000560 91 fd 4c fb eb bf b3 bf c0 24 55 63 d7 d1 a9 bf
       -0.07714724431297372 -0.05042908752018027
000570 03 5b 8e 80 9c 46 a0 bf 55 08 3d e2 70 31 83 3f
       -0.03178872174537697 0.009371644882438948
000580 d8 12 68 2d c1 36 9e 3f 4c 33 4b ea 87 9b 9f bf
       0.029505747219462503 -0.030866740870624285
000590 b0 61 b9 50 a6 17 b6 3f 0a e7 4b 87 74 6a a0 3f
       0.08629836531452528 0.03206218864029438
0005a0 e2 95 12 aa 6b 48 9a 3f 11 bb bf 6d 00 b8 a8 3f
       0.025666887526900946 0.04827882137020912
0005b0 85 b5 a4 fd 74 86 51 bf a2 79 f2 27 30 bd 97 3f
       -0.0010696547020175595 0.023182632864171666
0005c0 93 58 1f ca c6 2f b0 3f 95 b3 10 85 4c 9d 9b 3f
       0.06322901186590206 0.02696723520437024
0005d0 0c 22 46 8b 18 0e b2 3f 21 09 7a 89 31 80 9c 3f
       0.07052758598559467 0.02783276940909574
0005e0 e4 d3 b4 6d 9a c0 84 3f 78 46 8b b3 3a bf a0 bf
       0.010132986519787175 -0.0327089637918449
0005f0 d8 00 01 7a 10 51 8f 3f f3 11 60 7d f8 d2 87 bf
       0.01529133674932874 -0.011632863355779377
000600 cf d7 66 12 fb 2f 83 3f 4d 46 40 9a 09 9c 90 3f
       0.00936885976703286 0.01622023586248238
000610 14 bd ca 5c 19 12 4f bf 12 2e f2 1e 3b 28 96 3f
       -0.0009482024994066662 0.021637843860430613
000620 37 72 9a f1 34 fe 70 3f a7 61 5d bd a7 31 6d 3f
       0.004148680507253525 0.0035637165228019243
000630 33 74 cc d8 e8 25 52 3f 06 96 fa f1 f5 1f 94 3f
       0.0011076711554729556 0.019653170484749814
000640 f7 ba 30 ae 96 3d 83 3f 4f 3f c4 dc 72 c4 a5 bf
       0.009394814673297598 -0.04251440949349094
000650 28 61 9e 37 15 1a 65 3f ee 7c a6 ac 00 06 79 bf
       0.0025759138488405005 -0.006109240183291604
000660 46 67 7f 02 19 a2 a4 3f 6f 5b d2 83 2f a4 74 3f
       0.0402992072628892 0.005039392094792968
000670 19 2c fc a4 d1 58 74 3f a9 d8 68 47 3d 83 8a bf
       0.004967516826364559 -0.01294563173460646
000680 ea a5 d1 d8 c6 88 7f bf a9 8e 7f 39 d8 9e b4 bf
       -0.00769879984464115 -0.08054877666250583
000690 19 8c 59 98 d2 37 9e 3f 11 1d 1c 19 c5 6a 64 bf
       0.02950982146138523 -0.002492318112561905
0006a0 48 12 ef f0 71 a1 83 3f 51 da 8a b6 72 61 9f bf
       0.009585275807588847 -0.03064517249250748
0006b0 1d d6 6c cd 87 ed 97 bf ef 54 78 0a 01 79 a9 3f
       -0.02336704436603131 0.04975131275947741
0006c0 bb 5f 64 5b 2d 3e a0 3f 3b ea e7 c4 b3 40 a1 bf
       0.03172437420488402 -0.03369676378857319
0006d0 1f 44 b8 1f f9 9a 8f bf bb b3 30 b7 28 12 7c 3f
       -0.015432306557189133 0.00685325531507613
0006e0 d4 11 e4 b0 c9 3f 84 bf d6 7f f0 09 c0 f8 ac bf
       -0.009887290678769846 -0.05658531304675278
0006f0 0e a2 3e 30 4b 0d 91 3f 31 f2 be ca 1d 7d 97 3f
       0.01665227395975149 0.02293821859324136
000700 a6 23 d3 c1 46 08 a3 bf 2c c5 7d ec a9 7a a4 bf
       -0.03717251888298927 -0.03999835025650564
000710 67 c2 2c ad 8b 77 92 3f 28 85 82 63 cd a4 7d bf
       0.018034155316117764 -0.007237245845460628
000720 eb eb c9 2e 40 71 a7 3f b5 dc dc 0a 78 b2 9d bf
       0.04578590937759216 -0.029001117384919357
000730 12 74 96 0c 50 94 bf bf 45 98 a8 06 0b 25 94 3f
       -0.12335682208363632 0.019672558099181243
000740 73 f4 c9 3d 43 07 82 bf 76 ef 8c d1 e8 cd a9 bf
       -0.008802914927622951 -0.050399089412592454
000750 69 e3 09 e1 a1 85 b4 bf 82 26 5c e3 21 18 ac bf
       -0.08016406768900954 -0.05487161541357201
000760 bc ee cc cc 0f 01 86 3f 53 e8 96 0b 2d 3f 92 3f
       0.010744212567821314 0.017819122154584765
000770 a1 49 ef 4a c6 f8 77 bf 1e 2f a2 15 c7 bb 94 bf
       -0.005852484303391498 -0.020247564978986714
000780 cc d0 b6 b0 ac 98 a6 bf cc a1 c0 c9 16 f6 a6 bf
       -0.04413356454043224 -0.04484626019285862
000790 2c fa 97 dd 78 82 a6 3f c4 64 f6 15 ad f0 96 3f
       0.04396417336464639 0.022402481523020837
0007a0 2c c1 f6 f5 a2 f7 a6 bf 32 16 e7 0b a3 85 b0 bf
       -0.044858067059410395 -0.0645391372737201
0007b0 bc 8e 09 9d 89 04 b6 bf d9 54 5e 0f 33 bc 89 bf
       -0.08600673755568783 -0.012565993219860893
0007c0 9c 3c fd 38 2d 07 7f 3f 59 c3 e6 89 d3 e1 7c bf
       0.00757520356258037 -0.00705130226417413
0007d0 c9 6c d8 9c 4e 57 93 bf e2 19 ec eb 6d 57 a7 bf
       -0.018887737582286932 -0.04558890824232599
0007e0 0c c2 51 ac 9d bc be bf 12 0b 68 7b e9 66 b0 3f
       -0.12006555039420891 0.06407031309940361
0007f0 5d e0 2e 8f 4f b4 b6 3f 2d 08 1d c9 cf 33 a5 bf
       0.08868882413560315 -0.041410916614509886
