weights/vsself2/vsself430_w.npy (npy, 65152 bytes, 1 tensors)

array f8 [8128]
0	0x3ff5993144e8ae57	1.3499005023721986
1	0xbf483092165ce346	-0.0007382119481241587
2	0x3fe1b8770cb0fd61	0.553767704761338
3	0x3f64bedfa5b3d499	0.0025324218855709677
4	0xbfa7cae8722f5ec3	-0.04646994012699459
5	0x3fc2fc701f6d8a71	0.14832879576268312
6	0x3f6f0ed4b360d603	0.003791251593635138
7	0x3f7bf53f160daa68	0.006825682096727272
8	0xbfc0cb23fad571fa	-0.1311993574880857
9	0x3fc1184109c393f4	0.1335526750255266
10	0x3f62fa62542aa4bf	0.0023166580661678478
11	0x3f81af6d04ca8ba0	0.008635379513469321
12	0xbfb9534d0df3f72e	-0.09892732229851894
13	0xbfb4eb967c00d313	-0.08171978499815351
14	0x3fd238f1d174e900	0.28472562269929824
15	0x3f468324790658ab	0.0006870201196303068
16	0x3f6e159089ab8b9e	0.003672392177905561
17	0x3f688d2fe2544082	0.0029970107303896607
18	0x3f638635f9c0d8a0	0.0023833326540865923
19	0xbf70dd317ad62c4a	-0.0041171963506583895
20	0x3ff55b75827cc7e5	1.3348288628735585
21	0x3f571ff6bd4fc607	0.0014114293637671486
22	0xbfcf84c338bb66f2	-0.24623909254187698
23	0xbfa91ba297de4904	-0.049038964308367766
24	0x3f81cdfa44aa3b8e	0.008693652363289475
25	0x3f8258e071500229	0.008958581407569959
26	0x3f84a569ea0a4f7b	0.010081126646845231
27	0x3fe14dca17d001e3	0.5407457795227483
28	0xbf85297444601926	-0.010332973801280131
29	0xbf7381fcebe77656	-0.004762638067828803
30	0x3fc6ce5183120783	0.17817133808062743
31	0x3fb9afc9a5d23a82	0.1003385572277953
32	0x3fa4316ec467ca82	0.03943964145209568
33	0x3f8b2976648e0662	0.01326267713898516
34	0xbfe084e453f22635	-0.5162221564834854
35	0x3fd2a8a08fe5ca8f	0.2915421872377601
36	0x3f5594a049c69aa4	0.0013171735109637562
37	0xbf92a09fde068b4c	-0.018190858770718507
38	0x3fa5a6e9a4096150	0.0422890675296822
39	0xbf8e3e5bdbd530fc	-0.014767377516044615
40	0xbfa036ea922b836d	-0.0316689780645508
41	0x3f6252019db72202	0.0022363692821480994
42	0x3fa1a6792aec7fc7	0.03447321557018728
43	0x3fa39873c689024d	0.03827249334836278
44	0x3fa32ce146ce2f86	0.03745178212474713
45	0x3f57603d9f1b6678	0.001426754166848813
46	0xbf8cb01e6aaef48b	-0.014007794981689045
47	0xbfa1d4f5b4c4a81c	-0.03482787925379702
48	0xbfb4fdece6911aa2	-0.08199959401199888
49	0xbfa3bdd7aa537602	-0.03855775789427797
50	0x3f70daf24ca01548	0.00411505363627402
51	0x3f627455332e8a8f	0.002252737432585867
52	0x3f936cb393aab632	0.0189693507078827
53	0xbf7520f4868fb57e	-0.005158381632083374
54	0x3fadfe5b82c4fdff	0.058581218445848286
55	0x3f69d675e97052d0	0.0031540205923284784
56	0x3f87832e22002053	0.011480675137150486
57	0xbfacd6c19ef5a7c9	-0.05632596078324032
58	0xbfbdbe7ed1abd505	-0.11618797892500161
59	0xbfafeb90d701d8be	-0.06234409927940153
60	0xbf1e44789dab8b5e	-0.00011546121769927034
61	0x3f8458a0de2343b6	0.009934670237642478
62	0x3f9284b98406a639	0.01808442943880648
63	0xbf9cfebedc49d853	-0.028315527148571395
64	0xbfa359f0464529a9	-0.037795551851178395
65	0x3fbdee124fdcecea	0.11691393327503233
66	0x3f8b135579fcdc2b	0.013220470223684519
67	0xbf9f38aaafb75571	-0.030489603972303884
68	0x3fad2e1b51406384	0.05699239127006364
69	0x3fc1b6f497f14e32	0.13839585703918683
70	0xbfd03d555e485cc6	-0.2537434979180485
71	0x3f47230b4f6355ee	0.0007060818886894229
72	0xbfbad7ca27893de3	-0.10485518899189787
73	0xbfa862893320b8ac	-0.047626769534290986
74	0xbf908a812dd86916	-0.016153353141001046
75	0x3fce1d54467eb711	0.2352700561727308
76	0x3fc4283f00e8b7d7	0.1574782137335535
77	0x3fca56336fb78861	0.20575564341476407
78	0x3f8770a312d8ccd6	0.01144530679002857
79	0xbfbf40bb14eafbd6	-0.12208146343890233
80	0xbf8c63bdf61dc1b5	-0.01386211783730649
81	0xbf91516cbb405b26	-0.016912173203390023
82	0x3f8530426fe2ebb9	0.010345953979017485
83	0x3f8bf47e812dfe62	0.013649929349184468
84	0xbfc11089602c12db	-0.13331715770632155
85	0x3fccbbfb8a4ca1eb	0.22448677304170359
86	0x3fb76f0f3a062845	0.0915383831653865
87	0xbf876964b633c798	-0.011431490717288814
88	0xbf56a038e37d892b	-0.0013809733918255889
89	0xbf916de3451b7162	-0.017020751088112525
90	0x3fc9a3fc7f6f1220	0.2003169653163619
91	0x3f58a86ff8131d96	0.0015050023505852376
92	0xbf9587b9449b5a36	-0.021025557339124222
93	0x3fa76bfcea95cb41	0.045745757709389163
94	0xbf7836ab6ee6c140	-0.005911512051554546
95	0xbf9708f1bc7168a3	-0.02249505722679913
96	0x3f7c02b4ae0e5c23	0.006838517933736052
97	0xbf891133cddd1d14	-0.012239842147791204
98	0x3fa404f4914d6434	0.039100306260202805
99	0x3f8a4ed113989fb9	0.012845643435028241
100	0x3f7107966d422654	0.004157626728678549
101	0xbf8aa508f7b77732	-0.013010091838562585
102	0xbfa4c61704d7c171	-0.040573806134378006
103	0x3fb4332a3eafe6af	0.0789057162327491
104	0xbf9bcc2ebcf50965	-0.027146082194357563
105	0x3f84296464d473d9	0.009844574286541107
106	0xbf98c55b2b78d81c	-0.02419035389740297
107	0x3fa4d2aaf462878f	0.040669767696512975
108	0xbfa1104f2f5072c6	-0.03332755520407242
109	0xbfa748bcb59ea94f	-0.04547681538618297
110	0x3f82895d7c764980	0.00905106578901349
111	0x3fa81aa128c6172a	0.047078167178410915
112	0x3f96c531dda9f7e5	0.02223661342076601
113	0xbf866fbb529e0f93	-0.010955298861297346
114	0xbf7fd10825665e08	-0.007767707653691065
115	0xbfa1f996a8558bac	-0.0351073341833151
116	0xbfa74fa04479a3a2	-0.045529373511107765
117	0x3f9a77843856781c	0.02584654420717679
118	0x3fa14f40d314861f	0.03380777908956766
119	0xbfad10f939cd9a86	-0.056770122819945576
120	0x3f736a37b7474d49	0.004739968910559008
121	0xbf84ccfe0034bfe8	-0.010156616574562308
122	0xbfb0a3fd08d60a73	-0.06500226464962981
123	0xbfbd3a2cb21555c1	-0.11416892383325374
124	0xbfbeb0db7f03240b	-0.11988612986455409
125	0x3f78a9cbb780ae0a	0.006021304863718333
126	0x3fa05429ead4940e	0.03189211837369764
127	0x3f97b11cb1fab325	0.023136566508287566
128	0xbf96840c8bf6fcd4	-0.021988102000020174
129	0xbf9360d50ca1e1c9	-0.01892407312013392
130	0xbfb30ad7953196ca	-0.07438418762611856
131	0x3f95574203615919	0.020840674835505533
132	0x3f97d5f2e79a9229	0.02327708757970207
133	0xbf5b28bd1649cef4	-0.0016576620629650792
134	0xbfaf63114f69001a	-0.06130270094263342
135	0xbfb0169bb3a36e77	-0.06284497390464049
136	0x3f9158250fb48e69	0.016937808116507833
137	0x3f71f15019c562da	0.004380524533495767
138	0xbfacf1adb109b84a	-0.056531360493736374
139	0xbfb0d4f4936e8938	-0.06574944114121173
140	0xbfa90211159ec954	-0.04884389294547256
141	0x3f833e3008e7546c	0.009395957252232821
142	0xbf73670a1dcf1d8f	-0.004736938016271521
143	0xbfa9c2e18a14bffd	-0.05031494913635013
144	0xbf75ca98eab07e2b	-0.005320164996220049
145	0x3f603b4a373c2710	0.0019813966299623356
146	0xbf9cbb7c4de3a4cb	-0.028058950666409992
147	0x3fc668663dd9a625	0.17506101627377393
148	0xbf941bd5bea3768a	-0.01963743187012893
149	0xbf93615d05917ff2	-0.01892609926687778
150	0xbf82e8d3af77d396	-0.009233144562111478
151	0xbf8b2190f76bfa4e	-0.013247616339410542
152	0xbf9db20e5fd38946	-0.02899954280736352
153	0x3f92d5b54593e95a	0.018393356677714003
154	0x3f9f7263f2cc9dde	0.030709802336017826
155	0xbf691a623f3447f6	-0.0030643385777091537
156	0x3f88a8a6f7c964c7	0.01204042857823352
157	0xbf9edad4d61987ef	-0.030131650512323856
158	0x3f7193dadee1006c	0.004291396106111827
159	0xbf91136c54088c20	-0.016675655964842773
160	0x3f80360d1651749a	0.00791559433326432
161	0x3f78125e7aa970d8	0.00587689309994862
162	0x3f77ac478cc9fe4f	0.005779532901783193
163	0xbfa2524749c2b4b9	-0.035783984903312534
164	0xbfb615bddbd2756c	-0.08626925102949706
165	0x3f8940700766ea4c	0.012329936242953775
166	0x3f8499fdcc6ab081	0.010059340287021936
167	0x3f67bbefff6b2ee2	0.00289723276669017
168	0x3fa1ad5588ede751	0.034525559391978995
169	0x3f90df2c4960c925	0.016476337412492676
170	0x3fa768a6abc52f32	0.045720299213455454
171	0x3f8b9d2bb1a7a673	0.013483373030754841
172	0xbfb45bec6354f303	-0.07952763962834912
173	0xbface4b1afc1ea3a	-0.05643229742505125
174	0xbfa335a696269e01	-0.03751869757553195
175	0x3f9078ea0d01f228	0.016086251300736404
176	0x3f9e8e13a560f4ce	0.029838854760090787
177	0xbf9e7a0f4c11b382	-0.029762496011631175
178	0x3fbaa7f1159b703b	0.10412508752364229
179	0x3f9cfa883a471832	0.028299454266537967
180	0x3f9a765a1f5672cb	0.025842102205944777
181	0x3fa66b640cc71191	0.04378807693459231
182	0xbf9f9d64bd297c36	-0.030873846097503065
183	0x3f9b945edf11dffc	0.026933176388837396
184	0x3fb373f12679a0ee	0.07598788441976342
185	0x3fa462479f2b22d4	0.0398123151586042
186	0x3fadceb8d985881d	0.058217789223604856
187	0x3f8f7cdeace30a0b	0.015374889041031478
188	0x3f8e15d4f1e12d61	0.014690078383998441
189	0xbf8b90277bfb14da	-0.013458546134084082
190	0x3f8f5b7296ee89f1	0.015311141234467281
191	0xbf8a18bb67990beb	-0.01274248514085304
192	0x3f7a8845c7388636	0.006477615901106007
193	0x3f8a7f793a66ee6f	0.012938448996343525
194	0xbf7305a579951ef9	-0.004644056688739567
195	0x3f9606ed65f48c22	0.021510800693374084
196	0x3f5f62ae8e78bd19	0.0019156174329387264
197	0xbf6f1ed683859ee4	-0.0037988843652562044
198	0x3f49dd75fbbaf147	0.0007893396463809842
199	0x3f9416058f16a4e7	0.019615256174493913
200	0x3f831b0f432ac41f	0.009328955876613474
201	0xbfa394cf69bd2a36	-0.038244706780990276
202	0x3f59035575a00a1a	0.001526673752323965
203	0xbf82e92d07966e41	-0.009233810228400975
204	0x3fa41cd4db22275f	0.03928246664970802
205	0x3f7b94cb3761422a	0.006733697713642553
206	0x3f6f51a625ae099f	0.003823112970566103
207	0xbf813f9b7a41fca2	-0.008422102612028862
208	0xbf83df81c3e50954	-0.009703649321299558
209	0xbfb5e299b5cac122	-0.08548889816552621
210	0x3f9e012e9cb1cfee	0.029301384271505464
211	0xbf620394d80bfd82	-0.002198973379904324
212	0x3f7b4aa5a53489c3	0.006662985851365768
213	0xbfa35631319ef529	-0.03776696902012084
214	0xbf9507b1063521ea	-0.020537153247717578
215	0x3fa9310da4ba9d5d	0.04920237193919761
216	0x3f9a4cd225ac2095	0.025683673428858873
217	0xbfa8549ec2612f27	-0.04752060053632894
218	0xbf8bdfa4dce755c7	-0.013610160819477536
219	0x3f7d9de0682cab5a	0.007230640973640979
220	0x3f8904f47d6d6f07	0.012216482236616878
221	0xbf99df68ab7045e6	-0.025266299690036485
222	0x3f9a1ed5aa5615dd	0.02550824978017895
223	0xbf69a7dd7e2fb265	-0.0031318021806241874
224	0xbfa0a07103d39265	-0.032474071232887515
225	0xbfa8f8f8444c59c8	-0.048774488770664315
226	0xbf5c2126fd730a30	-0.001716888500411639
227	0xbfa6a49b0ed6ebfc	-0.044224591790644724
228	0x3fa94383cdc45116	0.04934322249224203
229	0xbfa2eeedcb8b703a	-0.03697913274456295
230	0xbfbde076838fbc64	-0.11670628272962486
231	0x3f944bbf704dc853	0.01982020495365362
232	0xbf8587dd631ad4e9	-0.010513047778071232
233	0xbface6b07893326c	-0.05644751998770378
234	0xbfb4f297f1c8443f	-0.0818266835488126
235	0xbfab9db7d1d2a357	-0.053937668192992554
236	0x3f864f59614208a4	0.010893533974244037
237	0x3f940584ecf32405	0.019552304231897483
238	0xbf866461a3c7d10e	-0.010933649836240036
239	0xbf94bb77248a7d85	-0.020246373753818787
240	0xbfa6e5332a340a7e	-0.04471740617920704
241	0xbfa76493b931f446	-0.045689216954067066
242	0x3fa56d23c587539a	0.04184829508054762
243	0x3f8e97895e82fe7a	0.014937470623748828
244	0xbfa7424d29c41410	-0.045427714680080666
245	0xbfb1ebe278a5e51c	-0.07000556416996456
246	0xbfb67ba9636288e6	-0.0878244273795051
247	0xbf901c19549dbea8	-0.015732188977777867
248	0x3f80823e82c90833	0.00806092106461529
249	0xbf7a58e79fe85f46	-0.006432442458866044
250	0xbf8ec07eede234fa	-0.015015594133979782
251	0xbfa69672ac3baba2	-0.044116576695010026
252	0xbfc163260eff1ffd	-0.13583827717070554
253	0x3fb05b12c3297a1e	0.0638896681279921
254	0x3fb69c8a7f5432ab	0.08832612618079831
255	0xbfa55b3c0b32cf6d	-0.04171168934536138
