weights/vsself2/vsself499_w.npy (npy, 65152 bytes, 1 tensors)

array f8 [8128]
00000000: 74cb 11f0 710f f63f e1fa d21a 423e 58bf
00000010: c5ff a088 4e72 e23f 9872 7b8a f2d3 553f
00000020: c846 9120 76f9 abbf 13fd 61c8 a698 c33f
00000030: dcd2 46ce b25a 703f 49ba 33ad ac76 7bbf
00000040: 79e1 a46d 191e c3bf 243c b6b4 5cb4 c43f
00000050: a85f 6a4e 0579 693f 9574 79b5 1805 833f
00000060: 8ae5 2424 8b9f b1bf e8f8 7a93 eab1 b2bf
00000070: 1a17 cb5f e92c d43f c396 5d6b 1f86 463f
00000080: f0d5 4399 4323 703f 0713 8ca9 8333 6d3f
00000090: f2c0 cf03 224c 653f 20e4 997b 02ba 71bf
000000a0: 5379 30c3 8c07 f63f d364 3d08 c588 573f
000000b0: f793 0e0a b2f8 d1bf 009e be3c 29b6 b0bf
000000c0: d46d a772 e3f5 8b3f 4e23 7616 86e3 8d3f
000000d0: 2846 6b76 e4dd 843f d460 d4d6 65e2 e13f
000000e0: 015d a57a f49f 8bbf 5f8c 2d9a 77f4 9cbf
000000f0: 9b85 dc36 6cbc c73f deea 3962 02b9 b83f
00000100: 7e2e b6c5 cd9e a43f 2423 9883 37eb 8b3f
00000110: fae8 f153 3f67 e2bf 6f12 6ecf 9355 d33f
00000120: c055 9217 a7d9 533f 7fed 1e21 edc2 9ebf
00000130: f1fc 35b8 fba0 b43f 2b02 3280 aa4c 96bf
00000140: acc7 2fda ca93 a6bf 193b 62ef 5deb 633f
00000150: dd84 3704 b522 a13f b422 c66a 13f3 af3f
00000160: df1a f8b1 8220 7d3f 33f7 5a81 ad05 5a3f
00000170: b3be a6bd 18cb 8bbf 9e5c 8101 8996 adbf
00000180: 61a9 1fbb 6e30 b5bf 386d 9b42 ccc0 afbf
00000190: 9fc8 b761 6170 6b3f 7469 a30c c711 633f
000001a0: bfba 6004 2bd0 763f a569 de95 46f9 8bbf
000001b0: 620e a7bb 616c a73f aeb7 7158 3c13 673f
000001c0: d035 59c7 3724 903f 6e90 cf93 117f a5bf
000001d0: 6dcd ac9d 0d15 bfbf 874b abe4 d2b5 afbf
000001e0: 16ac 9fc6 92ec 033f 74b5 45b3 4965 953f
000001f0: 7fd1 02db fefa aa3f 144c 06c7 8cd3 8ebf
00000200: d30c e542 8a16 a5bf 136f e881 3584 c33f
00000210: 7b09 cd38 c9d7 8b3f eda5 9f95 5b37 a8bf
00000220: 6e65 73d6 46a2 a43f 4682 c63a 0c7b be3f
00000230: 01a2 91ff a719 d0bf 45ba f854 750c 4d3f
00000240: 3c6c e4bd d945 bbbf 236e e116 9456 a1bf
00000250: 59a7 55c6 065a 92bf 6e6e f993 7728 cd3f
00000260: 5ca2 9e5c c7ec c03f e279 f7f1 6334 cd3f
00000270: 9588 b6ab 684e 863f 133d 334e 2d58 c3bf
00000280: 8763 b7d8 1d89 703f ae0a 8784 a600 833f
00000290: 76ab 999a 09d1 9e3f 5ac0 2661 91c5 8c3f
000002a0: fb63 8372 7711 c4bf ca5b 7c0e 491e d03f
000002b0: 8fe2 8c48 9e53 bb3f 88c1 a098 ae83 95bf
000002c0: fade ae28 e4b0 9b3f 8428 4975 1341 393f
000002d0: 0d6c 659f db60 cb3f 88e4 a4c7 172d 533f
000002e0: 039e c8e0 b283 9fbf 3f2e bbf0 71ce b13f
000002f0: bec8 0ff9 5c21 8fbf 6ddd fb73 8146 a1bf
00000300: e45c 0450 a9b7 7d3f e542 8a0c 069b 90bf
00000310: a8c7 54b3 f0a5 a13f 0732 4fd1 c98f 823f
00000320: e899 6c5c 958f 573f fe7f 81aa 5f5d 7bbf
00000330: f710 2736 d254 a7bf 447c 87d0 d771 bd3f
00000340: 200c 8511 4bb1 8abf 8e41 1be2 885b 843f
00000350: 85f5 5288 2aca a0bf e5ea d47e 671d a93f
00000360: b035 db42 e862 a4bf 1c8a ca35 1b24 a5bf
00000370: 9553 ee77 fd67 823f 9449 d113 35e2 a93f
00000380: 4a7a 13e7 d23c 933f e621 46d4 870d 8bbf
00000390: cf2e 0544 493a 8abf b409 82ee 06cb a0bf
000003a0: 8c92 e0c3 d1e9 a3bf 75f5 d60d ecb7 a63f
000003b0: 4246 db63 99d7 813f a0f4 833f 47a6 b8bf
000003c0: d062 be27 04c5 743f 2094 60f0 1c7c 90bf
000003d0: 3b59 d79a f263 b3bf c0b7 813a 0bd6 bdbf
000003e0: 84d2 5e23 dae3 b6bf bd86 2976 0f8f 793f
000003f0: 4501 b633 8fb4 a83f 70ef ae49 f051 59bf
00000400: 411a b021 7713 acbf 34de c7c9 5803 9abf
00000410: d9b3 36db b940 b0bf 5a0a 5428 ec6e a63f
00000420: 8397 0e68 c7b0 673f 9ae7 54b2 d0e7 8ebf
00000430: 2fb5 ac29 19bc b9bf 7d5d 4b9e 8b85 b2bf
00000440: 33f8 74f7 f019 913f dc32 1722 6ab0 593f
00000450: 9fba af2b 8eec afbf 02da eebc caec b0bf
00000460: ad80 e3bd 0d0f b1bf 2ff3 97b1 dc13 833f
00000470: 87cf 6aaf 9973 7ebf c4c3 909c f9dd a6bf
00000480: 0bcf 0b72 59f7 563f d0b6 9b77 6569 653f
00000490: 78db b684 29f6 a3bf 8f62 7346 0196 c73f
000004a0: 6aaa 9364 c0ac 87bf f500 2c84 b08b 9ebf
000004b0: f160 2c89 0ce8 863f 3b9b 068d d4c8 86bf
000004c0: f00d 45cf 4565 96bf a287 ffc9 da3d 933f
000004d0: 366d a9d2 3cdc 9f3f f91e d031 f6ab 90bf
000004e0: 3f1d 96ec f225 a13f e670 23d6 ef0e 89bf
000004f0: b3f5 265c 927e 6a3f 28ff a682 7bdb 82bf
00000500: 48af 2778 513f 703f cdf9 2848 3681 89bf
00000510: 6912 427d 3752 853f 78f0 ccf9 3d02 aebf
00000520: 1f9f 5287 be91 bcbf 5c89 618a 9934 953f
00000530: 18ce 28e8 b9ca 8ebf 51c5 961b e0db 99bf
00000540: 70a8 3142 8c66 a33f bcbe 6c34 e721 883f
00000550: 09af d56e ad6e 9d3f 0b35 4ae4 9be0 8a3f
00000560: 997d fdb9 869f b4bf 077a 33c9 b334 a6bf
00000570: 6357 8c23 ffeb 9abf 4738 9003 303c 8bbf
00000580: ca0a 3b61 f9c0 9e3f 5a8f 28bc a989 a1bf
00000590: fbfd f39a f471 c33f 32f3 661b 1424 9f3f
000005a0: b365 edf7 ac3d 943f 4a08 7860 5f13 a83f
000005b0: 892b de1d f9f2 96bf 11e5 fe57 39f1 a4bf
000005c0: 61fa 6a0a 265b b83f 0e58 dcbb 6315 a73f
000005d0: b8c3 ecce d856 ab3f b72e bc89 a5a7 8c3f
000005e0: 8395 b611 3922 8b3f e4ec e333 b696 7cbf
000005f0: ea1d e1ea 02c2 8f3f c048 cb1a ebba 9bbf
00000600: 1cf9 d3ff b93b 9e3f 7d61 5160 1dc0 7abf
00000610: 55fc abff c6dc 613f 66aa 4d83 e5cc 963f
00000620: c30f 32b9 f99e 3cbf 0303 642c b531 91bf
00000630: f8ec b202 fe60 25bf f22a a923 10b2 5f3f
00000640: c7ff 8bc8 3ade a13f 7cdc 41cf 95da 95bf
00000650: d461 e53f 9b86 8b3f 3492 39c5 acf4 99bf
00000660: d60e 698c 3e6b 8bbf e6d4 2686 805b 32bf
00000670: 8871 ecc7 bf03 883f 196e 5070 3a5b 90bf
00000680: b61d 7b40 cdc7 76bf 39ac 8ede 80bb b7bf
00000690: ceda 1bc9 e8d0 9e3f 9539 baa1 2e41 7dbf
000006a0: e772 6353 b30f 953f ff32 f4d5 b690 9fbf
000006b0: 5f6d f785 962c 993f 3742 55af 7f58 aa3f
000006c0: 0c1b 045d 3733 a33f 0374 bf5b b267 a4bf
000006d0: 165d ea26 dedb 88bf 58de 26bb 7502 50bf
000006e0: b13f 7ef2 db25 40bf 01fe fbd2 632e a93f
000006f0: e915 ddd4 8ee6 b13f e253 851d 25d1 9abf
00000700: 9996 b530 2984 a5bf 9b4d c53c 252e b2bf
00000710: f780 be61 8861 903f b401 ed4d c1e9 8b3f
00000720: b8c6 de6e 639f aa3f e28f aabf 869b b6bf
00000730: b8fd e79f 3933 c1bf 7b98 4f8a a886 943f
00000740: 4085 cdf9 9527 8fbf 7ddc bfb0 4905 b2bf
00000750: 7763 8f72 fcab b3bf abc2 94a0 89c5 a9bf
00000760: fd09 5bcf cc8f 853f 3b5f 7140 de0c 993f
00000770: fd2d fb29 9dc8 94bf 9b1a 6cc0 eb62 9ebf
00000780: e77f 6fc2 6832 aabf 4230 cfee 4253 abbf
00000790: 8b37 b750 ed75 ab3f 303c f274 cd22 853f
000007a0: 7486 4136 288f a5bf 4895 f1d3 bda2 b5bf
000007b0: 2312 db69 e3c0 b7bf 55ff dbb8 0df8 86bf
000007c0: a30f 3b92 26bb 803f ae8e e624 4e38 843f
000007d0: a9f3 1533 f0c5 a0bf 69ef 6125 0cf0 b1bf
000007e0: 22b7 7e38 30e1 c3bf 8ea8 1417 4d6e b03f
000007f0: b3f0 c12c 50ca b53f 50b8 90ca a9f7 a2bf
1.378770768901373 -0.0014796872667798765 0.5764534634145028 0.0013322704852988584 -0.054637614703677395 0.15309605392756306 0.003992746791870085 -0.006704973714688985
-0.14935605863298543 0.16175421546765378 0.0031094649924163394 0.009287064588699582 -0.06884069092202175 -0.0730272874888872 0.31524118761841324 0.0006873753943465666
0.003939880425823258 0.003564602997700897 0.0025997795441910993 -0.0043277832970654295 1.3768432259162935 0.0014364170210313012 -0.28080416662334023 -0.06527955754301473
0.013652588783705712 0.01459412342116342 0.010188851226675302 0.5588864513292955 -0.013488683693749783 -0.02827631834533084 0.185437704837608 0.09657301805593074
0.04027407682869198 0.013632234290541563 -0.5751034392881416 0.3020982289965905 0.0012115604170380573 -0.03004045977261915 0.0805814099057789 -0.02177683265154166
-0.04409631646548404 0.0024315676374223713 0.03346791912532308 0.06240139654534485 0.00711108258065593 0.0015882677447928816 -0.013570969855975923 -0.057789117273096866
-0.08277027195405175 -0.06201780617785818 0.0033494855867895602 0.0023278129275300877 0.005569618259001429 -0.013659049461968229 0.045748762280280145 0.002816789495731129
0.015763160269036736 -0.04198508195239091 -0.12141499614226854 -0.061934080518447 3.800223278446078e-05 0.020894195143616526 0.05269619391893609 -0.015051936935185174
-0.041187592187748166 0.15247219889794703 0.013595172925879187 -0.047297346129038555 0.04030057304198463 0.11906505999514491 -0.25156593282602563 0.0008864949140326503
-0.10653458486596973 -0.033863666337051755 -0.01792154870546567 0.2277974579363788 0.132225914215513 0.22816132845669218 0.010891740551248122 -0.1511284477078126
0.004037014568404446 0.009278584403437175 0.03009428983788661 0.014048705842327692 -0.1567830380579663 0.25184847273470423 0.10674466391800251 -0.02101013952796074
0.027041974051569696 0.0003853485589259203 0.21389336855904198 0.0011704189515298353 -0.030775828332620502 0.0695563519213289 -0.015200353956945963 -0.03374104061907244
0.007255231263364002 -0.01621636821306795 0.03446914853192534 0.009063317012896211 0.0014380415538625072 -0.006680844970190945 -0.04556900893251908 0.11501835671468635
-0.013033472511443434 0.009940213585111459 -0.032792405263061965 0.04905246184576643 -0.039817102585952724 -0.04129109412794582 0.008987407896521119 0.05055394999421306
0.018786712030186593 -0.013209401288592337 -0.012806484592736393 -0.03279897366975906 -0.03889327541427176 0.04437196415845338 0.00871200405109385 -0.09628720570249749
0.005070701819840109 -0.01609845368524898 -0.07574383049300064 -0.11654730013262249 -0.08941424716506147 0.006239948651087066 0.04825255876767413 -0.0015454145966335674
-0.054836008894245676 -0.025403392139166495 -0.06348764039894607 0.043815021441351035 0.002891911950842764 -0.015090589945078215 -0.10052640216300256 -0.07235024084672222
0.016700520614215186 0.0015679394203857366 -0.06235164912492518 -0.0661131583463899 -0.06663595090822368 0.00931522767040746 -0.007434463818459031 -0.04466228519630236
0.0014017461291446233 0.0026137334615360178 -0.03898744339988175 0.18426528873421374 -0.01155996615348905 -0.029829748217708524 0.011184785782049707 -0.0111252408540402
-0.021870699668637472 0.01879064424418398 0.031113577230241073 -0.01628098181757218 0.03349265230195408 -0.012235521051870934 0.003234182223620785 -0.009207692074482646
0.00396663497893341 -0.012453483655119247 0.01041072226531377 -0.0586108558113389 -0.1115988808038506 0.02070846469030961 -0.01503510703796622 -0.025252820667167445
0.03789175327331484 0.011783415114762767 0.02874251355153404 0.013123720077852249 -0.08055917778755485 -0.043370836554220964 -0.026290880722704368 -0.01329839239954479
0.030033012923705006 -0.03425341054778981 0.1519151455504327 0.030411066219801337 0.0197665239641986 0.04702280094717588 -0.022411243865956307 -0.04090289305845308
0.09514081720679136 0.04508506458493865 0.05339696432054758 0.013991635576096824 0.013248868802132168 -0.006979667405398991 0.015506766121815969 -0.02708022452390746
0.02952471374464337 -0.006530871153778481 0.0021804701513015536 0.022265993250963588 -0.0004367217708891558 -0.016791182360068834 -0.0001631078788245433 0.0019345433817245486
0.034898602467364585 -0.02134164884088506 0.013440335166408447 -0.025347423112537196 -0.013388146076187917 -0.00028011215013219596 0.011725900925335223 -0.01597300825606682
-0.005561639561796941 -0.09270482476738175 0.030093800806720243 -0.007142240672364149 0.020567705120685977 -0.030825478371343525 0.024584152151743918 0.0514564420251457
0.03750012407731704 -0.03985364313096087 -0.01213811451206807 -0.000977148982753825 -0.0004927944146277866 0.04918205214016425 0.06992428490510573 -0.026188449789817166
-0.04202393264385513 -0.07101662381801647 0.01599705788214664 0.01362944621144 0.05199728706737744 -0.08831064395286561 -0.1343757658760134 0.020044930879429473
-0.01521222275340739 -0.0703931862370712 -0.07684304997327539 -0.050335217334923264 0.010528183057776802 0.02446315067604064 -0.02029653137905817 -0.029674228305362687
-0.05116584180336741 -0.05336960950043636 0.05363408670710531 0.01032028687612127 -0.04210782682708905 -0.08451448845297194 -0.09278699240082537 -0.011215312198600872
0.008169461572272335 0.009873018742673292 -0.03276014922719323 -0.07006908333454266 -0.15530970343154943 0.06418306172841623 0.08511830418314296 -0.0370457706234083
