weights/vsself2/vsself50_w.npy (npy, 65152 bytes, 1 tensors)

array f8 [8128]
00000000: 439b b248 df8d eb3f df6d 13f0 81ef 38bf
00000010: ccfe 96e0 696d d13f 1a0a 65de 2ef5 513f
00000020: 3679 1070 3d2f 363f 0516 5ad0 95c0 bb3f
00000030: a144 68b1 f3f2 613f b0bc ed0a bfca 413f
00000040: 1aa3 f583 8f48 2fbf bc9f 9247 e01d b93f
00000050: 4d90 cd62 c415 563f e8ec dfc3 2341 5d3f
00000060: 51c2 bb45 45a8 58bf 3fb3 b76d 4c86 6bbf
00000070: 26d8 ef6f 4b64 cd3f 4e80 215c 8b6f 463f
00000080: 9fe4 2d72 0093 603f 65da d4c5 cdcd 4d3f
00000090: f47b 9eb1 1b9f 5e3f c7c3 98cd 4e88 173f
000000a0: af83 c776 4b84 ec3f a810 6ab6 c052 5d3f
000000b0: da95 e62b faef 93bf c534 4388 fb01 743f
000000c0: 8f0b dff6 a046 773f 78e4 f2af 9ec4 76bf
000000d0: e391 adf6 63e9 7f3f 3810 8cc7 2abd c73f
000000e0: cf56 baf6 205e 683f a43b 3c83 393c 85bf
000000f0: 21a1 33fb 6297 63bf e0f0 19d3 e057 8a3f
00000100: d1db 8819 996b 68bf 9cd5 a114 8866 7a3f
00000110: b19f b889 94ed acbf 489b f494 6e5b b63f
00000120: a9ae 398d 9b99 5d3f de69 2647 2a92 35bf
00000130: 0336 80d3 9fec 373f 0db0 cc29 b081 3ebf
00000140: cc58 f0d7 ec8a 6abf d531 fa7e 62da 613f
00000150: d6c7 c3a4 01e7 80bf a2f2 c5f3 e9aa 423f
00000160: d446 295e beea 973f 306b 5c59 36c6 553f
00000170: 1b9e 018b 56c1 67bf 7558 b1f0 155a 59bf
00000180: 0ee6 cce5 e489 91bf e5da 631a 9811 67bf
00000190: 1493 3a67 0d4b 6a3f 6851 efdb ae78 89bf
000001a0: 6fe2 76f0 0daa 7dbf 45a0 aaa9 3d91 45bf
000001b0: 6da1 02f7 aebf ae3f fe8d 0c4c 5b73 503f
000001c0: 5bb7 23ed f3c4 fe3e 255e db09 c768 333f
000001d0: 1144 fd9b 7393 7cbf cfbe 8662 bdd6 7fbf
000001e0: 823d ae91 de82 663f 1abb 1510 c4cd 9dbf
000001f0: 00b9 88be e7b7 64bf 9247 8f04 beb1 83bf
00000200: 1a50 b99d d74e 61bf ee43 3308 7cec c23f
00000210: 20f6 ff17 7a82 783f 5e5b 44a1 5cd2 77bf
00000220: ee90 a777 8432 6c3f efaf 9e63 44d5 8a3f
00000230: 8989 b264 ff5b 9abf e14b b6a6 c02e 6a3f
00000240: ae37 0027 354d 8abf cf7f 42ba 1ced 8bbf
00000250: 02ca 669f e812 6dbf 3ef3 7b2d 2dec a23f
00000260: 9cec 2e30 16f3 7f3f d086 a39a c791 d23f
00000270: a2c0 88ad eadf 863f 74b8 548f 56d7 6dbf
00000280: 1a31 a3ae aa16 713f 6898 8c81 25e3 763f
00000290: 2aa6 0a8e 9cb6 743f 880b 70f5 a34f 813f
000002a0: 3da1 07d9 3834 84bf 612e c660 f5d2 81bf
000002b0: 95b2 d2ec 4c46 47bf c0b0 900f 2eaa 70bf
000002c0: 0427 7e35 85ea 50bf 2886 ff21 fd52 48bf
000002d0: 9aed a993 4024 a63f 87ec 6d6b ac12 623f
000002e0: c4ad aa85 7b79 46bf fdc4 1ef6 58b1 513f
000002f0: 1a0b 8073 b383 51bf aca5 9de9 d371 70bf
00000300: ac76 b513 b7be 703f b2c9 79ee c811 883f
00000310: b0de ea50 0513 90bf e217 4285 e2ff 61bf
00000320: df96 f5be b89d 78bf 895a 36dd 49d4 57bf
00000330: d1a6 c62b bc05 713f 62dc 2dba 7814 723f
00000340: 0e8a 22fe f58c 6e3f 1d49 990e 61a4 6c3f
00000350: 202f b434 5fbf 623f 9b69 a65f 977d 5d3f
00000360: df85 9111 9250 6b3f 72c6 720c 240a 3bbf
00000370: 6d72 88a3 bb10 733f 2b00 6e9b 2c99 513f
00000380: 91b5 566c 16e0 2ebf 6496 effc 4d17 66bf
00000390: 4f4c d041 87a9 61bf 0f70 12d4 8b1d 65bf
000003a0: 4a8f dfcc 0d40 5f3f 2993 02d4 7802 53bf
000003b0: e1ad 1242 ef45 6cbf 8eb2 1c4c d44a 95bf
000003c0: b064 2944 771c 6c3f 62f8 3074 2ef1 063f
000003d0: c863 80e0 bef2 62bf 37ce e101 6566 93bf
000003e0: 9d78 5225 f96b 87bf 9d45 bca9 35ab 6b3f
000003f0: a3a0 0aad a298 98bf bba7 b107 511f 55bf
00000400: c943 a0fc d0b3 1fbf f2a9 52f3 9067 7bbf
00000410: fa28 8fed 6e05 5fbf daa2 4da3 2039 b23f
00000420: d3d4 37ff 2608 90bf 8e03 f885 7220 77bf
00000430: c767 94e9 0007 543f 6b42 ef29 5a7b 5d3f
00000440: dc53 1895 dd4e 8d3f 3232 47ec aebd 823f
00000450: ea74 ab2c 34d5 59bf eee3 8357 06ff 6bbf
00000460: fc40 852d 6b27 8cbf 5798 a4ca e1b8 813f
00000470: aa0c ac78 2d0c 78bf 37a2 8138 96c6 71bf
00000480: 795a 0571 d2a7 86bf 3d73 7d98 4409 703f
00000490: ded6 4bd4 b88d 7bbf 837c df9b f247 a43f
000004a0: 63e3 72f9 29bb 90bf 2e28 d44c 6cff 6cbf
000004b0: 936e aafb 2fad 7ebf 7c6a d310 fa0f 533f
000004c0: a092 cd8f ba3c a33f 9eff 623a 9022 843f
000004d0: aeee 921c c973 753f 5912 a166 be32 5d3f
000004e0: 14c0 d2d6 9c54 763f e82e 70c8 408c 5abf
000004f0: 3edc bb04 7099 7b3f 4fb4 0274 02a7 83bf
00000500: 077f 023e 3671 79bf 46b2 9f31 53d6 4bbf
00000510: f5fc 8ad7 d9b6 56bf 251b ef24 2a41 713f
00000520: 0d9e 843c 4d75 73bf 503c 1b61 5844 88bf
00000530: 29ed f7e7 6e45 7abf cd7b ccf9 8a0f 683f
00000540: b186 477f 3772 743f af42 698b 5c18 703f
00000550: ccfc 6a4f 2375 af3f 7cfd 4042 6bd7 8e3f
00000560: f5bd e4ef 0f06 683f ac41 2e1c 7bbf 653f
00000570: 3463 a083 4978 613f 1ab1 4944 6ef1 6f3f
00000580: 307e 954b 3367 933f 4dc7 26df 2822 79bf
00000590: f800 00cb 1c22 703f b717 5bd2 cadb 70bf
000005a0: 355f dbbb 4e58 403f 45a9 7c5e f2d1 7abf
000005b0: 444b 3c92 8003 72bf 98a3 7c0e 191b 8c3f
000005c0: 6042 1266 27a8 873f db93 f407 d935 85bf
000005d0: e4e7 fbd0 e957 7abf f325 e8d6 89ee 743f
000005e0: faa1 724a 8989 8ebf 27d6 bcbf 3e91 a3bf
000005f0: a83e 253c cb41 8c3f e160 d9de 76e3 38bf
00000600: 4a7f 7f58 8dd3 603f b094 b6a1 56c9 733f
00000610: 27da f2a5 d20d 743f 76a3 6b4e cd8e 923f
00000620: f50a 1442 67a9 703f 99a6 d29e 7c91 53bf
00000630: bb16 0dc2 6b03 7cbf 98d4 3dce dc84 6a3f
00000640: 9b4c aac0 0286 8c3f b19e 59d4 3cd1 a93f
00000650: 02d9 f826 d478 6bbf 6138 4725 7acd 61bf
00000660: baac 3b58 0adf 7bbf 94d5 e7de 7083 72bf
00000670: 0471 6893 196c 81bf 4e47 597a b0b8 6c3f
00000680: e9fe 1b1d 21fc 913f c610 8a34 53bb b1bf
00000690: 6721 6a46 599b 7b3f 88cb 3229 6b38 6cbf
000006a0: 0c7e 003c b210 f2be 2dc4 5ee9 9107 35bf
000006b0: ea81 134b bda5 80bf 2071 ec58 8a7e 953f
000006c0: 5fd3 fc75 02f1 a33f 65cb d897 4025 613f
000006d0: c458 ca39 3ceb 60bf a4ae c2d2 7b92 68bf
000006e0: 11bc 5cc8 ab3d 953f 25ab 368b 3b5b b33f
000006f0: 44db be8b 055b 623f 3ea4 7ba4 da44 7cbf
00000700: 9096 4c7f aa47 4e3f c86e c0ae 4838 71bf
00000710: 3848 212f aeb8 923f 8f9c 76c8 a03a 993f
00000720: 3811 98a0 4d4f 7ebf 4587 4bfd 785b a03f
00000730: 8ba0 585b bd45 a4bf e9b3 9eb8 6629 913f
00000740: b23a 624a 7046 723f 6681 cca2 5b20 46bf
00000750: 63e9 4b73 774e 7ebf 5e8c c71b fcf9 63bf
00000760: a526 941e a82d 823f 25a8 ece9 d0a5 a0bf
00000770: 564e 8d35 9b29 753f aa70 fa24 547b 70bf
00000780: ee12 7173 1fdb 8bbf 8c12 3679 eb27 6c3f
00000790: fe31 69cf b86b a73f 1886 431e dc51 9cbf
000007a0: 4650 2d11 5f3a 84bf 12be 5050 8ca5 8dbf
000007b0: e3a4 9525 b2eb 95bf 95f4 dba3 3030 75bf
000007c0: 1fd3 1c94 471a 91bf 293c 1ee6 762e 83bf
000007d0: b3a8 fd79 dadf 93bf 30bb a4cc 20b0 68bf
000007e0: 62a5 36c7 11b9 a9bf a039 368f 0f15 ab3f
000007f0: 24c1 87f1 1d63 b23f 6f1d 6277 3c15 923f
0.8610683841587633 -0.00038048670110210446 0.2723030751476301 0.0010960538580354674 0.0003385090822706384 0.10840736710277817 0.002191043818364394 0.000542968065799251
-0.00023867370507992745 0.0981121229875716 0.001347963126328916 0.001785550047769752 -0.0015049625862354652 -0.0033599369760310134 0.2296232506338935 0.0006846838443941379
0.0020232208930193864 0.000909543490400133 0.0018689890334611077 8.976918197657536e-05 0.8911492652806511 0.0017897493322900724 -0.019470127992141296 0.0048847032050620175
0.0056825912160459865 -0.0055586050722747846 0.007790937884099655 0.18546042197715606 0.002974571592697518 -0.01036877567051226 -0.0023915227153460538 0.012862926904965766
-0.002980994246424264 0.006445437969991554 -0.0565000932804759 0.08733264099701643 0.0018066424426263306 -0.00032914669204733664 0.00036505605703571214 -0.00046549368726078803
-0.0032400728082492055 0.002179329276094525 -0.008253109780046158 0.0005696909279745042 0.023356413361688436 0.0013289957764246012 -0.0028998079579201203 -0.0015473570117783529
-0.01712758686628573 -0.0028160067332650856 0.0032096158773405967 -0.01243721588790754 -0.007242254686780399 -0.0006581832015699693 0.060056178715344945 0.0010040656636157714
2.9343935985907395e-05 0.0002961622175070309 -0.006976558302839401 -0.007773151192324425 0.0027479502727555958 -0.02910524700331072 -0.0025290991072984825 -0.009616360201025551
-0.002112790227139183 0.14784193420794572 0.005983807495792998 -0.005815851054896763 0.0034420573476713267 0.013102087297589519 -0.025741568108637067 0.0031961214751361354
-0.012842574360572314 -0.013635849413105831 -0.0035490554248209802 0.03695813350893794 0.007800184891432551 0.29014768697207405 0.011169274731486493 -0.0036427202818663466
0.004172007300621306 0.005587717540754246 0.00505696443784979 0.008452683379805995 -0.009865230677818299 -0.008703152671635185 -0.0007102847681799857 -0.004068546223646219
-0.0010324765080177998 -0.0007423149108911108 0.04324533274208449 0.002206169850465015 -0.0006858685622623197 0.00107988059651759 -0.0010689976170403293 -0.004014804633564333
0.004088130135043205 0.011752671983434524 -0.015697558463868944 -0.00219721071522637 -0.006009790099914729 -0.0014544221238332064 0.0041558599881825345 0.004414054480427062
0.0037293247742848984 0.0034963508267448332 0.0022885188569769094 0.001799962831319313 0.0033343174841753277 -0.0004125917443601252 0.004654629673066607 0.0010741172424957406
-0.0002355601665561644 -0.0026966593936659667 -0.0021560327281889067 -0.0025775652907906797 0.0019073614853306214 -0.0011602573359052548 -0.0034513161668507796 -0.020793263574136626
0.0034315423411440324 4.3758611831354986e-05 -0.0023130157533270725 -0.018945291747924222 -0.011436411334497182 0.0033775375467334904 -0.024019758044830152 -0.0012892047223211761
-0.00012093508772205367 -0.0066905653122071185 -0.0018933852463641197 0.07118419634719989 -0.015656098677898477 -0.005646178585721707 0.0012223729048117403 0.0017994289880684199
0.014310580360907758 0.009150854669223472 -0.0015767106548801265 -0.003417503725469554 -0.013747060133625137 0.008653415676757854 -0.005870988485870013 -0.0043397777554692795
-0.011062282632946495 0.003915088607610082 -0.006726953496345193 0.03961141731974129 -0.01633897385611095 -0.0035397639500205557 -0.007489383157600965 0.0011634771392922396
0.0375726986447138 0.009831549436398575 0.005237374870542473 0.0017821177848570595 0.005451786663954312 -0.001620352997408975 0.006738126346809868 -0.009595889249192661
-0.00621148289079066 -0.0008495241374909055 -0.0013863685000357593 0.004212536455219494 -0.004750539498025852 -0.011849108184291662 -0.006413872935350264 0.00293709891992886
0.004991738115195752 0.003929482939000791 0.06144056648690252 0.015059316596419896 0.0029325782080815662 0.002654781770111655 0.0021325527022892036 0.0038993028304529333
0.018948365677145584 -0.0061360928106511505 0.003938782188925176 -0.004115860245013473 0.0004988083307706283 -0.006547877077347335 -0.004397871238114363 0.013723560099224305
0.011551196863622326 -0.010356612735060658 -0.006431496949284441 0.005110300479381535 -0.014910767158952776 -0.03821750727221867 0.013797366879458053 -0.00037976886856007196
0.00205400091725486 0.004830683140800193 0.004895994991946518 0.018122871314435206 0.004067805625939104 -0.001194354724513158 -0.00683919995282672 0.0032371819124202388
0.013927480225254299 0.050424481317177146 -0.003353514060815078 -0.002173174443874479 -0.006804504784422233 -0.004519883061666081 -0.00850696545699537 0.003506035502859917
0.01756335964364456 -0.06926460297296719 0.006739948969546417 -0.003444871233648287 -1.7228335991713e-05 -0.00032088577551820063 -0.008128622869151909 0.020990525891748324
0.03894813242224048 0.0020929586014743367 -0.0020652939113673125 -0.0029995363639353113 0.02074306879438487 0.07561084889190946 0.002240668136404807 -0.006901601860342997
0.0009240705972827935 -0.004204067150592024 0.018282624842250267 0.024637710795698594 -0.007399848205299535 0.031947880668453034 -0.03959457149568476 0.01675949575262684
0.00446170676708728 -0.0006752440873221521 -0.007399050334010534 -0.002438537978592544 0.008876145775974573 -0.032515076213101936 0.005166631971252741 -0.004023865403407859
-0.013601537428379964 0.003437004002707694 0.04574372798797198 -0.027656020495561234 -0.009876959525776507 -0.014475914193183424 -0.02140692095182296 -0.005172910690587025
-0.016701811232638804 -0.009365967652938139 -0.01940862054417698 -0.003013671933465821 -0.05024009281926102 0.052895055992041806 0.07182490488753906 0.017659134661270167
