weights/vsself2/vsself144_theta.npy (npy, 65152 bytes, 1 tensors)

array f8 [8128]
000000 2e 6f dd 7e 18 7b 01 40 8a 4d c7 83 91 c9 a7 bf
       2.185105315334929 -0.046459719978567085
000010 95 f3 39 91 11 b5 ee 3f c1 58 d2 0a e3 a4 94 3f
       0.9596031032993887 0.020160243545057414
000020 ef 03 cc 12 f5 c0 61 3f 89 4d d4 70 1a 23 e0 3f
       0.002167204531702264 0.5042850688645767
000030 97 62 12 07 e4 b1 91 3f 07 9a 70 68 67 a2 94 3f
       0.01728016179240174 0.020150771855833607
000040 3a 6d a8 69 98 6a 86 bf 65 de 53 fc d7 24 d1 3f
       -0.01094550201837895 0.2678737606179083
000050 7a ac 6b e6 e6 39 80 3f 97 91 b0 4e 9f 5e 84 bf
       0.007922939211729697 -0.0099461027039716
000060 14 b9 14 93 b0 17 96 3f 63 ff 55 3e 20 2c 96 3f
       0.021574744202717502 0.02165270214527427
000070 5e 7f 5f c7 76 86 e2 3f ba 7b 93 ea a1 62 98 bf
       0.5789140600208886 -0.023813753073109935
000080 93 2f f5 43 d1 58 86 3f 41 9e 15 a3 d9 b7 70 3f
       0.0109115933288633 0.004081583161088143
000090 da 0e e1 aa 1d a7 9f bf 85 dc fa bf a1 6f 91 bf
       -0.03091093402350862 -0.0170274041581391
0000a0 bf db 35 f1 a3 34 01 40 c7 ec 74 46 3d 05 8a bf
       2.1507033199845575 -0.01270530577914143
0000b0 79 3f 4b 50 56 d5 c1 bf fe 91 66 06 9c 49 ba 3f
       -0.13932303352930456 0.10268569141641845
0000c0 dd 0c f7 8e a4 7f 25 3f e6 90 4d b9 bc d7 9d bf
       0.00016402133722524014 -0.029143284616467556
0000d0 d2 d5 9d 8d c1 15 b0 3f f1 c1 ac 3e 2d 18 f5 3f
       0.06283197123942522 1.3184025238261905
0000e0 3d 30 fa fe 05 d7 b0 bf 26 6e b8 c4 a9 7b cd 3f
       -0.06578099703818992 0.2303364000843981
0000f0 bf 4c 30 87 92 88 cf 3f e2 c1 7b e5 09 95 bb bf
       0.246355358133405 -0.10774289944288953
000100 1f 4e ae 72 13 9a 89 bf a7 63 9d 05 d9 ba ba 3f
       -0.012500907838137341 0.10441357028083918
000110 26 0c 10 27 1f 4a f1 3f 34 e2 6a a3 e0 14 e7 3f
       1.0805961156736514 0.7212985221622774
000120 26 37 45 e6 d6 b0 99 3f 7e f5 40 aa da 70 7a bf
       0.02508865147074526 -0.0064552823642406425
000130 9f df 1a b4 e3 f0 63 3f 16 e2 00 0b 56 3b a0 3f
       0.0024342009863537874 0.03170269855803924
000140 6d e1 87 d3 70 5e 96 bf ec d5 d9 f1 c7 4e a4 3f
       -0.021844637785734578 0.03966355159074539
000150 73 1f 05 30 94 de 9a 3f 6d 61 5e 12 82 e7 b9 3f
       0.026239695959957964 0.10118878315404851
000160 40 0b 14 52 52 08 bd bf 1c fd 2a 02 1a 37 87 bf
       -0.11340822700371422 -0.011335566702995119
000170 15 b4 3c 0e 26 1a 95 bf 99 e7 e8 dd 4e 7f 9f bf
       -0.020607561701741235 -0.03075907926015695
000180 66 c6 71 89 a6 3b ad bf 05 69 cc 90 14 c5 93 bf
       -0.057095722463498075 -0.01930648931293268
000190 67 37 ae a1 62 79 99 3f f4 e3 05 63 b0 72 77 bf
       0.024877110593983256 -0.005724610339137282
0001a0 b0 a0 f6 54 f8 6f d7 bf 57 32 60 c9 6a 31 7b 3f
       -0.36620910927968975 0.00663892472767865
0001b0 a2 5e 9b e3 d6 4c bd 3f a9 da 8a 8f 2a 68 ab 3f
       0.11445372635659593 0.05352910043932486
0001c0 78 fe 54 4d 05 57 a1 bf d6 d1 8e 60 59 58 a5 3f
       -0.033867040338461274 0.04168967536626027
0001d0 e8 66 fc e8 5a 05 9a bf 28 5e aa ca 9a 8b a6 bf
       -0.02541105315240247 -0.04403384899086077
0001e0 8e b0 61 f3 f9 99 8a 3f 57 71 0d 64 42 6c b0 bf
       0.012988999118725777 -0.06415190642059564
0001f0 2b e6 f0 f7 aa 37 ce bf e0 18 c6 ba b9 4a a7 bf
       -0.2360738478326295 -0.045491985368288246
000200 3d 88 bb d7 e5 9c b6 bf 0f 05 e1 1e f2 80 e7 3f
       -0.08833157078655147 0.7344904521088739
000210 e2 1c 1a 9a e2 09 8e 3f ed 13 46 da 5f 3a ac 3f
       0.014667291953868792 0.0551328615138472
000220 d2 85 7c ac db 88 8f 3f 28 b0 75 b8 d0 f5 cf 3f
       0.015397754861228661 0.24968918806860185
000230 11 5f 8d 10 45 16 b0 bf 5a a9 dc 1b 2b f3 ae 3f
       -0.0628398099337313 0.060448977614515356
000240 4f 9f c1 a2 b1 53 ca bf 78 b8 28 f3 63 7a b4 bf
       -0.20567913481795094 -0.07999252974033932
000250 26 0a 1b bb 2e ac d2 bf 58 4d 28 80 3b e5 e1 3f
       -0.29175918838532977 0.5592324736666496
000260 50 45 59 dd 19 2d dd 3f 74 82 00 8a c2 ab f6 3f
       0.45587774864278163 1.4169335737898594
000270 e2 27 f1 4d 95 02 c5 3f 47 c7 a2 10 79 ed a4 3f
       0.16414133363497202 0.04087427452158337
000280 5a b6 e2 6a d6 81 a3 3f 11 e3 ab 13 28 61 a0 3f
       0.03809995703464315 0.03199124565248302
000290 3a ea 24 78 d7 c4 99 3f ba 4d cb 3d 6d 38 b2 3f
       0.025164953907031974 0.07117350348135335
0002a0 49 70 47 fd 48 7e c1 bf 3d 86 18 9b 71 01 eb 3f
       -0.13666641585484943 0.8439262417998133
0002b0 ba c8 93 6f 83 c4 61 bf e4 11 18 a5 50 7a 86 bf
       -0.0021689002138539333 -0.010975484884519333
0002c0 75 11 30 19 76 64 ad 3f bb 21 c8 6f 87 0d c0 bf
       0.057407084059408676 -0.1254128738221548
0002d0 d4 f7 31 70 f5 91 dd 3f 04 f4 5b 13 23 00 8f bf
       0.46203361469804105 -0.015136980083747538
0002e0 57 73 cf 7e d9 4f a4 bf 87 56 6e 3d 81 09 84 3f
       -0.039671704034595016 0.009783754050469952
0002f0 a1 f9 e8 7a 7a 5f 97 bf 0c c2 fa d6 49 33 9f bf
       -0.022825158836207064 -0.03046908735876923
000300 e8 b3 4e b9 6c 8e b3 3f 46 b1 24 ab cc d1 ac 3f
       0.07639197849375956 0.05628814305450418
000310 fd 4a 5c 7c 51 50 e4 bf c1 23 ff b0 28 e1 9a bf
       -0.6348044804493324 -0.026249538233773743
000320 9d ad ed f0 cd 65 84 3f e9 4f 01 6f ba 01 7a bf
       0.009959801592876622 -0.0063493044436490976
000330 fa ee 39 d6 fd fa cc bf 18 9a 4d 5c 50 18 6e bf
       -0.22640965423840226 -0.0036737031500024935
000340 a6 3c fb 03 cd 00 dd 3f cf 19 13 a1 a3 97 a9 3f
       0.4531738795166781 0.0499850401043208
000350 75 8b 3d 13 da f1 95 3f 2e 3c 9d d8 3a 8e 93 3f
       0.021430404114095098 0.019097251387673868
000360 a9 18 37 16 8b d8 66 bf ce ac 61 83 b5 fe 86 bf
       -0.0027888027704846175 -0.011228006431528572
000370 c9 d6 a2 13 b3 6d b0 3f 2e 4a 9e 40 84 e6 b4 3f
       0.06417388181111074 0.08164240434261025
000380 2a 7f 38 f4 aa f3 a4 bf 08 16 c1 3b af a5 8d 3f
       -0.040921537696929924 0.014476174365095865
000390 49 fe 24 53 18 e0 77 bf b9 be d0 30 da 74 93 bf
       -0.005828948038753953 -0.019000443677383603
0003a0 2f 0a e0 94 b2 3d d1 bf 38 6a d9 87 28 77 aa 3f
       -0.2693907216891231 0.05169035585705156
0003b0 83 90 64 7a 15 70 77 3f 6c bd 19 82 28 98 cd bf
       0.0057221259105838555 -0.23120600082937004
0003c0 5c 05 b9 f8 ed 91 c2 3f 3a 4f 64 38 7f 67 b0 3f
       0.1450784172502989 0.06407923819307096
0003d0 c2 a3 c4 d1 32 c3 a6 bf e2 3a 33 1a 4b ac 6a bf
       -0.04445799646993677 -0.0032559840052280723
0003e0 f0 a5 2a fb 28 e0 a0 bf f5 83 e7 64 08 6c 92 bf
       -0.03296020570753544 -0.017990237387383663
0003f0 2c 1d 0c 60 ce 38 a0 3f 3d b9 21 2d 84 b9 bb bf
       0.03168339655354155 -0.10829950429772324
000400 c5 42 cd 4f bd 0a ab 3f e3 6b e7 32 84 85 c5 bf
       0.05281631087439601 -0.1681370972208632
000410 47 a9 36 3f 1c d0 c1 bf 96 12 4b f0 6e f5 ca 3f
       -0.13916352354619674 0.2106150315577408
000420 5c 3f 88 29 0d 54 c2 bf b8 54 ae f4 a5 f7 ab bf
       -0.1431900456232097 -0.054623781317027775
000430 0e ed 5d 69 37 98 6c bf b8 0f 71 93 73 7e a8 bf
       -0.0034905512101751695 -0.047839748142478766
000440 74 35 20 0e 9c 83 c2 3f 52 be 64 c1 1e d4 8f 3f
       0.1446414059613904 0.015541305806066639
000450 d6 a8 64 ff d2 fb 7a 3f 5c a0 f4 42 38 99 9d bf
       0.00658781453084086 -0.028904799543994705
000460 4d cd 93 4c ea 3a 71 3f ef c2 a1 21 fc d7 90 bf
       0.0042065765676285284 -0.016448916962363332
000470 c2 9f 2d fa 8e 7e b7 bf 48 bb 85 97 99 83 d3 bf
       -0.09177487953058885 -0.3049072246275739
000480 56 4d 86 0b 96 d5 a6 3f 46 8a c4 1a ac 73 85 bf
       0.044598282725156466 -0.010474533621679726
000490 c7 41 00 57 a7 a2 a5 bf 4a e7 66 75 58 66 d9 3f
       -0.04225657403015109 0.3968716761115628
0004a0 9c 1e f6 1f 65 78 c0 bf 5a aa fb 65 cc 6d ad 3f
       -0.12867416439643342 0.057478320550065035
0004b0 9b 76 6c ba bb ba a2 bf 28 b9 3c dc c5 6c 3f 3f
       -0.03658091211967226 0.00047950583051460877
0004c0 28 d7 4d b3 b9 81 e6 bf 60 b0 2a fa 6f 2a a7 3f
       -0.7033356191666131 0.045245646751340685
0004d0 0c dd 81 56 a6 32 6b bf 7f 68 22 8d e0 09 72 3f
       -0.003320050123928225 0.004403950837650438
0004e0 b2 15 d8 b0 ca 59 a1 3f 4e d4 01 9e 1b fd 56 bf
       0.03388818176976417 -0.0014031190585488576
0004f0 21 33 7d 3a 27 42 ab bf ac 17 b3 af b9 b3 80 bf
       -0.05323908413865853 -0.008155298876214655
000500 55 97 34 55 c6 ed 7d bf 65 e2 79 f6 4b d7 b4 bf
       -0.007306837785369631 -0.08141016738398717
000510 ea 06 03 8c 87 f9 ae 3f 5b cb 65 ed 3d a4 c5 3f
       0.06049750885132517 0.16907476512605055
000520 23 bf 81 2d 74 20 d4 bf f9 a0 e7 8b df 38 ac bf
       -0.3144808239367071 -0.05512140829870477
000530 fc ed e5 af cf 65 85 bf 18 5b c8 de bc 47 9f 3f
       -0.010448095851407928 0.030547095391820184
000540 21 fb 16 c3 e5 3a bc 3f a6 c4 f9 8c c6 ee ab 3f
       0.11027370465215515 0.05455608816999673
000550 58 31 85 ef d7 45 e2 3f 60 7e 45 ff e9 d7 b3 3f
       0.5710258176928091 0.0775133369656884
000560 4b db 58 ca f3 00 c2 bf e8 be dc a2 95 05 a7 bf
       -0.1406540620825701 -0.04496448147835769
000570 0e 36 0a 1a 89 49 83 3f 98 b7 89 92 ee 5b 68 bf
       0.009417601687597556 -0.00297352405714597
000580 2b 53 41 77 3a 3a ca 3f 7e ed ea 9f 8f d5 9d bf
       0.2049019892025624 -0.029134983192063306
000590 23 be 7c 64 9d 40 f0 3f c9 3e eb 70 b3 15 a7 3f
       1.0157751012119511 0.04508744004635685
0005a0 29 a9 1b c3 65 1b 5f bf dc 12 ad 5f be 4c 8a bf
       -0.001898621918764729 -0.012841689390947257
0005b0 75 1d 04 95 b6 6e b9 bf 56 09 ce 00 eb 66 8a bf
       -0.09934559953773266 -0.012891612970410787
0005c0 8e 0b ec f2 18 f9 ba 3f 6a b5 3f 9f 27 d8 ce bf
       0.10536342554773467 -0.24097152019332252
0005d0 90 e8 6c cd e7 6e d2 bf ca 90 57 fb 4e ca a7 bf
       -0.2880191331966069 -0.046465366536524735
0005e0 9b 00 3b a9 4e 25 a0 bf 03 a9 d7 8c 23 89 ca bf
       -0.03153463187982305 -0.20731014611312312
0005f0 14 fc 28 4f fb 44 a7 3f 98 77 bc 49 a1 8a a0 bf
       0.04544816342649241 -0.032307663203240355
000600 71 73 72 ee 12 9e 82 3f 8e a7 ae 6d 40 b3 aa 3f
       0.009090564634158334 0.05214883173842032
000610 88 5b 7f cd a8 cb b7 3f 70 5d 06 02 59 45 af 3f
       0.09295134560612273 0.06107595586507386
000620 74 af 72 dd 31 12 b0 bf 7f 2b 96 cf d7 48 b6 bf
       -0.06277763039059697 -0.08704899614364868
000630 80 bf a1 6f 38 1f 93 bf 3f e9 d5 cb fb 1d b4 3f
       -0.01867378407808884 0.07858251310782281
000640 20 94 48 f0 8a 18 a9 bf cc 12 8a aa bc 90 c1 3f
       -0.04901537116192167 0.1372295220100085
000650 6b be 2d 6d 5e db ba bf f6 17 b9 0f aa 50 a0 bf
       -0.10490980306144031 -0.03186541978770656
000660 a4 4b 55 16 15 4f 97 bf 6c 9a c1 d1 9d c9 99 bf
       -0.02276261280833193 -0.025183168342119464
000670 34 6f e6 04 e9 13 ca bf 7c 67 1c 51 87 e8 a5 3f
       -0.2037326120306432 0.04278967728733016
000680 47 30 65 37 9d b4 94 3f f6 7d 94 d1 0e e9 f1 bf
       0.020220238214548904 -1.1193988978119456
000690 20 a2 25 8b c2 30 c1 3f 91 bf 64 81 79 7c 8d 3f
       0.13430053514754636 0.014397572766568863
0006a0 2b 6e cb fa cd 8b 6b 3f fa c9 ea 81 d9 5c 84 3f
       0.0033625624695170684 0.009942721631294827
0006b0 ce 46 2f 86 2d 29 a3 3f 61 c3 6b 23 51 1b d5 3f
       0.03742353690144072 0.32979229411198757
0006c0 34 d7 78 6f 54 83 79 3f 30 0c 43 8a 40 8e c0 bf
       0.006228761506965875 -0.12934118987149779
0006d0 79 fd 00 db 89 e7 aa bf 34 56 41 dd ac 48 b6 bf
       -0.0525477485502916 -0.08704643632639703
0006e0 c4 54 4f c9 ae 2c bb bf 6b c3 dc 81 1c f4 ba bf
       -0.10615055479805152 -0.10528734369723984
0006f0 59 1c d6 bf 4b 03 77 bf 08 c9 b7 41 7c 1d 9a bf
       -0.005618377586308198 -0.025503102789977056
000700 c9 40 19 2b 66 e2 9b bf 35 0f ed 15 7e a7 bf 3f
       -0.027230831509144324 0.12364948306372699
000710 41 d6 20 a6 75 99 cd bf 1c 51 9a ce 16 76 cc 3f
       -0.23124571429950616 0.222353793030046
000720 a8 c6 c8 f6 c2 ce c9 3f 9a 11 b3 d5 90 06 b9 bf
       0.20162236261380895 -0.09775643555901184
000730 78 f1 f2 ce be 93 e6 bf d4 23 e2 a3 ba 74 ca 3f
       -0.705535320470104 0.20668728830449246
000740 65 15 42 1d 25 3c b1 3f 29 73 bf 38 9c 3e 9c 3f
       0.06732398952779801 0.027582589114774656
000750 a3 59 23 71 af 66 be 3f aa 84 02 fd 19 e0 83 3f
       0.1187543536392242 0.009704783471820317
000760 9f ff b1 a2 e7 f5 c1 3f 4f 40 a5 9d 4f 16 a1 bf
       0.1403169197474172 -0.0333733444155092
000770 00 62 ef c3 22 36 ac 3f ca 8d 9c cf 89 74 ad 3f
       0.05510052339349514 0.05752974185295619
000780 32 09 d3 8e 1e 03 b7 bf 41 94 8c 59 01 2a a9 bf
       -0.08989134776041821 -0.04914859979752651
000790 77 62 da 43 c4 8c cb 3f a3 f2 9a 5c 60 25 bc bf
       0.21523335755479753 -0.10994531880255436
0007a0 7b 5b 11 e4 ef f2 a7 3f 92 67 bb 73 84 8e d5 bf
       0.04677533778219974 -0.33682357122381135
0007b0 1e 5e d7 84 33 07 d9 bf 5a ff 7e c0 34 f8 bb bf
       -0.39106452915936696 -0.10925607394801543
0007c0 10 b5 d1 73 a9 51 98 3f f1 22 f2 47 3b e0 d1 bf
       0.023749015516320304 -0.2793110087009572
0007d0 8d b5 06 cc 2c 26 ca bf 64 00 e1 f0 fb ba e1 bf
       -0.20429000818459678 -0.5540752129236464
0007e0 91 da bd 91 fb c1 ec bf fc 8a 52 dd 26 17 d6 3f
       -0.8986795279041236 0.3451630746223342
0007f0 0c 2e b5 16 28 62 d5 3f 70 48 24 25 c2 c8 ad 3f
       0.33411600320388923 0.0581722898806597
