weights/vsself2/vsself822_theta.npy (npy, 65152 bytes, 1 tensors)

array f8 [8128]
00000000: 4a4c e035 7d32 0b40 6de9 fc98 f23a d1bf
00000010: b8a6 70c0 c4cb fe3f fe02 694d f268 8f3f
00000020: 7c23 c8ea e09f f83f 613e 6c3e 7402 e63f
00000030: 9e10 61d7 35a0 bf3f a6b7 3aea e43a c23f
00000040: 4f66 71c5 c090 e4bf 12ca e590 6931 ea3f
00000050: 2625 34b4 47a5 c43f cd66 8a5e b771 9e3f
00000060: f6f5 6144 5b42 e3bf 4e35 cb31 7e8e e3bf
00000070: 5841 de4f 474a ff3f afb9 8799 ca4f 89bf
00000080: f8ee 94ef ab41 b2bf 546b 9414 a85c a5bf
00000090: e68b c851 c151 ac3f 7843 720d f67d e2bf
000000a0: bac1 545c 9a5e 0b40 e5b5 1844 2c47 b7bf
000000b0: 08fe 6204 bfab dfbf 53d6 495b 1729 893f
000000c0: 5e95 253a b01a c13f 5196 e447 c861 7a3f
000000d0: 1883 2c31 5675 b63f 0848 72fa 2d98 0040
000000e0: 5d12 a84a 12dc c2bf b4c7 041b 78bb fa3f
000000f0: 924a c983 3327 d23f 80ef 6c1b 3a92 e4bf
00000100: 7f19 f078 3fb8 c1bf cdaf 2d78 1704 df3f
00000110: 9136 7515 99f2 1140 aa52 dab5 3334 df3f
00000120: a6f8 71e7 8280 b63f 8fcc 477a a54f d4bf
00000130: c682 5740 ce99 e9bf a51c 3019 49ee d4bf
00000140: 388b 19de c5f1 c0bf 0695 67f8 a99f d63f
00000150: 19a9 ac6d aed8 c1bf 5abc 9495 68c4 c7bf
00000160: 0bfb b840 7a94 d33f dc69 66e9 c21c 913f
00000170: dffd 3490 ed03 933f bb66 62c0 506f b03f
00000180: 556c 9261 b6a9 b9bf f24e d615 f9e3 ccbf
00000190: 22b0 f299 5a58 ca3f 6374 897c 23af a7bf
000001a0: ec14 1547 c9eb ddbf 34be 53f8 6345 b4bf
000001b0: 3217 fb63 8ae1 e33f 7626 e396 2a97 c33f
000001c0: 67ad c0d9 20b9 d63f 0bc4 9c16 0cfa c23f
000001d0: c2f2 ccf8 0915 abbf 30bb a59c 69d4 ed3f
000001e0: 67fc 9afe 591c c0bf 7e61 8398 2f91 c3bf
000001f0: 847f d67d 24f8 cebf 0bec bd38 4b81 bdbf
00000200: fe54 d162 b514 c4bf 656d 9e93 6d0f e83f
00000210: 03a3 7262 bf03 b0bf 8cc8 6a7b 905f e5bf
00000220: 7f05 b828 b434 afbf eb3d 1745 bd5a f83f
00000230: f612 5e26 ebc5 d1bf 0091 8f7d cff1 b4bf
00000240: 97f5 0e29 fc4f dcbf e45f ab47 ee8d eabf
00000250: 8242 980d 5b69 c03f b1c9 1d2e e8bf cb3f
00000260: 57c4 36c5 73c0 f23f 6a0f 8718 39cd fb3f
00000270: 4781 2656 d215 b33f 08cd 10d3 2e7d e63f
00000280: 69a1 81a6 4b75 d4bf b59b f0e9 a3df ae3f
00000290: 751b bf9e 1d10 d0bf 38c1 eb11 2070 c33f
000002a0: 44fb 934c 007d cfbf 0fdf 690f f2f5 f83f
000002b0: 51cb 3d0b ae49 ce3f 1902 2ae1 5338 d3bf
000002c0: 3cdd 0902 c42e ccbf 123c bf47 6a73 e7bf
000002d0: 5f34 5934 b6d9 d73f b181 73ad 10dd be3f
000002e0: 570c 2742 02e3 ad3f 6dd0 709e 9392 d23f
000002f0: a9dd c262 e6ec abbf 4a2a e41c ee6c 9cbf
00000300: 3dca b063 a387 d93f bbab 6c66 7049 c2bf
00000310: 19ef c893 5079 fdbf a80b 1d69 f26d dfbf
00000320: 0833 1eca d35a c6bf 345f 25f0 8361 b4bf
00000330: b1d0 5a88 e9b7 e7bf e5df 2614 a78a e43f
00000340: 88e0 583f a348 b0bf e318 fac0 4004 b2bf
00000350: acce 02e4 6b71 b4bf f1f3 902b 7c99 9d3f
00000360: 399b f351 e94e d1bf c950 fc03 72ce cbbf
00000370: 0c9a bccc 8ba7 e23f c3b2 a17b a8c0 8e3f
00000380: 7793 54c1 3c13 b33f cc3f 291f 1492 b3bf
00000390: df49 0ce1 97c3 80bf 70ce 9ebf 75eb c2bf
000003a0: 3044 b787 1750 cebf a35d b275 bd23 ad3f
000003b0: 4559 b49b 9f19 c4bf 1014 fda8 d249 e1bf
000003c0: 5fd5 d884 6af2 d13f b78c a58b b3de ce3f
000003d0: 49b2 efd9 82ee c5bf 607f 2e43 52b3 c9bf
000003e0: dc1a 4a4b 18e3 c3bf b702 38de ee52 d33f
000003f0: 95ff 8233 0985 a2bf 49a9 5e24 a5a7 b7bf
00000400: e53b 2464 2d6b a6bf cba0 ec9c 80b1 c9bf
00000410: 6794 aeb4 51f1 c4bf 9fa9 9de9 4e19 d03f
00000420: 63d7 2dca eba5 d3bf 058a e069 7803 b8bf
00000430: 6957 5bbc 6e25 c8bf af9d 80b9 8e9c c6bf
00000440: 0db4 0523 42e8 c93f d28b 57b2 bb9f d23f
00000450: 2950 abe1 29a9 b73f 9fce e747 45c6 d7bf
00000460: edcb 9986 91b4 d03f 8e7c 176c 8323 b83f
00000470: e0fe a28e 3b2b 6d3f a317 c6ea 85f8 e0bf
00000480: e2c3 5b9b 6ac6 993f cf75 584c 4bf1 a23f
00000490: bbfd 247f 94f6 c4bf 709d c83b e017 fb3f
000004a0: be31 9378 f4f3 d6bf fff0 30a1 3b79 c8bf
000004b0: e6da a6c9 d85e e0bf 0a1d 1055 0087 cbbf
000004c0: 014f f6b0 a34c cd3f c54b d131 607e b63f
000004d0: 6c7e 14d6 ed73 a03f 8863 0d72 2a5a ccbf
000004e0: 77e3 8b21 4265 dc3f 0360 f0ee 45e9 e63f
000004f0: 01f4 56a9 6094 e9bf edeb 9842 9f8a 95bf
00000500: 605d 1f3b ac81 c7bf 776f ab56 0941 4fbf
00000510: 6c16 ea77 8d8e bd3f 76ae 7f0c da8d 9a3f
00000520: 44bc 5c14 9644 ebbf 3a83 194f 50a3 bd3f
00000530: faeb 4135 1081 c8bf ae7a acae 594e b73f
00000540: 229f 13e5 f0f6 75bf f0e7 c3ee caca be3f
00000550: a2ff c1ac 5a26 e73f d7b1 24f1 25f9 c93f
00000560: b9ef 100e 20a5 c83f 870c e6e8 8619 d1bf
00000570: 59ee 592a bd64 ab3f dbef a383 9397 c3bf
00000580: 46fa f528 63c3 e03f 978d 8d3f 8454 d6bf
00000590: 09e8 dd26 c92e f53f 9a2a c36a 0ac9 9f3f
000005a0: fe95 744f d686 39bf 3c8d 37f6 e02e d1bf
000005b0: 5bad 95df a0b6 c4bf 2d63 2a09 ced5 e5bf
000005c0: 12d5 ba98 9fdd d43f 2c88 5dd2 8070 f13f
000005d0: 9316 049b f45a b0bf c04f 8a7c 709b bfbf
000005e0: 28f2 6028 7846 d2bf 8c4e 0d51 96b8 d7bf
000005f0: 2cbf 268d e22a b73f 4648 cfbc ac01 b13f
00000600: e596 cfa9 6ee9 cc3f 6b5f 417d 1796 6cbf
00000610: 5d32 49ce 6dde dcbf d5f9 b626 329a d73f
00000620: e09f 1a9a fe52 7abf b114 a5ad 0492 d4bf
00000630: 3c8d 7e2e 5511 7a3f 24a2 b815 e38c bebf
00000640: c19d a073 038c b73f 5a2d 54bd bfc2 d7bf
00000650: 5c83 25d2 3b60 da3f b38f 24f4 bea5 d9bf
00000660: aedc 115a b378 c33f 223a 6122 4f36 7bbf
00000670: ce98 8423 0bb8 d7bf cdc8 1b12 0c34 c5bf
00000680: 88cf 8ef9 b0c8 c6bf 3ba1 448d a02c e4bf
00000690: 7487 44f1 fd78 cc3f 79f6 6642 ef15 543f
000006a0: e6cb 78a6 79ee 94bf 99a8 5e78 c03e bbbf
000006b0: 57b6 a81a 59bd d5bf 2f3b dc28 5fb8 f33f
000006c0: 7ec0 2b57 005e 5b3f 5acf 6241 7fea bebf
000006d0: 584f cd15 e761 b83f 3ae7 bda5 19a3 8ebf
000006e0: 1bb2 c67d 5bea e73f 5428 937f b87c e43f
000006f0: 82ae 6891 99b1 a63f 645a 1a39 bdb7 bf3f
00000700: e5bc 92b1 1a17 cb3f 331a aeaf daf4 a33f
00000710: 561f 5a49 89ae e73f e2f0 96fb eccb b63f
00000720: 5be5 d8b9 302c b6bf 173f 2d01 a37f efbf
00000730: de6f 8840 2e81 f5bf b7e9 8021 ba62 d33f
00000740: e3a8 8668 88fa a83f 3b69 f1c7 bcdb cfbf
00000750: f7f2 c132 c092 b0bf 610f 80ed bf3d cdbf
00000760: 85ce 4872 4f1e d03f 855e 18ec 465a bb3f
00000770: ca98 74b4 7ab7 e0bf 99d6 1ae4 d951 a63f
00000780: bafd 55b6 be3b c9bf 0cb0 1172 8968 c4bf
00000790: 9524 6ddc f21a cd3f 2b35 077d 918d d1bf
000007a0: d27c 1514 9549 cdbf 4592 5039 a4b8 e3bf
000007b0: 8942 f00f d802 e3bf 0849 75d8 bb08 c4bf
000007c0: 8497 013f 1ec6 a23f 3008 da8a b3a5 d7bf
000007d0: 009b f644 f298 d0bf 61bc 0977 cfb5 e1bf
000007e0: 28a7 95c2 474f 01c0 026a 5eb7 db27 d53f
000007f0: b5bd bb74 9129 c93f c5bd 8dfb 2664 bebf
3.3996528824878043 -0.26922287883976176 1.9247481839360443 0.015336888301250347 1.539032857052205 0.6877995700069272 0.1235383654430415 0.1424223083208151
-0.6426700455005604 0.8185317831069503 0.16129394816406623 0.029730668206503098 -0.6018501601790252 -0.6111441586050803 1.955634414658638 -0.01235922127758901
-0.07131456946529713 -0.04172253848283583 0.05531124232609112 -0.5778761160491817 3.421192857109614 -0.09092976248276548 -0.4948575537527806 0.012285406564141932
0.13362696494292953 0.006440908762930756 0.08772791576894823 2.0743064466596515 -0.14734104771936787 1.6707688384453663 0.2836426531768349 -0.6428499732642052
-0.1384353008763348 0.4846247361772356 4.486912093428729 0.4875611568361743 0.08789842749135576 -0.3173612302918593 -0.8000251061131045 -0.3270437952018688
-0.13237832398143623 0.35349511392844624 -0.13942509036252984 -0.18568141273269384 0.3059373504692508 0.016711278434380236 0.018569671560951902 0.06419853875049857
-0.10024585611465515 -0.22570718351618485 0.20582134739868346 -0.04625807662225936 -0.4675162500537471 -0.07918381512330869 0.6212818100691264 0.1530507313494131
0.35504933609873607 0.14825583557242825 -0.052894889470257236 0.9321792659301078 -0.1258652203741548 -0.1528682226842299 -0.24194770950725453 -0.11525411734866979
-0.15688197445948754 0.7518833048992916 -0.06255718377600421 -0.667915574120586 -0.060948972673950934 1.522153158079045 -0.27770498987983616 -0.08181473555993435
-0.4423818970643309 -0.8298255348008721 0.1282152000790298 0.2167940354516538 1.1719854072255396 1.737603278933387 0.07455172160417077 0.7027811167121465
-0.31965914974582305 0.060299989993203885 -0.2509836244830049 0.15185929179234292 -0.24600223292505963 1.5600452997295553 0.236623530854184 -0.30031296719246964
-0.2201771745637674 -0.7328387643154903 0.3726630698409447 0.1205606864418829 0.05837256486440683 0.29019632790301025 -0.05454177814084044 -0.0277592854627449
0.3989037011662367 -0.14286618233867707 -1.8421178601119605 -0.49108562722192994 -0.17464682930985753 -0.07961296666087209 -0.7412002242258692 0.6419253724661728
-0.06360836311876217 -0.0703773947844613 -0.07985567394899346 0.028905811461516554 -0.2704413700397939 -0.217237712808702 0.582952403904359 0.015015903733194396
0.0745122882841097 -0.0764477325512864 -0.008185564570827473 -0.14781066757642547 -0.23681921126129302 0.05691330014922904 -0.1570319662357155 -0.5402615833814952
0.2804209039053002 0.24117130583463162 -0.1713412822858962 -0.20078495293000298 -0.15536788631671683 0.30193683339170313 -0.03617123369031031 -0.09240181100782253
-0.04378644797736068 -0.20072944319077232 -0.16361447641716895 0.25154469312715294 -0.3070020174412688 -0.09380295357599529 -0.18864235112294672 -0.17665275628790542
0.2024004622466297 0.2909993402119514 0.0924249816847015 -0.3714764787866702 0.26102102417570344 0.09429189099272348 0.003560653994185134 -0.5303372941423173
0.025170961124732723 0.03699717814400182 -0.16377502639987349 1.693329080133335 -0.3586398293962495 -0.19119973536169962 -0.5115779818068773 -0.2150574126573946
0.2289013494561161 0.08786584106682856 0.03213446844369802 -0.22150164193115196 0.4436803176500272 0.7159757296349202 -0.7993624980368851 -0.021036613883762035
-0.18364479910699583 -0.0009537978742985971 0.11545643022153634 0.025931746495116724 -0.8521223447513724 0.11577321940559396 -0.19143869972671707 0.09103928102966094
-0.005362454410011515 0.12028187112073829 0.7234319090057293 0.20291589998795587 0.1925392216379558 -0.26718304389960007 0.053502952022395696 -0.15306323936226715
0.5238509941116909 -0.34890848356573073 1.323922302077792 0.031040346876390325 -0.00038950664698442206 -0.268486252256668 -0.16182337681980638 -0.6823492220893052
0.32602682032605046 1.0899666039845313 -0.06388787064141814 -0.12346556702169575 -0.2855511087725824 -0.3706413070224037 0.09049812265470497 0.06643180474864704
0.22587378779933612 -0.0034895380759216075 -0.4510759844313606 0.3687863710473754 -0.006426806010189495 -0.32141224820618236 0.006364186039636007 -0.1193372657804806
0.09198018620428795 -0.3712615345873097 0.4121236374103796 -0.40074132768699683 0.1521209897798363 -0.0066435900863113535 -0.3706081244330449 -0.16565085300641727
-0.17799961266939257 -0.6304476508276261 0.22244238167428032 0.0012259327428262563 -0.020440960679660856 -0.1064262670394406 -0.3396818886129486 1.232512626276456
0.0016703608823114553 -0.12076564165437045 0.09524387628817743 -0.014959526415384884 0.7473580795827418 0.6402246944137553 0.044323729515181945 0.12389738697161473
0.2116425864273658 0.038977464623759416 0.7400556976944965 0.08904915945362604 -0.08661179101263398 -0.9843306563361435 -1.3440382500475532 0.30290082237084043
0.048786413917086845 -0.24889335406153087 -0.06473923911284972 -0.2284469518345942 0.2518499961908918 0.10684626831095485 -0.5223973774452813 0.04359322461588739
-0.19713577178116087 -0.15944021291522892 0.22738490832333427 -0.27426564416676297 -0.2288080547395795 -0.6162892455509527 -0.59409716713897 -0.15651653355832473
0.0366677715217483 -0.3694886070226202 -0.2593351052732231 -0.5534436535798585 -2.1637110902710397 0.33055775553808087 0.19658106040831816 -0.11871570245215597
