weights/vsself2/vsself558_w.npy (npy, 65152 bytes, 1 tensors)

array f8 [8128]
0	0x3ff650e9cb8f0c4c	1.3947542144312761
1	0xbf605da55bd18e66	-0.0019977788602306033
2	0x3fe157d6327b7edc	0.5419722543701613
3	0xbf3097758eac1ebd	-0.00025316829730613247
4	0xbfa754759482ffc3	-0.04556624830138347
5	0x3fc40f3caa782d30	0.1567149956102667
6	0x3f705daf8b219a39	0.003995595661854306
7	0xbf8159c4d95eed47	-0.008472001918440454
8	0xbfc466a1badc54d9	-0.15938207267814766
9	0x3fc2d6dd389793f7	0.14718213332449157
10	0x3f6e9913cc8cc190	0.003735102338758796
11	0x3f8eaf3b58c161ef	0.014982665678119537
12	0xbfb9e73a7661b613	-0.10118451490571827
13	0xbfc3b23553964259	-0.15387598592180288
14	0x3fd52621c07a92c3	0.3304523830104637
15	0x3f46890ce1d2c74e	0.0006877243901241921
16	0x3f6e5203f54df05e	0.003701217394732877
17	0x3f759eec8d0b7eff	0.005278514887976148
18	0x3f681986a636f516	0.0029418592327760213
19	0xbf6f24ff32ae43d5	-0.0038018211684591554
20	0x3ff67c40bbe7e567	1.4053351726600682
21	0x3f57fb5f1aa2c6a1	0.0014637402296497142
22	0xbfd3305a4c94bdc5	-0.29982621649375246
23	0xbfba12d369efae2a	-0.10184975944837818
24	0x3f86a64a726db533	0.011059362046320053
25	0x3f9593511bbd5b30	0.021069781606765037
26	0x3f84ad64703fd4ba	0.010096344638422006
27	0x3fe1652834a7da21	0.5435982731276604
28	0xbf94b7e31d80687f	-0.020232723880419187
29	0xbfab0db9d0c74ca0	-0.05283909486356575
30	0x3fbd1287ddbafbee	0.11356400645580297
31	0x3fbb3c5859969267	0.10638954341136185
32	0x3faea16545100f83	0.059825100594053125
33	0x3f8b98debc1f83fc	0.013475170246183048
34	0xbfe250d836599ae6	-0.5723687230609726
35	0x3fd3911ce141d713	0.30573198316356914
36	0x3f4899d0d3c63cb5	0.0007507581390643533
37	0xbfa478f495da9b7a	-0.039985316555706654
38	0x3faf1a760d08d010	0.060748757449261004
39	0xbf93e1b0ad594cc8	-0.019415627079365533
40	0xbfa49942171bcaa1	-0.04023176700674936
41	0x3f65507cec3807d5	0.002601856221873237
42	0x3f9ee9142610fa65	0.03018599970186599
43	0x3fab01dd6e4668ac	0.05274860354548258
44	0xbf256bf18fde1357	-0.00016343425516765028
45	0x3f5a45e35dcf321a	0.0016035766959589027
46	0xbf886d2d336b130c	-0.011926987773571728
47	0xbf9ecc57be3449d9	-0.03007638071455596
48	0xbfb4b008a8ae81be	-0.08081106298641935
49	0xbfbac851871cbc9c	-0.10461911724699963
50	0x3f6e0510cfb4d1b9	0.003664524874375821
51	0x3f71c0861e0ad5f5	0.004333995719823393
52	0x3f81f5c94d56149f	0.008769581482520215
53	0xbf963d6c2eae0e53	-0.021718683575740205
54	0x3fa6442bda8aebea	0.04348885576970203
55	0x3f68c0dc80d48fa0	0.0030216509536717534
56	0x3f948bc7358c0056	0.020064461367838092
57	0xbfa3a6747a467309	-0.038379325796290394
58	0xbfbb9cca80cc5568	-0.10786119122015736
59	0xbfb1668bee33346a	-0.06797098699026241
60	0x3f254da8c6334c7b	0.00016253171188526983
61	0x3fa2ce47193ed710	0.036730024177286436
62	0x3fb8b1e380cd0c0b	0.0964643659072381
63	0xbf86d87bf5590aba	-0.011155098366662276
64	0xbfa52e7e54bdbc16	-0.04137034210622674
65	0x3fc61d6ca12f5405	0.17277295942645324
66	0x3f8c7e8d2d619fd7	0.013913252780369518
67	0xbfaa12fe83c9e734	-0.05092616423367105
68	0x3fbde5b83056c772	0.11678649120474718
69	0x3fc0f5e3645ba8a3	0.13250391388220803
70	0xbfcbbac649e80356	-0.21663740738588427
71	0x3f529a1ba7fca411	0.001135375030523859
72	0xbfbaeddfd389e30e	-0.10519217409627066
73	0xbf7ff5e92f59f9ee	-0.007802878264213648
74	0x3f8cf9ba5882ed6f	0.014148193193583151
75	0x3fcb4cdd4748189f	0.2132832143835843
76	0x3fc21f2f88b5d5f9	0.1415767114191764
77	0x3fd29e716835426e	0.29092059303824314
78	0x3f82a369926c39c3	0.009100746899574191
79	0xbfc5ad7c33ae3b02	-0.16935684703317838
80	0xbf7684f4889b0fe4	-0.005497889718473179
81	0x3f9f22a2e442668b	0.03040556448158908
82	0x3fa77cd36e45cbfc	0.04587422104932412
83	0x3f8c5b10ddd83e3f	0.013845569391406019
84	0xbfc398988eb0d9b3	-0.1530943581326035
85	0x3fc75b0af31b7f52	0.1824659049079807
86	0x3fb97b5863cb4400	0.09953834949853047
87	0xbf8f82bb89397059	-0.015386071324592064
88	0x3fac3bbc752f4644	0.05514325075604323
89	0x3f8d50585d2730c4	0.014313402502829205
90	0x3fc9b6c075997e65	0.20088964216391783
91	0x3f54793835fba566	0.0012496041235244503
92	0xbfa2ae49627b01c2	-0.03648595168261039
93	0x3fbb116f87473718	0.10573479702653932
94	0xbf81ddc9fb1d5500	-0.008723810172947655
95	0xbfa09f266c494fe1	-0.03246421882491269
96	0x3f7e2624e6f54e0b	0.007360595845358651
97	0xbf90681a4b27f23b	-0.016022120320473326
98	0x3f931ec14666b998	0.018672008439972382
99	0x3f81b11fbe04fdf7	0.008638618456301634
100	0xbf74837d7a23b422	-0.0050082112740997015
101	0xbf80ce7ae99ae6fd	-0.008206329587995049
102	0xbfa176fed90644c9	-0.03411098860954948
103	0x3fbd2ab097fcad91	0.11393264494534196
104	0xbf951a95c90b0164	-0.020609226604166322
105	0x3f846cf0d8a8137e	0.009973413097222435
106	0xbfa19ee2b7abe36e	-0.03441532604296681
107	0x3fabd44c356813ee	0.05435407783446765
108	0xbfa545410e0d8073	-0.04154399200956584
109	0xbfa88611551c2651	-0.047897855414771436
110	0x3f82c251f9db1540	0.009159698903554614
111	0x3faf3951ff32b6a6	0.060984194185363536
112	0x3f92413e204c2e40	0.01782700607422627
113	0x3f6e6e26767c1f2d	0.003714633105008766
114	0xbf8801e494212e39	-0.011722360392148011
115	0xbf9f330bff5ab7df	-0.03046816583690048
116	0x3f49d2ac9256b7bc	0.0007880537638607003
117	0x3fb0da8a6e71d0c9	0.06583466717148946
118	0x3f7c573527cc3627	0.006919105185045938
119	0xbfb47127af2fb6d5	-0.07985160853396718
120	0x3f72da99e59c9d5e	0.00460300556168333
121	0xbf8fe517d8796f08	-0.015573679250500586
122	0xbfad5f42c1fdb3cd	-0.05736740701727392
123	0xbfbe873db6ff0f68	-0.11925111501392183
124	0xbfb9018c5d69e5cc	-0.09767987518889426
125	0x3f78d04e97a216fe	0.006058032037008719
126	0x3fa9789ecbef4526	0.049748384851805036
127	0x3f932241d66d091b	0.018685368263740103
128	0xbfab56b901c951e7	-0.05339601656729425
129	0xbf9ac4c38d789480	-0.026141219625192225
130	0xbfaf78254d1096e8	-0.061463514001202146
131	0x3fa81cc5a808a73c	0.04709451366609449
132	0x3f785b11ccf85d08	0.005946225675436574
133	0xbf89a674b66d1a3e	-0.01252452069969678
134	0xbfb8f74ac3f6e56e	-0.09752337726867719
135	0xbfb7491ab6dc4aa6	-0.09095923389785784
136	0x3f9127c1b0b34688	0.01675322190278064
137	0x3f68392614c4f4e4	0.0029569381496502446
138	0xbfa9b7548bbb60f9	-0.05022682386123906
139	0xbfb298c46c34949a	-0.07264354364140715
140	0xbf871f5528dd6a22	-0.011290231046293068
141	0x3f837f114968854c	0.009519705822699585
142	0xbf76d16b30db074c	-0.005570810999133102
143	0xbf9e593fd84c4164	-0.029637334419989073
144	0x3f95ba35c87e704f	0.02121814762323054
145	0xbf4163c7d21e887c	-0.0005306935965914274
146	0xbfa98c59be5ad0a7	-0.049898914801276555
147	0x3fc8b186bfe08efc	0.19291767472270027
148	0xbf8a7f99bf665d35	-0.012938691285667584
149	0xbfa4b5b8a60deac8	-0.04044892336874778
150	0xbf8395ee8de9f648	-0.009563316064709629
151	0x3f39baeff5629d3f	0.00039261206019110603
152	0xbf8e947014841637	-0.014931560159776243
153	0x3f9316058be3309b	0.01863869348817158
154	0x3f9dc3bb59769b5c	0.029066970191390026
155	0xbf758754dc6b97f6	-0.005256015289637253
156	0x3fa203618f374866	0.03518204568139609
157	0xbf73bbe0b49f0daa	-0.004817846065580703
158	0x3f68dc14b071129b	0.003034630211489931
159	0xbf805bde894fd9e6	-0.007987726750781254
160	0x3f85ba2a84019088	0.010608989861971688
161	0xbf865ff41f013448	-0.010925204464138485
162	0x3f89611177065b96	0.012392174191331578
163	0xbfb0ef0f53b64541	-0.06614776414632663
164	0xbfba59b0d2f040a0	-0.10293107175698646
165	0x3fa25188619be7b9	0.035778295436059655
166	0xbf93829c0b48bfa8	-0.01905292338250289
167	0xbf9191254576d2a0	-0.017155248989825567
168	0x3fa23fd4f1da9aa2	0.03564324810331711
169	0x3f84f69a60faf6b0	0.010235982975582786
170	0x3fb6b0a25693b0ff	0.0886327229852135
171	0x3f8a130421528401	0.012731582896153172
172	0xbfb25034a263c26b	-0.07153634037582328
173	0xbf9cc0dd60ee9b6e	-0.028079470673812272
174	0xbf8265392aba6055	-0.008982130638557498
175	0xbf61e5bbc0d44a8a	-0.0021847407393889616
176	0x3f9d17f9dbccc132	0.028411773720280205
177	0xbfa0e2e27c1084cb	-0.03298099293193387
178	0x3fbea44b1fae12f0	0.11969441913067747
179	0xbf80a975faa24447	-0.008135720931280356
180	0x3f97500bef06c442	0.022766291107192645
181	0x3fab8c38faa8c3eb	0.05380418834500474
182	0xbf93955dc491a37a	-0.01912447464238507
183	0xbfaef602abe03bef	-0.06047066066832218
184	0x3fb776156aa2f019	0.09164556363515465
185	0x3fb48c987fd1ed9d	0.08027032013517617
186	0x3fac8b29ad288851	0.05574922789334436
187	0x3f9aceb35c94f2c7	0.026179125333544186
188	0x3f957e609c03b44b	0.020989903948180715
189	0xbf91ac2dc5211095	-0.017258372456368482
190	0x3f8eca6d469a71d9	0.015034536091939653
191	0xbf9dd80eaa60c411	-0.029144505642936084
192	0x3fa77d568771a5af	0.0458781280838808
193	0x3f5a5c6a4ac6eb9f	0.0016089475640075135
194	0x3f8a410d251a05ed	0.012819388098480789
195	0x3f9777978cb9e5cc	0.022917144741290404
196	0xbf79b4f97e21a0b0	-0.006276106434690273
197	0xbf9c2c5757aed69a	-0.027512898184531488
198	0x3f8488941dbab6e2	0.010026127965228896
199	0xbf76e44f07234d74	-0.005588825895944328
200	0x3f9bd95af824e013	0.027196332355032448
201	0xbf9781b067216892	-0.022955662054621025
202	0x3f9431d943460eee	0.01972140763383739
203	0xbf9f6983bd64fc5e	-0.030675943789216446
204	0xbf655a7aa8bf5728	-0.0026066203772455894
205	0x3f5dc109ed3f76f1	0.0018160435620226368
206	0x3f7ea528d6569588	0.007481727142850565
207	0xbf8a9bb88d25e7a4	-0.012992326552865148
208	0xbf77f558d7df3592	-0.005849215549415547
209	0xbfb0d6dae5f18cb7	-0.06577842820984157
210	0x3f9ee6774525e61e	0.030176032634221632
211	0x3f52cb6bf759f624	0.001147132335432296
212	0x3fa41bbf1f0c5900	0.03927418951040984
213	0xbf844e4b4e1a1c77	-0.009914959259971419
214	0x3f9ab8794b10f5cd	0.026094336706810318
215	0x3faaf898070d03fd	0.05267787061757898
216	0x3fa578d2ab31ae3b	0.041937430761063564
217	0xbfa0b3e6c20b4d91	-0.03262253874495536
218	0xbf74341aafbc044f	-0.004932502979273569
219	0xbf796cdd3c4f0e78	-0.006207336617936592
220	0x3f9aef8a3aec03fb	0.02630439743643718
221	0x3fb74b5ce8e7dea0	0.09099369703460036
222	0x3fb2cc705dbc51f8	0.07343199051349092
223	0xbf9cfe4b0f10a9e3	-0.02831380156946207
224	0xbfaac50b2c8d1584	-0.05228457373463427
225	0xbfb0d9f6c7a7760f	-0.06582586645478038
226	0x3fb3f06ecbe4cf3e	0.07788746335864702
227	0x3f958a16677ea5d2	0.02103457457238795
228	0x3f6ffe748212afa8	0.003905513338926487
229	0xbfb3a5c49771df69	-0.07674816796668228
230	0xbfc03f69e781ff94	-0.12693523220150082
231	0x3f94a4707045d0c8	0.020158535816748452
232	0xbf8710f3ad42364b	-0.011262801861700164
233	0xbfaa03160f46517a	-0.05080479561289315
234	0xbfb36ec5e4efc6e3	-0.07590901221535833
235	0xbfaf1a70e51f2abd	-0.06074860379120171
236	0x3f845564e18c2a1a	0.009928501256145462
237	0x3f9ac5b137fe96e6	0.026144761126167725
238	0xbf8c2ddb12ccf506	-0.013759337912797164
239	0xbfa1a4ac9c637bb0	-0.03445948990860559
240	0xbfac0ecc4febd554	-0.05480040050125959
241	0xbfaae43cf63302b6	-0.05252256875383436
242	0x3fabbeba835d8a99	0.05418951848584647
243	0x3f8f701d3aa20956	0.015350559570155891
244	0xbfa567f5930b17cb	-0.04180877132380053
245	0xbfb69ab8757a9b3e	-0.08829834812295886
246	0xbfb6e6c02efb094d	-0.0894584765146977
247	0xbf8a5cd17ecdf3e3	-0.012872349436060254
248	0x3f89d50226545139	0.012613312525481578
249	0x3f8bcb7cfc9807f4	0.013571716745904162
250	0xbfa0e8824a42a64d	-0.03302390247820295
251	0xbfb006e918d298d8	-0.06260544639608001
252	0xbfc326f9df975354	-0.1496269551995747
253	0x3fb0920746793f38	0.06472821684405694
254	0x3fb1bf973cc3feb3	0.06932969316039354
255	0xbf91c5cdc8f27097	-0.017356124296029476
