weights/vsself2/vsself784_w.npy (npy, 65152 bytes, 1 tensors)

array f8 [8128]
0	0x3ff7de4164244803	1.4917615806375586
1	0xbf607291b7103735	-0.0020077558515429147
2	0x3fde1c28f39da3ef	0.470468748003042
3	0xbf32bcb0bce70f44	-0.00028590502634194916
4	0xbfb3e71fc9106df3	-0.07774542483132744
5	0x3fbfacd723c619d9	0.12373108504662102
6	0x3f6fcac82cce815b	0.003880873648498246
7	0xbf80ea08860bd3db	-0.00825888308598082
8	0xbfc4f3b2bfa38ac4	-0.16368707997670218
9	0x3fccf101e8e25356	0.22610496398251695
10	0x3f75f11d56f86b06	0.005356897934258203
11	0xbf9738389b104ea4	-0.022675404037797123
12	0xbfc4e38a88eaa771	-0.16319400487310134
13	0xbfce550086810433	-0.23696905677391697
14	0x3fdb3a86e9b372ca	0.42544720480308895
15	0x3f468bbc3eee1229	0.0006880444687885112
16	0x3f6e4db157c2dea6	0.0036991561629198975
17	0x3f793291e3c70e07	0.006151742822513301
18	0x3f655ac3b7c55338	0.0026067564596509406
19	0xbf6a7375181d3f10	-0.003228882503130033
20	0x3ff7e65b721c299e	1.4937395532057063
21	0x3f596973f43d0173	0.0015510208476855164
22	0xbfd75a80bb9b8efe	-0.3648988563638652
23	0xbfc715642e8cb9ec	-0.18034031174597887
24	0x3f9e735677163f98	0.029736853617179898
25	0x3f9e941f798b3920	0.029861919206092158
26	0x3f83f2fc812e13b8	0.00974080342508353
27	0x3fdf24481640c996	0.4865894524874873
28	0xbf97fedb39531422	-0.02343313729649677
29	0xbfc098340415f9eb	-0.12964487266067634
30	0xbfb6d96995994e44	-0.08925495054546057
31	0x3f9d2a097ce76b32	0.028480671165975475
32	0x3f92e5ca5e8a81b0	0.01845470621140216
33	0x3f8c4cc64a2ec544	0.013818310870052593
34	0xbfe0ec39c959d462	-0.5288361485132891
35	0x3fd06d4de8889f6f	0.25667140682570894
36	0x3f4e0e2cd3e27c99	0.0009172171483164015
37	0xbfac098e152edeb8	-0.05476039894659607
38	0xbf5ff59485439f58	-0.0019506407161830799
39	0xbf9ffc2ece262c89	-0.03123543866381032
40	0xbfb062f935adf4b5	-0.06401021538291014
41	0x3f617fbaecfbfc61	0.0021361018078774195
42	0x3f77f9f45e43efa8	0.005853609622359736
43	0xbfa3db8752e8a73d	-0.03878424536772094
44	0x3f9a642526770196	0.025772648308476663
45	0x3f5e372447781124	0.0018442014969660215
46	0xbf9c88047543282b	-0.027862615258335815
47	0xbf916a1a0d3ac4b7	-0.017006308610409273
48	0xbfb5c576b47171c6	-0.08504430680608896
49	0xbfc0e3fb2958dd3e	-0.1319574310198081
50	0x3f6f18742d2dc9fc	0.00379584017485368
51	0xbf6067b9ef04320d	-0.002002585555720643
52	0x3f505cb95d1de64c	0.0009986696427105755
53	0xbfa1ea4d87b9e907	-0.034990713899747
54	0x3fafc2e97e6c7dad	0.06203393619784534
55	0x3f749fe15ad05598	0.005035286228140555
56	0x3f94c26ce1b0cf7f	0.02027292373186595
57	0xbfb20e80cc72c715	-0.07053380004324723
58	0xbfcff1c38dbb10b2	-0.24956554813809856
59	0xbfb77459ae648f84	-0.09161911494862635
60	0x3f34f259ea7c30fc	0.00031962104047590623
61	0x3fa5d69c081e5b83	0.04265296553710753
62	0x3fc3aae20c899925	0.15365243541891363
63	0xbf6b3ff45e1e71bc	-0.0033263943486885033
64	0xbfad4fe1c3586aca	-0.0572500754317012
65	0x3fc4c0f40dc52679	0.1621384684788614
66	0x3f8dde0a321ae18e	0.014583663610537891
67	0xbfaf4d2724035180	-0.06113550486193997
68	0x3fc12c6b533535d5	0.13416806757815772
69	0xbfb600a2a5abe75f	-0.0859471945258554
70	0xbfcdaa8d2af19141	-0.23176731678825926
71	0x3f558153d475c239	0.0013125723506527533
72	0xbfba43d6cd4910dd	-0.1025976420579044
73	0x3f828907049440fc	0.009050421550029324
74	0x3fc55e2c8e43d32d	0.16693646379976582
75	0x3fd129d6c38038c0	0.26817864505654754
76	0x3fb0cc785d69cb53	0.0656199672755922
77	0x3fd3b5f62aafd02c	0.3079810540068617
78	0x3f8048dd0897fd19	0.007951475929984174
79	0xbfc6d387cbefbf80	-0.17833039720380484
80	0xbf823a210438bc1d	-0.008899934712728147
81	0x3f8cb0ce138d9437	0.01400910374804641
82	0xbf829350a06a35c7	-0.009070043464158751
83	0x3f8846cb7213971f	0.011853780192221884
84	0xbfc9bf04d61431db	-0.20114193394728272
85	0x3fc84944dc7f3ba3	0.18973599211173306
86	0x3fb3cad3c7d16f44	0.07731364849445038
87	0xbf9aad4275e9b832	-0.02605155796702991
88	0x3f9368902119413f	0.018953563709432016
89	0x3f6f60b768208c06	0.0038302976763744416
90	0x3fc1021dadaad6ba	0.1328770730958036
91	0x3f5ff998e2adffaf	0.0019515984556335122
92	0x3f87cf3ade5e8d08	0.011625728522466364
93	0x3fa5bfba15ef3238	0.04247838514092844
94	0xbfa2de5fd22b3b89	-0.036852831273441806
95	0xbfb35cacb259c2ba	-0.07563285211814277
96	0x3f7ffa912deb5565	0.00780731878940819
97	0xbfa9a887ac8a07b8	-0.05011390668097654
98	0xbfa31b0720bd678a	-0.037315581080021934
99	0xbfa60acd3f363807	-0.043051160780223134
100	0xbf8e7e6d964ffd22	-0.014889579915687682
101	0x3f99555be62c59a8	0.024739681171092848
102	0xbf6e600330fc8b31	-0.0037078916865466373
103	0x3fb2e5f47984b541	0.07382133452184282
104	0xbf84fd78451253a4	-0.010249080284021002
105	0x3f8517fdbd6e2371	0.010299665778590957
106	0xbfa2d503c71a9ed5	-0.03678142362087803
107	0x3facefc9392eebf2	0.05651692221677952
108	0xbfaa15ce01ed4fe2	-0.05094760678790046
109	0xbfb16bf341190912	-0.06805343951512935
110	0x3f82635354dd6bae	0.008978510882732351
111	0x3fadefa5043f1bdf	0.0584689681705226
112	0xbf8194a3bdc3e7af	-0.008584288815189326
113	0xbf9fade7f12bc9bb	-0.030936836333191425
114	0xbfa18efc746171c7	-0.03429402275716913
115	0xbf9010772a8be4a7	-0.01568781087096185
116	0x3fb23bc0c506ae33	0.07122425852019702
117	0x3fb5c05197011109	0.08496580063462401
118	0xbf9f1d1ee4a28dfa	-0.030384524063846265
119	0xbfb396ad1daceab0	-0.07651788687227667
120	0x3f738521e0f1710c	0.004765636767015257
121	0xbf93ddf4142d8417	-0.019401372653536777
122	0xbfa945a619001bd6	-0.0493595033186051
123	0xbfbddb2aa5f06501	-0.11662546683546184
124	0xbfbad6b65c0936d1	-0.10483875033352354
125	0x3f785347066060d2	0.0059387945566628676
126	0x3fa7a149529c69d0	0.04615239270625049
127	0xbf8e98785566f80e	-0.014939251047390936
128	0xbfb11cb0def7af18	-0.06684403842490061
129	0xbfa161fd4b186409	-0.03395072499933611
130	0xbfaf8e6cbf0121bb	-0.061633489910096505
131	0x3fad345e54d7b6ee	0.057040164810912106
132	0x3f766619a5598757	0.0054684640686860275
133	0xbf9018121d0b8b2b	-0.015716822645923372
134	0xbfb84da0fbd53dd3	-0.09493452213541013
135	0xbfb3d464ee875144	-0.07745962928249123
136	0x3f920cae198f7a64	0.017626495657049893
137	0xbf414ec4b7c2aa4c	-0.0005281887565805137
138	0xbfa13db8e5c78a1c	-0.03367402844357434
139	0xbfaf1cc4131eec9e	-0.06076634152801684
140	0x3fac51ef96b89b3e	0.05531262125832946
141	0x3f8504f95fc4f442	0.01026339362635487
142	0xbf969fda942e7f7b	-0.022094168943680863
143	0xbf8b122bc7c19bd0	-0.013218252214029308
144	0x3f83333fc6fac00f	0.009375093707916475
145	0xbf95d59a8e38765a	-0.02132264607472787
146	0xbfc540e2c05295bb	-0.16604265585662667
147	0x3fd3854aff740778	0.3050105566654717
148	0x3f966567e3a49b96	0.02187120749399759
149	0x3f81017dfba1b407	0.008303627244652402
150	0xbf7012471bb65887	-0.003923681036573374
151	0xbfa925a79ae4c890	-0.04911540761749322
152	0xbf8349cee6302adb	-0.009418121719155284
153	0x3f93d0b1423b22a2	0.01935078589193274
154	0x3f907920680e21f7	0.01608706126310896
155	0x3f80b221f9f4738e	0.008152261200445012
156	0x3fb65e13c5394f4e	0.08737300457988548
157	0x3faa37e8203b6a41	0.05120778459032183
158	0x3f69b9d4f4cb35c0	0.0031403693486484474
159	0xbf52ca59f349a706	-0.0011468771382631706
160	0x3f8377d3786e3eab	0.009505893814803676
161	0xbf7761e7aeefbd4f	-0.005708603871411213
162	0xbf6745d72c15148d	-0.002840919740864373
163	0xbfc1b134c32b6eae	-0.13822040109413564
164	0x3fb2b37e8e6e8cb6	0.07305136658992492
165	0x3f8cdd10ca0535e9	0.01409352413670724
166	0x3f50a542278be910	0.0010159631767111023
167	0xbf911e4fbd6ecda5	-0.01671719163614473
168	0x3f9893b7a068966c	0.02400099674755156
169	0x3f8ed46e677d9aff	0.015053617985996135
170	0x3fb721da481d9e1e	0.09036030064236697
171	0x3f8c6a3ade368cb3	0.01387449255600468
172	0x3faa27f627cfd618	0.05108613239273668
173	0xbf7a247b0dc44be4	-0.006382446936430395
174	0xbf899b2d03279f4b	-0.012503005656028817
175	0x3f7560ece3910d4a	0.00521938833941544
176	0x3f9debad7e0939d9	0.029219351594571428
177	0xbfa194149805f398	-0.03433288913490812
178	0x3fc190f5f200990d	0.13723635021705896
179	0xbf83a64426557176	-0.009594471378186791
180	0x3f62b59ffaf25978	0.0022838711370908836
181	0xbf6c1585e1aa08f9	-0.0034282317040502633
182	0x3f9ebd7b8c452a26	0.030019693790828715
183	0xbfb2b3ebef29df4a	-0.07305788601831611
184	0x3fa42d62e91df04a	0.03940877051988474
185	0x3f6bd709321aa10c	0.00339843555487474
186	0x3fa9405030f0183d	0.04931879613290888
187	0xbf6de1caf4c99d95	-0.0036477054584797644
188	0x3fa4f0e240aa333e	0.04090029754033829
189	0xbfb4c75749b9a439	-0.0811667017930099
190	0x3f9083ac6bc82823	0.016127294615252318
191	0xbf9519a1e1f92532	-0.02060559217196562
192	0x3f68e52a920d03e3	0.0030389625029845087
193	0xbf99d2cd5e130662	-0.025218209139671884
194	0xbf9d66af09ea8fb4	-0.028712019901504696
195	0x3f983b9e87c4f9d4	0.02366492942496186
196	0xbf92c59515082c4d	-0.018331841858565224
197	0xbfa9fac6490ade75	-0.050741382995906394
198	0xbf95ee3798ed4d45	-0.02141653891460506
199	0xbf8c595d561c0560	-0.013842324438430864
200	0x3f9d0c4dc2807c35	0.028367247578099792
201	0x3f9230e8cc823a30	0.017764699442120058
202	0x3f8855c3852ac949	0.01188233137267915
203	0xbfb06ce131fe3371	-0.06416137190372041
204	0xbf9d35639e8b306a	-0.02852397589849468
205	0x3f8a34fad934cefa	0.012796363595590322
206	0x3f524c415b145858	0.0011168134918242614
207	0xbf8f46c56829acf3	-0.015271703950210802
208	0xbfa66ab27f12eb18	-0.043782785427046444
209	0xbfb828f7b723b57e	-0.09437511655024441
210	0x3fa084532e405397	0.0322595590552403
211	0x3f9acb2b8eac49db	0.02616565759951493
212	0x3fb17da04cc0140d	0.0683231532457997
213	0xbf956c714edf3e79	-0.020921488226859773
214	0x3fa69e42c90e22ee	0.044176184695123286
215	0x3facfd7973376b09	0.05662135631037841
216	0x3fa89a0e0abcdc05	0.04805034524036248
217	0xbfa5e08ef70c9944	-0.04272887006509277
218	0xbf80fe950cbc9ad6	-0.008298077059931169
219	0xbf7bbb843038142d	-0.006770626412167008
220	0x3fb346b2809d4bc6	0.07529750480652728
221	0x3fbbed565efdf388	0.10909023112431104
222	0x3fa23f1a307bad7a	0.03563768236002836
223	0xbfb34f381f17cf2a	-0.07542753943544925
224	0xbfaea8c6b9579537	-0.05988141071774538
225	0xbfa552a9dabf134e	-0.041646297409477215
226	0x3fa1da2ea341821e	0.034867722920129504
227	0x3fa56b4bfd7e6802	0.04183423489958217
228	0xbfa1529de9539aa9	-0.033833441478966116
229	0xbfb9d8990d02347e	-0.10096127097695448
230	0xbfbcbdf1023b0a86	-0.11227327637156223
231	0x3f9486d77f42b3dd	0.020045630590789777
232	0xbf8237ab0769ce9a	-0.008895240939842442
233	0xbfa643c8cfd8759e	-0.043485904094477265
234	0xbfb3fec03e124ecd	-0.07810594096582264
235	0xbfb23fc346d2acbb	-0.0712854431064213
236	0x3f84b06d0b642dfb	0.010102130804191303
237	0x3f9c72aaf81eb6fe	0.02778117312816785
238	0xbf9310072adbe0b8	-0.01861582945909454
239	0xbfa5c7b7e4a63958	-0.042539354954999
240	0xbfaee959290bd23d	-0.06037405611087763
241	0xbfb07b5590d984b4	-0.0643819311749379
242	0x3fb185a3d87cbcec	0.06844543490727845
243	0x3f9433161f574c18	0.019726129210379723
244	0xbfaa03272afa367c	-0.05080530547739401
245	0xbfb7404197e041a2	-0.09082422216329758
246	0xbfb680845c35d289	-0.08789851428248076
247	0xbf92a0b17ec003c6	-0.018191121445855683
248	0x3f88547cf03f4600	0.011879898149262935
249	0x3f869869a19cf2a9	0.01103289150670979
250	0xbfa248ac3bade515	-0.035710699353282895
251	0xbfb13e9442d66a64	-0.06736113197113408
252	0xbfc338560df9ecf0	-0.15015674288211
253	0x3fb10af3d531584e	0.06657337145711148
254	0x3fabfaeaec9bb04d	0.054648724921066184
255	0xbf6515472d8e22d8	-0.002573622722085705
