weights/weights_13/reinforce_1_w.npy (npy, 65152 bytes, 1 tensors)

array f8 [8128]
0.04108086763458151 0.0003122647272549913 0.017677097508766535 8.294890440888985e-05 -0.00034929451847412176 0.0027792827797755125 0.0006668621623551629 -0.00015674279994816817
-0.0001672451489562799 0.009317870081335911 -9.021911227472505e-05 6.145332696035817e-05 0.0002681991046811747 -2.6383390313537124e-05 0.01356922055055734 -0.00022649617049103136
0.00019210016635055728 2.2356666231742965e-05 5.99472431905473e-05 0.00024464581267084147 0.059134312568681645 -3.307118643878642e-05 -0.00017995551110466118 0.00039408951572990743
0.00011564901723636487 0.00015798306179361937 0.00048417752563528326 0.023796193450463785 4.908265136427652e-06 -0.00024654411288492094 -0.0004966740238725949 0.0005090932829927378
-0.0001439903107808971 -6.163624709700999e-05 -0.00011543058856715524 -0.0002063134934900783 0.00031924054603659825 -0.00015048992900481168 -0.0005562400909791402 -0.0005099562553396249
-1.6806614697684587e-05 0.00036190556547891417 0.0005950569345772713 2.8763179494248792e-05 0.0031891954514935883 0.00012728946773251967 0.0005929693909631221 8.737031232520555e-06
-0.00028117919800921563 0.0007884095503784964 0.0008045409479053793 -0.00014280572453017208 -2.5614291801591417e-05 -0.00012680195070760052 -0.0018330383807058535 4.002776173737869e-05
-0.0003188478574848204 -3.877841998619364e-06 -0.0005301533699393612 -0.0004992272201080223 0.0007089891609380055 8.284250479333275e-06 -0.000132818960511467 -0.0003544550970923469
0.0002426439340322542 0.0027760687922327295 -0.00014904903187160274 0.0008782043081791606 -0.00015738028622766683 0.0007441644822577581 -3.0052304266138573e-05 -0.0003490412797482558
0.0005279092636530711 0.0004151119866585057 0.0004432939426712375 8.063668856329348e-05 -0.0001754257592216302 0.03248846078152819 -0.00012622796380848292 0.0004128700005389411
0.00022584922578159917 0.00038805685392871757 9.244948303105775e-06 0.00012341932675888324 6.30241837349702e-05 -0.000809095090329919 -0.00039146688109027434 0.0003616847542661755
0.0002391911725285112 0.0001477271039948159 -0.0018534643576612196 0.00034057168219076673 -0.0013335390818281548 9.605378957126313e-06 0.0005670585280000822 0.0002903689716242281
-0.0002657906791810273 -0.00021181810962299586 -0.0007983938518150934 -0.00047227564815308787 0.0004115983930110024 0.0005415817452028331 0.0003104947680746861 -0.00265305746266797
-0.0022085017817484306 0.0006406932454054061 -0.00035561520485603436 4.141583146861509e-05 -0.00040122876960432786 0.00012613826576255072 0.0004933351994689875 0.0005289859948129784
0.0001736479953760364 0.0009351985855227341 -0.0004021108284207753 0.00098238202407412 -1.851911556175899e-05 -0.0010771901545431719 0.0009400290849524181 -0.011410252628088766
-0.0006826957240446183 -0.00032409663241007636 0.0009177939590064522 0.0013081540115789099 0.000243482697970585 -0.0006067729168232428 -9.030634752473932e-05 -0.000599978808158558
0.0003576645317437966 -0.0002522631561207747 0.001674880385333521 -0.00011133198738297286 -0.0015387372567078066 -0.0006054190091315723 0.0005055587077557119 -0.003786455841910989
0.00014585454160959236 0.0001540338027754878 0.0006052020180900121 0.0003080326478067548 0.00044104022126309885 0.00030838005367465264 0.0002071095949042485 -0.0003515580599164769
0.001134267747636217 0.0007466095533551923 -0.0002802400765029072 0.0003556036961904534 -0.0004027540855605212 4.0926385740245675e-05 0.00037424574433528464 0.0015305918713752222
-0.0024030256369870677 0.0007332089910805134 -0.00027533702184526774 -9.362114411166076e-05 9.554617327219546e-05 1.1379080563946445e-05 -0.0002162031227310314 -1.8437166916663664e-05
0.00047743933125355006 3.785708324670575e-05 0.0015826173344344334 0.0003915885310418392 -0.0002989145600362775 0.0001730936776055674 0.002234251368656656 0.00019415979843549904
0.000451796294567618 -0.0005515313815718969 0.02719464964895733 0.001149675225613136 0.0010625342925756614 0.00017889230678383173 4.404437342567309e-05 -0.0002017913184055594
0.0005679269496078691 0.0010442912487637003 -0.0011783701062924804 0.0005778958914896047 0.00022240646322258504 -0.00028439334375952586 -0.0021758093806409622 0.0014949555740233504
-9.367754199367458e-05 0.00011237909223180562 -0.0003324304486222734 -0.0003143808287571364 -0.0030921328358012186 0.013583363008845996 0.00038679349558370317 0.00016145886180011089
0.0002601685086376094 0.0007277652109401809 0.00033074016671343716 0.0007190479666898042 0.0009994984946097329 -0.0007258768872879357 9.381962519542846e-05 0.00019598203286409551
0.0005573924760640398 0.0006617274297599224 -0.001698375531421001 -0.002819786173797147 0.0009901968680536516 -0.00014526840968087716 -0.0007548790711582821 -0.0004373892884297264
-0.0033587911893807002 0.003271672600541125 -0.00029350601980512956 -0.00041019054314985853 2.0657053696650088e-05 0.000298433350465279 0.0002942651710960614 0.0008579612849502345
0.000664222609893343 0.000526322124068959 0.0005119466408308649 -0.00039285848311586914 0.0003680712042916049 0.0005324104937929294 -0.00026928503896947556 -0.0005524728920161028
0.0003858925075063889 -0.0020980868433597716 -0.0009085523324046009 -0.0013405114569839485 -0.00024167405138884472 0.0015676153222291178 -0.016815142046343323 -0.0003637342832980978
-0.0003217639381176356 0.0003217590943299344 -0.0007138394299762775 0.0007346904121133273 0.0013358450311184878 -0.0007228366787005784 -0.0010079286604416247 -0.0005485705907902343
0.0018909027795504742 0.0005973237736540552 -0.00018134447143326775 -0.0011509166018558222 -0.0004954568733647656 -0.0011546396513734502 -0.0006154956409080883 -0.0008555902515319507
-0.0005234114006537812 -0.0007528466671067879 -0.0020464003922876736 -0.0023943517336779256 -0.015509281453352185 0.0009944466506664523 0.0003988978170893538 -4.2832036530943864e-05
00000000: bfb2 f62d 8d08 a53f 74a8 8fca ee76 343f
00000010: 39e0 c0ee f119 923f b4aa a253 9bbe 153f
00000020: c9a9 9488 30e4 36bf 78b4 a714 94c4 663f
00000030: 8f11 d196 0bda 453f 82f2 3966 6a8b 24bf
00000040: cfe0 eee3 d0eb 25bf 8d47 245a 3f15 833f
00000050: 8489 f98b 80a6 17bf 2ad6 3b1e 101c 103f
00000060: d3f3 2762 a293 313f efd0 e0c6 3caa fbbe
00000070: 0e8f f9f3 2dca 8b3f 1a08 344a f3af 2dbf
00000080: c345 33dd cf2d 293f 3086 ae67 5271 f73e
00000090: 2d6b 8797 fb6d 0f3f 76e2 b7c3 7908 303f
000000a0: a39c 1b45 da46 ae3f 9935 4550 bd56 01bf
000000b0: 0447 e211 4e96 27bf 49fd ed94 b9d3 393f
000000c0: 3edd c4fc 1251 1e3f 0413 de2a 08b5 243f
000000d0: b003 58a3 26bb 3f3f 3c5e 8e82 075e 983f
000000e0: 00ce bda5 3596 d43e b66e e0e6 5228 30bf
000000f0: c929 3b58 6746 40bf 55f7 2280 95ae 403f
00000100: ec39 fb59 83df 22bf 0aa7 80a9 5628 10bf
00000110: a28c 5269 6a42 1ebf 806d 1e6a bb0a 2bbf
00000120: a4bf 6cb4 f7eb 343f a2a2 9ba5 9ab9 23bf
00000130: 7ef1 ee7f 143a 42bf 4e96 33b8 d2b5 40bf
00000140: 10da 89c4 7d9f f1be 58a2 6691 c4b7 373f
00000150: 6ed3 6009 b37f 433f 204a e4a4 0e29 fe3e
00000160: 695c 4545 3a20 6a3f a90b bb33 20af 203f
00000170: 03bd 2312 306e 433f 3a35 d66d a852 e23e
00000180: 372a b375 676d 32bf 7e9f 0b9e a8d5 493f
00000190: c637 9f87 fa5c 4a3f 9d8e 44d5 c3b7 22bf
000001a0: 9a01 c5ba c8db fabe 4193 7476 c49e 20bf
000001b0: ccba 6ff9 5108 5ebf 8277 b66b 6ffc 043f
000001c0: 4ac8 cb1e 61e5 34bf 70ef 8f17 cd43 d0be
000001d0: f560 60b1 3f5f 41bf 959d b44a d25b 40bf
000001e0: fa90 35a1 6e3b 473f d389 57b7 925f e13e
000001f0: be65 f12e aa68 21bf aa0a c70c c53a 37bf
00000200: e16b c185 c7cd 2f3f 5e1c 9295 d6bd 663f
00000210: 449c 4d6f 4189 23bf a8f6 3364 e9c6 4c3f
00000220: 3c4c 615d cea0 24bf 2e33 9c0e 8162 483f
00000230: 409b b69f 1a83 ffbe a732 a8e1 f0df 36bf
00000240: 3b0b e682 6c4c 413f 5c04 2968 6c34 3b3f
00000250: 885c 7dfc 3c0d 3d3f 8382 cdc2 6f23 153f
00000260: 0bb7 26cc 4ffe 26bf 6bab 1bd9 53a2 a03f
00000270: d873 eaf3 818b 20bf 1b3a 5a26 cf0e 3b3f
00000280: 9afd bd13 3e9a 2d3f 08ff 217f 836e 393f
00000290: 74da 0905 5863 e33e f833 baf1 432d 203f
000002a0: 0e09 643b 7b85 103f f8a8 e579 2e83 4abf
000002b0: cce0 a573 b9a7 39bf ccab e730 10b4 373f
000002c0: e2b6 e986 ec59 2f3f 6af2 2829 e65c 233f
000002d0: 42ae 3a33 fe5d 5ebf 7bf4 a83c d851 363f
000002e0: 1615 a4af 44d9 55bf 0822 483b d924 e43e
000002f0: 7533 95ea d494 423f 3f6d a53c 9507 333f
00000300: 9c63 5046 3a6b 31bf 4e0e 02b5 6fc3 2bbf
00000310: ccca cebd 6929 4abf 7fe6 a876 78f3 3ebf
00000320: 53ea 16a3 79f9 3a3f 23f1 1ef1 1dbf 413f
00000330: 529a dcdf 3c59 343f f78f 2b61 ddbb 65bf
00000340: 9ee2 9f5d 9017 62bf a594 9444 86fe 443f
00000350: b4ce c0ac 3b4e 37bf a8a5 3022 bdb6 053f
00000360: fa05 9471 804b 3abf 4aac d373 7f88 203f
00000370: 408a 1a46 652a 403f 861f 1dc6 7455 413f
00000380: d6a4 1cec a8c2 263f cdec 87ab 03a5 4e3f
00000390: 1fd7 80db 4c5a 3abf b9ce 98aa 6818 503f
000003a0: 402b 57ee 2f6b f3be 2fbf 0f1f 10a6 51bf
000003b0: 1c29 ad16 89cd 4e3f e58f 032f 425e 87bf
000003c0: 31f6 68e7 dd5e 46bf d7a0 db6f 703d 35bf
000003d0: ce42 ea84 0313 4e3f fec7 a9ac cb6e 553f
000003e0: ab6f 2973 ece9 2f3f 52bd bbea fae1 43bf
000003f0: d166 a93c 5bac 17bf 9ca8 fead fca8 43bf
00000400: 16d0 7e77 9d70 373f 380d 6a01 4688 30bf
00000410: cbb8 b31e f570 5b3f e517 affa 5c2f 1dbf
00000420: 82e9 758c ee35 59bf b6bf 1b6c 9fd6 43bf
00000430: 45b4 d90e ef90 403f 56ba 4700 c604 6fbf
00000440: 2668 edf8 101e 233f b7c4 714a 8430 243f
00000450: 6890 0570 cdd4 433f 2c87 ff25 ee2f 343f
00000460: 4a7e 9853 6de7 3c3f 8c1a ca3e c235 343f
00000470: 1874 a4df 7125 2b3f 0a6f b75e 2a0a 37bf
00000480: 5b63 62b8 7695 523f 924d a9ce 0377 483f
00000490: 5b0c aff6 a55d 32bf 5a6e d73e 0a4e 373f
000004a0: ee44 35a0 1765 3abf 20b2 08e8 0b75 053f
000004b0: 1cd6 8a3b cd86 383f 0b37 fd81 c413 593f
000004c0: 6ac1 b690 82af 63bf 2e37 a451 9a06 483f
000004d0: 667a 1381 630b 32bf 98d1 3902 cf8a 18bf
000004e0: 8655 02c2 fe0b 193f 5437 97ec 18dd e73e
000004f0: f1f9 ceae 9256 2cbf 74a7 8776 3055 f3be
00000500: 1c58 4550 1a4a 3f3f 5499 c979 17d9 033f
00000510: 02f4 616c faed 593f 6429 2fef c3a9 393f
00000520: ecaf 7842 f496 33bf e893 715e 0fb0 263f
00000530: 46cc e691 904d 623f 368e 0df8 eb72 293f
00000540: 8661 434f e29b 3d3f a392 8f9f 9412 42bf
00000550: db4a 790b ead8 9b3f a491 ae5f 16d6 523f
00000560: 7d40 6682 9768 513f 9e63 db36 a172 273f
00000570: 6cd0 c125 8917 073f 1c3c f139 fe72 2abf
00000580: 4b1d 69d6 1d9c 423f e239 b330 131c 513f
00000590: 634d 6c44 714e 53bf 321c 2bfa bdef 423f
000005a0: c4c0 cff8 b826 2d3f cd60 531c 54a3 32bf
000005b0: bcd7 3ac4 00d3 61bf 076c 2953 4c7e 583f
000005c0: 99ec bbea 978e 18bf 3ed9 821a a275 1d3f
000005d0: 09de afe7 41c9 35bf 13b1 c460 6f9a 34bf
000005e0: e3ec f22c ac54 69bf 813a 241f 98d1 8b3f
000005f0: 8e41 f169 5159 393f 9ad4 e90f a929 253f
00000600: 019e 6d3c e70c 313f 461b dce3 efd8 473f
00000610: 76f1 1233 e6ac 353f b8ed 26c0 cf8f 473f
00000620: 0f27 3156 3360 503f 6c16 f4be 18c9 47bf
00000630: f58a 43e3 2098 183f b141 f0d7 10b0 293f
00000640: 0669 553a bf43 423f fb3c b8d5 f8ae 453f
00000650: 272b 48d7 80d3 5bbf 9ed2 bd2c 8519 67bf
00000660: 6e97 8dca 2f39 503f 1870 2f23 660a 23bf
00000670: ced1 2676 62bc 48bf 653f 7eb0 2caa 3cbf
00000680: 74dc ff49 e583 6bbf 8b46 52da 31cd 6a3f
00000690: 1016 99c1 363c 33bf ab09 ccf7 dae1 3abf
000006a0: 40ce c2eb 15a9 f53e bfe5 f37a e18e 333f
000006b0: 6605 4549 f348 333f 8101 7ed4 191d 4c3f
000006c0: be35 8131 e7c3 453f 7e4e af27 1c3f 413f
000006d0: af7b 320a 85c6 403f 779f 4156 12bf 39bf
000006e0: b4d7 f7c8 351f 383f d46f 56d4 2e72 413f
000006f0: 1376 886f daa5 31bf 2bc0 6680 7a1a 42bf
00000700: 6e2d 13b3 334a 393f 0474 0bcc 0130 61bf
00000710: a5ff f546 7dc5 4dbf 2abb 8737 83f6 55bf
00000720: 6a7d 444b 3cad 2fbf 57ed aa22 0eaf 593f
00000730: 70a3 aa14 fd37 91bf 0133 e8d9 72d6 37bf
00000740: 8dfd 5b97 4d16 35bf c6f5 8ec9 3816 353f
00000750: 3fdc cf80 1e64 47bf 0e92 77a5 0713 483f
00000760: cdc7 27ae f0e2 553f 376d 9bf2 97af 47bf
00000770: c7f3 8728 8f83 50bf 7f6a 9d5f bef9 41bf
00000780: 6705 4766 05fb 5e3f 88ff 5609 b792 433f
00000790: 0e92 f225 e9c4 27bf 98d1 954a 4bdb 52bf
000007a0: adbd a988 313c 40bf aee2 a4e2 e8ea 52bf
000007b0: a60e 03d3 262b 44bf fae8 1513 3609 4cbf
000007c0: b58e 906c b126 41bf 004a 35e8 55ab 48bf
000007d0: 35fb 4cd8 9cc3 60bf 9d43 85cc 519d 63bf
000007e0: 864a 0385 54c3 8fbf 1715 e7f5 024b 503f
000007f0: 4a28 2f14 6524 3a3f 9e23 a891 d174 06bf
