weights/vsself3/vsself886_w.npy (npy, 65152 bytes, 1 tensors)

array f8 [8128]
0	0x3ff83e192e0dfdef	1.5151607321748732
1	0xbf5fde6bf4957724	-0.0019451193096168906
2	0x3fe16dca93f0983b	0.5446522607278504
3	0xbf449e92e41ff1b6	-0.0006292550317535315
4	0xbfc256c62f8c315f	-0.14327313729917088
5	0x3fb7e31238a240c3	0.09330858118687772
6	0x3f702840d0a49fe2	0.003944638427391541
7	0xbfb0cc4ca552e664	-0.06561736141420621
8	0xbfcdac4307b06884	-0.23181951404041368
9	0x3fc42ededd7d24ed	0.15768037619481082
10	0x3f76698624c89c6f	0.005471729277395017
11	0xbfa3ff3f11ebcd14	-0.039056750238069565
12	0xbfc6893a18263223	-0.17606283358726768
13	0xbfd3d4fc7668cd32	-0.3098746448842632
14	0x3fd7f907e8f66ca7	0.37457463979962785
15	0x3f468c54287d480a	0.0006881152084849973
16	0x3f6c07527c5fdf6e	0.003421460251953271
17	0x3f795c42552368df	0.006191500770194674
18	0x3f647e2a9846e585	0.0025015670709904203
19	0xbf69d8981d4937b5	-0.0031550379738182984
20	0x3ff87416e7169e60	1.5283421542061646
21	0x3f59e5020fd99661	0.0015804786811711923
22	0xbfd84ba76fb57c95	-0.3796175566585103
23	0xbfd3e69f1f1fe540	-0.31095102347861214
24	0x3f6e79a0ece5bc41	0.003720106418021924
25	0x3f944ad15ae4aeb3	0.01981665723103161
26	0x3f8402d67225b55e	0.009771037443636995
27	0x3fdd7bd58efed48a	0.4606832405509712
28	0xbf9a22f6941fbbc4	-0.025523999014634105
29	0xbfc3f5a4d86b6a87	-0.15593395774233818
30	0xbf9c6b084e1640a1	-0.0277520463619686
31	0xbf97bb46101bf3fa	-0.023175329907633803
32	0xbf9465a22be4fa1e	-0.019918950966934294
33	0x3f8c8f4cf9d393b9	0.013945199369524862
34	0xbfe084b03a71b771	-0.5161973134506593
35	0x3fce16fe30457a09	0.23507668835641507
36	0x3f516f430dbb9c36	0.0010641245671025984
37	0xbfb0662fadb1bc3b	-0.06405923834403009
38	0x3fb0c5cd43c0ba54	0.06551821617242953
39	0xbfb5290d7710212e	-0.08265766293346097
40	0xbfb5f67b79611893	-0.08579227174149855
41	0x3f5e20426cc225a3	0.0018387459449818809
42	0x3f46ab23c60b1e72	0.000691788165647146
43	0xbf9f6ab0c54265e9	-0.030680429496532744
44	0xbf8d9a65c45df1c4	-0.014454646163124425
45	0x3f5d3f511d754738	0.0017851154460299511
46	0xbfa1177ec3b7f400	-0.03338237895147955
47	0xbf99881a3049dc2f	-0.024933251569077605
48	0xbfb7f81f190cefbd	-0.09362978326401979
49	0xbfc53ec87e6f35ef	-0.1659784905772734
50	0x3f6ca2f7ba03d465	0.003495677796417728
51	0xbf829b9dde0cd957	-0.009085877741750776
52	0xbf931a8adfce4a27	-0.018655939016364222
53	0xbfac4a89c505eb2b	-0.05525618104998949
54	0x3fa1ee7450feda8b	0.035022387396954256
55	0x3f758e2a59dec0a6	0.005262532647904694
56	0x3f943e253ea2e986	0.019768316219349845
57	0xbfbd013956bb0ce6	-0.11329992644737139
58	0xbfd07983882e7766	-0.25741661356902623
59	0xbfc7b4a813f40d17	-0.1852007005146354
60	0x3f324ad7ee49ce56	0.0002791192221487151
61	0x3fa8777479814f4a	0.04778636916367292
62	0x3fbb42e7f318ef0e	0.10648965535159169
63	0xbf6ef5bf2a4a5a07	-0.00377929055168669
64	0xbfaf95a75c3e375a	-0.06168864251149726
65	0x3fc61e1fc425872d	0.17279431416960148
66	0x3f8dead185ee7bcc	0.014608036899344777
67	0xbfafb57792041cbd	-0.06193135888502741
68	0x3fc0041dbf052fdb	0.12512561633263783
69	0xbfa7d8a28269ba51	-0.04657466737704808
70	0xbfcf77296b1dc953	-0.2458240292576855
71	0x3f55fccb3f081c14	0.001342009050974151
72	0xbfb81bdafad6e45d	-0.09417503952035262
73	0x3fa33c03a9e36981	0.03756724785644661
74	0x3fc756e2e9930f3a	0.18233906178476805
75	0x3fd1b655c310dbb5	0.27675384568595557
76	0x3f8822f478703f9e	0.011785421300402107
77	0x3fd12b1a38ee1608	0.26825576362202286
78	0x3f782e65ff470bde	0.005903623987651733
79	0xbfc9993335501eec	-0.19998779395267918
80	0xbf882bc53cdc7fb8	-0.011802235526886182
81	0x3f8c47e9592810e9	0.013809035333004665
82	0xbf94113026d74a46	-0.019596817370095353
83	0x3f86fa89c3e36572	0.011220051088843806
84	0xbfcb8144f7ef2de1	-0.21488248926321687
85	0x3fd393bf9f05698d	0.3058928540173376
86	0x3fb4962f41d38f51	0.08041663510408383
87	0xbf9f48bac8ca5f31	-0.030550879006653268
88	0x3f93291c5cb02198	0.01871151271555646
89	0xbf70b0bb98410dee	-0.004074795524562342
90	0x3fc29fb698a0623d	0.14549906208482524
91	0x3f6030dba6996029	0.001976422315049593
92	0x3f8a5c34ed3ce028	0.012871182908938364
93	0x3fa9fa21a1c6f103	0.050736475942786206
94	0xbf9f30de833ad33b	-0.030459858665113897
95	0xbfb582221143f6a9	-0.08401692315598076
96	0x3f80257443dc5814	0.007883938141770165
97	0xbfb58387d4c0014f	-0.08403824752895626
98	0xbfb3f3ff93246fa9	-0.07794186918584835
99	0xbfa4f789ff76cddc	-0.0409510731073188
100	0xbf8ecc5d29e3ecf8	-0.01503823074425846
101	0xbf767254c8a51f67	-0.005480128466224566
102	0x3f87a8e36e88f681	0.011552597819100232
103	0x3fb9fdd9e54b9d52	0.10152971122771717
104	0x3f987af011593c81	0.023906470354913004
105	0x3f855dd0023126e4	0.01043283945741131
106	0xbfa76911ceb75abe	-0.04572349213019809
107	0x3fade97f9017aa6d	0.058422075595292756
108	0xbfb4b9cd710b61aa	-0.0809601212489556
109	0xbfb49af204016606	-0.08048927877225517
110	0x3f8287aa3e6a5893	0.009047822980658793
111	0x3faa5613da163723	0.05143796956245541
112	0xbf99c5b34e70334a	-0.02516822973489078
113	0xbfaa5ac9a173dd89	-0.05147390457016871
114	0xbfb11beee78a35e1	-0.06683247711972441
115	0xbf8346ee6ae09a42	-0.009412634503019327
116	0x3fb0c9bd3df37a24	0.06557829630353545
117	0x3fb7898dc27c1e9f	0.09194265363850683
118	0xbfa5a40d30b741b0	-0.04226723880458694
119	0xbfb5be82da99ba60	-0.08493821942259094
120	0x3f72833ffe5c9fc4	0.0045197009801895595
121	0xbf9d7916f4a8fdfa	-0.028782232935780507
122	0xbfb09159bfd21970	-0.06471787388918471
123	0xbfbe4b59a6453a95	-0.11833725270592262
124	0xbfc01386460873f4	-0.12559584064084073
125	0x3f78b1ea0e3c7b0b	0.006029047279098486
126	0x3fa717652ea7ae0e	0.0451003665401367
127	0xbfb01015fa69d04e	-0.06274545062643819
128	0xbfb348db345fd5b3	-0.07533044842406049
129	0xbfa7ccef26fc278f	-0.04648539877787449
130	0xbfb17abeaab40cea	-0.06827918689309667
131	0x3fb121b31b02bc22	0.06692046555939204
132	0x3f759bfab655de61	0.005275706619947224
133	0xbf9e3901a4196e3b	-0.029514337197140455
134	0xbfbac60e4e46b0fe	-0.10458459292448549
135	0xbfb85f13e1e33e6e	-0.09520077004276015
136	0x3f928a57ec564eed	0.018105863380312327
137	0x3f6c15966334d548	0.003428262448916062
138	0xbfa7cbb7fee5547d	-0.04647612558861967
139	0xbf9f5eed6691b68b	-0.03063555658848442
140	0x3f6d96d72bb60d88	0.003611965422977984
141	0x3f859ac7e6f42601	0.010549127326629383
142	0xbf90118399677be8	-0.015691810834933678
143	0xbfb0b42193eb4281	-0.06524858342459973
144	0xbf748e1a5bd51f7b	-0.005018332446816372
145	0xbf947569271b11ac	-0.01997913647825704
146	0xbfc74145d62bb436	-0.1816794677501165
147	0x3fcfbb732dbfb213	0.24790801748112354
148	0x3f99b6411eaa2297	0.025109307762735424
149	0xbf9b8cb9ca30e5c2	-0.02690401360107387
150	0xbf8b38b6302b7aba	-0.013291762681033038
151	0xbfb2bf1bed069bbb	-0.07322859322321922
152	0xbf9c7a897b60cb0d	-0.027811191707040318
153	0x3f9431d50486a5ea	0.019721344376795992
154	0x3f8c6046562e5cb8	0.013855504517591974
155	0xbf820c6f8db88d37	-0.008812781822661193
156	0x3fb513669e79149b	0.08232728356331835
157	0x3fa4c0147e38be6b	0.040527954490582406
158	0x3f6aafe6d4eaf972	0.003257704585251258
159	0x3f82ed9eab7448fb	0.009242286307685968
160	0xbf81952b127708a1	-0.008585297108656244
161	0xbf58ee14a6e39896	-0.0015216066054164804
162	0xbf7bf7766311c7cd	-0.006827795457057873
163	0xbfc13e5b8496ddcd	-0.13471549963081345
164	0x3fb00544119a12e7	0.06258035115940751
165	0x3f8ab83b788a298a	0.013046707740859604
166	0x3f96021d5c777294	0.02149244191046991
167	0xbf908281cb504aec	-0.01612284472873686
168	0x3f98ef959cf7668a	0.02435144205614973
169	0x3f909297e6079e45	0.01618420926561572
170	0x3fb0d27cab33c349	0.06571177654019524
171	0x3f8cca5f0e2379a1	0.014057867640471513
172	0x3fb3295d3c5a9cde	0.07484991763577706
173	0xbf569ca383a98f60	-0.0013801190204043232
174	0x3f750afb6e43a05d	0.005137426520583768
175	0x3f6612bd5214a81f	0.0026944825809964846
176	0x3f9e1fb25ea487ab	0.029417788530856786
177	0xbfa428db3c1b45e8	-0.03937420948717457
178	0x3fd16017a813ada1	0.2714900151611009
179	0xbf7112eeae6b4dcf	-0.004168445919919119
180	0xbf416563fd0f71db	-0.000530885527151133
181	0x3f682587d41cc5fd	0.002947583475269465
182	0x3f95c987103c0073	0.02127657925211719
183	0xbfb5f1248ad72d34	-0.08571079625760519
184	0x3fbf324f9b9d57eb	0.12186143445191504
185	0xbf81c9fe7d65896d	-0.008686054422189138
186	0x3f9bf09604db4c91	0.02728495030062256
187	0x3f7cbe1f01339188	0.007017251121599684
188	0x3fb0ce734202c3d5	0.06565018045036138
189	0xbfb7ddd89d065d82	-0.09322885354628421
190	0x3f8e06a384110114	0.014661099880072949
191	0xbf9ded874a928467	-0.029226411749395356
192	0x3f9b93b3545c7824	0.026930620216369175
193	0xbfa08b539a3abb0f	-0.03231297738726912
194	0xbfa6109fa91b86e1	-0.043095578568466804
195	0x3f981f9dc73f918e	0.02355810669532015
196	0xbfa3c00b62702606	-0.03857455803524705
197	0xbfb22474e90b0fb3	-0.07086878480464413
198	0xbfa3799b1e9f7bd8	-0.03803715466323582
199	0xbf833e7b231a6730	-0.009396516808283545
200	0x3f94b908e76d1f5c	0.02023710167421143
201	0x3f90ea5c6db194e8	0.01651901645199852
202	0x3fa38f995471319a	0.03820494800365566
203	0xbfa935ee42bb9041	-0.04923958363158976
204	0xbfa2584394a3ed96	-0.03582965077836346
205	0xbf747553207bff33	-0.004994702066823997
206	0xbf8a90c8b56d552b	-0.012971466099467385
207	0x3f91f8c8175cd7b0	0.017550589013999918
208	0xbf940869c72d9b5d	-0.01956334379374468
209	0xbfc06813e66bbf61	-0.12817620039958924
210	0x3fa02b19e1b8d623	0.03157883530040475
211	0x3f91e2eee7423650	0.01746724401941996
212	0x3fb2d032c447a622	0.07348935405720927
213	0xbfa51b8625d94509	-0.041225616569713415
214	0x3f9d1b2a49464d3e	0.028423939440086025
215	0x3facc19a1f544429	0.056164566349373786
216	0x3fa1c69ad8d606ed	0.034718359917872955
217	0xbfae4d25dc6cac4c	-0.05918234172562417
218	0xbf963e8d348ad5b8	-0.021722990352562838
219	0xbf8c2e77dd022859	-0.013760506088392232
220	0x3faab7b23e19e206	0.052182741242123895
221	0x3fb9c02fa2e9ccc0	0.1005887768495084
222	0x3fa5c325f6318cdb	0.042504488280224094
223	0xbfb2050519d4d710	-0.0703890979828794
224	0xbfb29fecb1812356	-0.07275275548557877
225	0xbfa988f4786ebc74	-0.049873008443108185
226	0x3f6d0f81f10fdd76	0.0035474336550539954
227	0x3fa2c08881220549	0.03662516189889204
228	0xbfa2b07b356f87f4	-0.0365026953438842
229	0xbfb93dddd178337f	-0.0986002575302347
230	0xbfc0771087c6b7aa	-0.1286335623712465
231	0x3f948a4b0d0b9b8d	0.020058796569084648
232	0xbf84b66ad62aa1dc	-0.010113558445781594
233	0xbfa6c8158380f8a3	-0.04449527006407663
234	0xbfb45e70364a803b	-0.07956601453270278
235	0xbfb2c5a2c677c566	-0.07332818360716473
236	0x3f84b28e52ee4a8f	0.010106193452690064
237	0x3f9cbdcf3491b33a	0.028067815383496987
238	0xbf904a90db69dcad	-0.01590944613641614
239	0xbfa553d175c10b18	-0.04165510713985138
240	0xbfaedabd0c9ed153	-0.06026259211594955
241	0xbfb118849b14d5c1	-0.06678036485830942
242	0x3fb23189bfbd9122	0.07106839114345978
243	0x3f9658d92555b419	0.02182330408452424
244	0xbfa9705fb0164986	-0.04968546890735852
245	0xbfb77d293aa107b0	-0.09175355607388158
246	0xbfb664a6de4b2dcb	-0.0874733250340604
247	0xbf95841a6663325f	-0.021011745928989686
248	0x3f882222ee5c109d	0.011783860110434136
249	0x3f83fb4dffde2998	0.009756669398275616
250	0xbfa09a7a22738d0e	-0.03242856665181125
251	0xbfb19de1ec447a6f	-0.06881534593819948
252	0xbfc3375d5dad5cf3	-0.15012709688264855
253	0x3fb0f6d4f1e543b2	0.06626635461476729
254	0x3fa9ef8644b4ee6d	0.05065555180268864
255	0xbf9f01bb5f837ba3	-0.030280044274032424
