weights/vsself3/vsself29_theta.npy (npy, 65152 bytes, 1 tensors)

array f8 [8128]
00000000: 8c36 421e 63b7 ee3f 90bb 67f6 a7db 84bf
00000010: 9e95 8151 3da8 de3f 1553 2f1c 42f8 833f
00000020: 91f3 5910 ae33 313f e17e 3680 fa32 af3f
00000030: a009 729c 4f68 633f 3a14 07d0 5cc3 623f
00000040: 0535 b5d2 412d 4dbf b405 60a9 b379 c13f
00000050: cdbe 0d57 d716 523f 8b86 f5c6 0b52 713f
00000060: ebd1 5da0 54b7 613f c57a 687a a2d4 653f
00000070: 68fe b421 7f15 e73f 6fe3 2a93 bae6 8dbf
00000080: 4d8a 70cc c848 6c3f 7633 3038 7532 60bf
00000090: 5d5c 9715 a092 5b3f 6406 6b09 db81 89bf
000000a0: 2204 6498 f4ae f33f 088c 0a88 1ef4 7ebf
000000b0: 6714 f94d 865b 89bf 2df5 e2ef 8cce 9d3f
000000c0: 2aca 6c93 495d 923f f272 78aa 61b4 9dbf
000000d0: 1671 d0c8 1191 903f 4c37 de33 9b11 e23f
000000e0: 234a 4f98 dbcc 77bf cf05 45c3 3a8e 963f
000000f0: bfd4 34b5 e9ae 39bf f0b6 d3d6 e2f0 803f
00000100: 2aa0 4962 f064 90bf 5f5a 3105 df84 9f3f
00000110: 4044 1bb1 fa09 a6bf 30f7 5631 8116 dd3f
00000120: a3b7 6503 9212 993f 4dd0 b47d 58da 833f
00000130: c884 beef d113 77bf e488 3495 030d 61bf
00000140: 7d58 4d2b e6ac 90bf 4965 e25c 9fc5 a23f
00000150: 61ad cca9 30ba 8fbf e4da 49c5 9ba5 74bf
00000160: d336 01df faf7 cb3f 1b71 989c b2a6 7c3f
00000170: 909c 83ff 3377 7dbf 270d 8993 0535 69bf
00000180: aac9 15ae d81b 543f 2c11 7a71 c7d9 5b3f
00000190: ccdb 1cc3 6963 6dbf cc5f eed0 a086 78bf
000001a0: 2a47 317d b365 7ebf 6d70 747f 3f9b 64bf
000001b0: 7be8 cb67 433f 8abf d073 aed9 650e 713f
000001c0: 028a 64b5 5545 93bf a993 9d31 dfad 7b3f
000001d0: 6cc4 2b2d f435 81bf d87e 0143 410f 57bf
000001e0: 7305 c37b 14eb 943f fe62 822b ae83 713f
000001f0: 2c22 be72 6e8a a0bf 4e81 d6ab 0619 513f
00000200: f5d3 8553 94b0 7b3f 2e84 5b65 dd4f d53f
00000210: 8670 e277 7315 833f 9fb8 3465 5947 7dbf
00000220: 3ef2 2eb6 d493 8dbf 8638 9119 6fd7 553f
00000230: ac33 9e42 08bb 7dbf fbe4 e737 8c37 3abf
00000240: 137c e6a5 e7c8 a7bf 529c 10ec aa85 a3bf
00000250: 0973 2b5f 30d4 8c3f bb95 8a53 f15a 8c3f
00000260: 5992 3eda 4501 ab3f aa53 585e 7386 e03f
00000270: 0fa4 1a49 a37b ad3f fc33 c46a 1c06 963f
00000280: 75fb 270c 79c7 833f bc1d 3548 52eb 783f
00000290: 5150 09a2 b9f7 82bf d2f7 cb1d d6f9 953f
000002a0: 5799 308b 2497 b2bf d714 499e 0c9c 723f
000002b0: c353 47e2 37e6 7f3f 2e0e b5f6 4ab0 a1bf
000002c0: 5ca7 05d7 005b 8f3f 47ae f3d6 5da0 693f
000002d0: 8390 a9fa 4773 cd3f 8fb8 a29a a91d 83bf
000002e0: bcfd 4926 2d91 5ebf da11 bbf3 d07b 6d3f
000002f0: a85f aa5e 32f7 65bf 6aaf b116 60ee 81bf
00000300: c8e3 b814 5665 9b3f fdfe e373 5f99 913f
00000310: c21b 3573 b359 a0bf 11f3 4e61 f047 91bf
00000320: 44a9 503e 7a09 653f 35ed 610d f0c2 813f
00000330: aa90 1dc7 a9c5 a73f eb7e 2e3d d4e5 74bf
00000340: 755e 6c9f 706d a43f 83d0 edf4 9b58 8c3f
00000350: 4f16 27ab d939 9e3f 7321 cb40 2191 813f
00000360: 41bb 3a5e 542d 763f 94a4 10be 73dd 71bf
00000370: 9b9f 849c cfe3 803f 8361 411d c409 87bf
00000380: 3895 01df ad55 853f 270e d7bb afe5 8bbf
00000390: cdd2 7b4c 31b1 603f f8d7 4eb4 1ade 773f
000003a0: 363c 5f61 9f86 a0bf 72e4 0b14 e7cb 96bf
000003b0: 4c8b bbcc a5cb 653f 8d93 88d0 9920 c4bf
000003c0: 8547 0053 ab9d 72bf 0c1f 08fc d85c 90bf
000003d0: 6204 0aa9 c43e 84bf 4ea0 f1fc 4b3e 703f
000003e0: f504 b307 067d 96bf a37a 2f2f 26f0 703f
000003f0: a058 cb99 fef4 773f 2118 95c8 d526 813f
00000400: 7f3d 4fee 1408 773f e1dc ebb1 278d 703f
00000410: 3b23 6132 3150 98bf e95c f4b2 ccfd 6fbf
00000420: 6bf8 b173 74fd 70bf 9c3d b8a0 fc8a 79bf
00000430: f13e db85 7542 8bbf e011 ddc7 922c a4bf
00000440: 101c 7332 8335 b53f 4d80 37ff 0245 863f
00000450: 669e cbee eab5 903f 5a6f 9010 9f6b 6fbf
00000460: 8d75 f4c5 dc74 793f 3a16 34e1 be35 9dbf
00000470: fa60 06e2 2aaa a23f 0dfe af06 be62 bfbf
00000480: c723 8d68 aa2b 873f 7fca 7249 12ff a4bf
00000490: 91f4 af9a 4703 a0bf d439 f72a 6f0e bd3f
000004a0: d4bc a5f5 08e5 b1bf 04eb 8bc3 9c6f b43f
000004b0: 5838 af2c 4403 a9bf 6dc3 9a4b aa2a a33f
000004c0: 2160 97c2 136b c43f 4a89 d297 b760 883f
000004d0: b0f0 18d0 454a 6b3f 5c36 cad2 a0d1 713f
000004e0: bdb8 438b e231 7dbf e9ff 9778 862d 6a3f
000004f0: 96ed f337 dd5b 9abf 6260 0803 270a a33f
00000500: 98e6 8c80 9a5d 8ebf fb1b 211e 7ed0 84bf
00000510: 586d 637d ea17 85bf c356 1658 7b41 92bf
00000520: d722 c3e8 2576 a0bf aadf 6f09 3da0 88bf
00000530: ac88 2794 cba7 a1bf ee17 dc38 348d 8c3f
00000540: 3b5a efc1 4d45 993f 6eb8 274d 7329 a83f
00000550: 7743 8301 7d4f ba3f 2c18 eda7 ba23 9c3f
00000560: 2a55 fdba ca62 78bf a39d 7a2b 22f2 95bf
00000570: 9b56 5446 6230 6dbf 3e5b b3f0 d575 7fbf
00000580: 6d95 40a2 a064 ae3f 6fb0 b92d c40e 92bf
00000590: f39b a434 a595 7f3f cddd 471c 7bc6 a6bf
000005a0: d24f 633d f1b0 833f 7452 0d8e 1deb 2cbf
000005b0: 38cf 3360 9e40 aebf 8cde d2d0 e2c8 903f
000005c0: cccc 705d ca25 a43f 618a 6519 e736 b3bf
000005d0: 74e0 bad8 a54f 823f ab16 002c d820 6d3f
000005e0: 6aa7 3d01 9fa7 a1bf 8b24 544a 94d6 c8bf
000005f0: 535a 692a 158c a53f e03b 3145 6be6 99bf
00000600: 6906 36e7 0ad1 803f a35c b091 ab11 6a3f
00000610: 6eb5 beda 9d58 163f 0763 7cb8 a064 89bf
00000620: dd4f 58e6 ad6e a2bf 51eb 691f bbef 8fbf
00000630: 3edb b54e 7a75 5ebf 247c f37b 3f83 96bf
00000640: 4fd3 95da 6fd4 b3bf e9ee c1e5 f64b 953f
00000650: 2368 e1e7 b70b 7abf 8c77 19cf 8269 a4bf
00000660: 188b b459 e577 833f 0336 166a 9546 7f3f
00000670: ea79 ba7e 2bf1 c0bf 20b2 f3a8 346c 8c3f
00000680: 1b13 812c 2ab4 9f3f 0af0 84b7 a063 d2bf
00000690: 4b96 ad79 951d b93f a5dc 6257 a9d6 98bf
000006a0: f325 ef19 2422 613f 576d 0b98 819c 673f
000006b0: a402 1305 6383 ad3f ea64 9610 f841 be3f
000006c0: 1536 685a 43f5 b23f 1231 975c 1a24 7e3f
000006d0: 446f 0128 34b2 a6bf d9fe 4d74 5486 3d3f
000006e0: 4fef 8821 c8ff ba3f 2c6b 04e9 f461 a3bf
000006f0: 093d 7377 95fe acbf 54dc 73c5 a432 823f
00000700: efce b1ac a11f 93bf 848b 12e3 e84a 763f
00000710: d6d8 6918 3ce2 bbbf 3795 fdf3 161a a8bf
00000720: 1055 cee0 9125 b33f 3adb 1ccf de83 b1bf
00000730: c9af ee64 2dde e1bf 46ea 0baf f840 b03f
00000740: 499b c0b1 8c69 8fbf 88b2 b25a 7f08 85bf
00000750: b8f1 5db6 d94a 543f a7a2 e740 e80c 93bf
00000760: eade 6817 022b 7d3f af6a f437 5fe8 803f
00000770: a15a a0a7 9c0f 9d3f c1b2 fd6c fcea 9e3f
00000780: 20bb 1e18 d632 993f 9401 1429 20ed 3f3f
00000790: 8e91 1e3e 65bd 9fbf 6daf d4ee 0137 96bf
000007a0: b406 f318 0c54 873f b53a e75a af0d b1bf
000007b0: 76c3 aad1 2129 a0bf f4a3 3965 f407 a2bf
000007c0: 5121 0c1a 9e69 753f 6ee0 d4a7 6765 8cbf
000007d0: b0cb 2328 9e85 c0bf c980 4154 1b1f b43f
000007e0: 8c10 2e5c 77e4 dfbf 49ca 9094 a9b1 cd3f
000007f0: 02d7 9bd0 de2c b03f 286a d306 6f58 683f
0.9598861304272801 -0.010184585768880955 0.4790185256918792 0.009750858769544327 0.0002624797783495276 0.06093581023310236 0.0023690752892104455 0.00229042174780372
-0.0008904048349137888 0.13652654428737565 0.0011040785722932656 0.004228635792374323 0.00216261414146345 0.0026648686791895548 0.7213740976657848 -0.014600236526676828
0.0034526750419144104 -0.001977185196216198 0.0016829074214592878 -0.012454711174885343 1.230213732982755 -0.007557029021572077 -0.012381600622697954 0.029108240262521057
0.017933988211732345 -0.02900841334313759 0.016178396112182268 0.5646492016837583 -0.005810601990520445 0.022026937645255814 -0.0003918953490996239 0.008271953755378786
-0.016010051726340326 0.03078030080026861 -0.04304488574928955 0.4544985753853892 0.024484902818066378 0.009693805061580596 -0.00563413626142157 -0.0020814008691028996
-0.01628455771727787 0.03666399010507832 -0.015491848165388235 -0.005040749053128766 0.2185052479639383 0.0069949128169606535 -0.0071937590766772 -0.0030770405685715155
0.0012273422256297941 0.0016998717964336702 -0.0035874429385347236 -0.005987766445194564 -0.007421208504710989 -0.002515434283521903 -0.012815977673643389 0.004164121487431907
-0.01881917876847617 0.006757613993475888 -0.008403689983852845 -0.0014074456521697056 0.02042800908453075 0.004275970794105131 -0.03230614805858453 0.0010435643338056635
0.006760196113067875 0.33299956224624594 0.009318258377156729 -0.007148122025041697 -0.0144421213243443 0.0013331017455758 -0.007258445993909495 -0.0004000394182238212
-0.04645465755606195 -0.03812917834903175 0.014076593307828416 0.013845334398250189 0.05274408616177046 0.5164124338794995 0.057583906816326295 0.021507686630730646
0.009657808001973337 0.006083794988917143 -0.009261560685594502 0.02146086270203524 -0.0726187553233094 0.00454335145019976 0.007787912651527176 -0.03454813252986032
0.015310293733552242 0.003128226547792132 0.23008060206769096 -0.009333920508961561 -0.0018656674302802564 0.0035990792365245662 -0.0026813491616159597 -0.00875544614083142
0.02675375462988308 0.017186633537675345 -0.031934364140901575 -0.01687598794864004 0.0025679957930339354 0.008672595413591647 0.04642992549523346 -0.005101994570310113
0.039897460423330346 0.013840883648051033 0.029517556258517093 0.008577594556655943 0.0054143233898418805 -0.004361583823120036 0.008247014965107094 -0.011249096052936341
0.010417326324566475 -0.013621685905383775 0.002037617003106318 0.00582704955461643 -0.032277088772041315 -0.022262201880014883 0.0026605833316905355 -0.15724489862728
-0.004544896350141663 -0.015979185469432486 -0.009885345848717534 0.003965660885207068 -0.021961302013328205 0.004135274083607729 0.005848879369940857 0.008374853309430165
0.0056229417431973286 0.004040865954031165 -0.02374340887061808 -0.0039052007702015013 -0.004147963419312099 -0.0062360637925985805 -0.013310354373430285 -0.039402567765623564
0.08284778577500185 0.010873816884611776 0.016318960976518325 -0.0038354975445268726 0.006214964290191982 -0.028525335784271834 0.036454525080616265 -0.12260043776768033
0.011313754382756515 -0.041008540597791125 -0.03127502215645806 0.11350149916618274 -0.06990104672671588 0.07982806943975268 -0.04885304494347115 0.03743488476664578
0.15951773644951664 0.01190322334361284 0.0033313144238303546 0.004350307670973299 -0.007127652108677105 0.003195536269004141 -0.025741058864679887 0.037186831588940775
-0.014826972053572349 -0.010163293165659218 -0.01029952235369673 -0.01782791829244591 -0.03215139833770813 -0.012024380541319452 -0.03448330100560901 0.01394120024225384
0.024678435289241057 0.047191241424898375 0.10277539526874856 0.027480045794867333 -0.0059535903127046295 -0.021431478408570858 -0.0035631102970324464 -0.00768073625950799
0.05936147671335843 -0.01763445405087832 0.007711072287100318 -0.04448303909515126 0.00961483448592296 -0.00022063003327822998 -0.05908675121636836 0.016391319270694413
0.03935081854469899 -0.07505649919543479 0.008940978695463488 0.0035557005030593856 -0.03448197260043069 -0.19404843930559354 0.04208437102049758 -0.025293041322864585
0.008211217099190553 0.0031822539290363313 8.524383036841662e-05 -0.012398963575422707 -0.036000666015894224 -0.015593969246074176 -0.001859063568955668 -0.021985046329856442
-0.07746028029016581 0.020797593854225225 -0.006358831769910397 -0.03986748483724431 0.009506027031027695 0.007635673189168471 -0.13235992134009616 0.013878260999683312
0.030960711447067895 -0.28733079835706177 0.09810766430526845 -0.0242563685976306 0.0020914750198002207 0.0028822451716742736 0.05764302670423163 0.11819410710303982
0.07405491788104997 0.007358649230308838 -0.04432833660459193 0.00045051156876495035 0.10546541994784529 -0.0378567251629732 -0.05662982066280093 0.008885657573484952
-0.018675352254333196 0.005442533221102223 -0.10892081829101427 -0.04707404831314437 0.07479202021052722 -0.06841843182051557 -0.5583712550483081 0.06349138520810368
-0.015338038611003706 -0.010270113902458591 0.0012385488602993776 -0.018603924714542554 0.007121093911841328 0.008255714316466848 0.02837986729727027 0.030193275596888784
0.024607987615748006 0.00048715624969022345 -0.03099592391630917 -0.021694212152552895 0.011390776168244222 -0.06661506623570797 -0.031563813060876564 -0.03521693931254069
0.005227677903129128 -0.013865289506256508 -0.12907769164993743 0.0785996514036952 -0.4983194732851721 0.2319843268793014 0.06318466752039956 0.0029718559731979517
