weights/vsself3/vsself132_w.npy (npy, 65152 bytes, 1 tensors)

array f8 [8128]
1.0299122588706335 -0.0003791459286401556 0.20231791216590742 0.0007841232022786573 -0.0008858061037625408 0.07243753909297856 0.002798788843220754 -0.004373292402915768
-0.003946572433350548 0.08025560549297331 0.0012202550785782472 0.004737939770417084 -0.0017886449994932638 -0.004967162104663063 0.2656942619099036 0.0006860998350312396
0.002440562497287282 0.0008820498907887603 0.0012388303629886238 -0.001110465953432746 1.0683065151003184 0.0013692294145197605 -0.06770694139818347 0.00771604046600431
0.009596526985001535 -0.0034121447020767 0.009143804094393597 0.3050005959187931 -0.006117725036244894 -0.04269347261988304 0.01395328214276625 -0.005215375594785329
-0.0014565491248772972 0.00974956365037113 -0.16852268117296976 0.1877409223828021 0.0008930145617362918 -0.007085217144536739 0.00020122591834604832 -0.003554553882600914
-0.0037430252482635565 0.002042610386442464 0.01182223049996838 -0.0070198326799288105 0.04068580306524513 0.0011661291135277676 -0.007586259271194363 -0.007955723740489015
-0.01689177158854919 -0.009616424376444012 0.004105905361653956 -1.9040621292672373e-05 -0.010993868792777778 -0.003644829690318608 0.07537717207673067 0.0023145393027016936
0.006234529658711921 0.0009356652731668581 -0.027430350767895406 -0.0267800211755612 0.0033651168525664294 -0.029611635696319458 -0.04485598305624033 -0.019206363223635052
-0.02025653907732657 0.12444625812971437 0.008056440436666559 -0.012683135406089186 0.0040512435557778234 0.08259032883227072 -0.10260997100672792 0.0001814545886164706
-0.05749483576299541 -0.08441385528610997 -0.019860413270995775 0.25193294000668115 0.10521620718153658 0.275281590202147 0.010914325913707683 -0.00550765964749684
0.009141247890662726 0.00826549900113237 0.016655232826426468 0.01088110449866027 -0.031569165169163596 0.25320960715572083 0.03184554726197427 0.0024131112879090815
0.01975051341371018 -0.018280271218226136 0.11570564514620825 0.00220425621278459 -0.008815628348442605 0.0032401634334249607 -0.0029285629703143163 -0.00476681001722809
0.00451431068748302 0.007203064716658615 0.0332307356452598 -0.002386526238235216 -0.0047427292698113185 -0.0007212219720628723 -0.017930208400849315 0.01947440019846845
0.01337279203634623 0.0047518283767666175 -0.007497388305448135 -0.0011578413947973816 0.002985556418514492 0.002580986834939193 0.005809253711086457 0.04482401953845989
-0.0024597937476498128 -0.006017848901310012 -0.0018790982878096954 -0.01851933875144895 -0.005294441540390458 0.030703138386187857 -0.0023779965620035837 -0.007793907134579861
0.0024144918876417027 -0.005356105202478939 -0.008255442295690524 -0.02026316633452534 -0.013423634287683464 0.0028969439640586002 -0.010117219211825757 0.026981955693932445
-0.007274935638342508 -0.012703860484000679 -0.03877641034276942 0.1469128532780942 -0.0027297114778155594 -0.006899800351609661 -0.03846345480095159 0.004921661010036858
0.014384010914483901 0.009518270167288196 -0.002220920431368662 -0.005289344072346147 -0.015722770017452804 0.008778649711906202 -0.016632608780146916 -0.012276568523571464
-0.01212636775112219 0.0024363620291653564 -0.009738466512078332 0.10459218575008493 -0.016034468103428907 -0.0024213223759011328 -0.0022128240957746794 0.008724962030093512
0.031086785385901417 0.012189279128516957 0.006414116236858032 0.0015694860141163662 0.005628497346460604 -0.027601700399799402 0.008672540902502454 -0.021142091459417325
-0.022218216013472694 -0.01405479308950501 0.005908590489263256 0.0015659958963146294 -0.056576859602149664 -0.023222049977052114 -0.01409980298992351 -0.018373355997093343
0.026388800612902986 0.003115015963843212 0.06646117469917405 0.013275045003293143 -0.00929197981368959 0.002518527911562531 -0.001287866372863904 0.008017152552936615
0.02096869967423473 -0.024974656834845385 0.19976203171318907 0.027901953933482215 0.0007320362058246434 0.004423245385005668 8.699688619655903e-05 -0.0002958927045410329
0.028630993704075576 5.8044109996120944e-05 -0.011471061916635224 0.0017163532736877694 -0.016714121502515 -0.020926867793765222 0.014465070351766723 -3.3665392451790545e-05
0.0007879902519447151 0.01321841961180898 0.00826622057476432 0.02111799102502246 0.011824478728176994 0.001866189318676151 -0.0026117682845651713 0.024481648954948646
0.010017022906581113 0.038502200980126786 -0.0016674594041259834 -0.0034082996775162467 -0.003194095212921731 -0.0029482410750765508 -0.008294863104589824 -0.008118148347169661
0.02251154649964157 -0.04888125347372627 0.017576856052880084 -0.007376633204733949 -0.0028139734425380223 -0.005745925238346815 0.00956305869459901 0.03217762873196497
0.05822530211558595 -0.0376638512981096 -0.008449810569187824 -0.008441524022047647 0.005635804240171625 -0.0025144563724705466 0.05704202584160502 0.0008436536082377754
-0.007332140904583061 -0.037448524847077634 0.016264103816523403 0.0094172756027633 0.03265411534564994 0.008635657117995443 -0.02954774764894224 0.017752556626490053
0.004886975824547637 -0.0036387443401367835 -0.0056438984918206194 -0.0038077541500200636 0.009163588170750447 -0.017958397314135156 0.04354084448970681 -0.008566188217411076
-0.03325690972892553 -0.01422088315427529 0.07657620749206165 -0.010094475329575017 -0.004886156128785066 -0.04362208159997863 -0.05920387425680152 -0.007950697464121054
-0.02157815384308092 -0.006053799783722221 -0.021657124948259963 -0.04196112353254416 -0.0764520037254087 0.061108952284678955 0.10211912294873887 0.012906328675682201
00000000: eb94 d946 857a f03f 87ed 295d 03d9 38bf
00000010: abe3 12a8 8de5 c93f c5d5 41c1 b3b1 493f
00000020: eb5b 851f ae06 4dbf 6035 683d 448b b23f
00000030: 61f3 9951 7ced 663f acb9 8abd bae9 71bf
00000040: 3344 85f8 472a 70bf 42ba e9a0 a18b b43f
00000050: ccf7 efe9 1efe 533f 3c6a d405 1768 733f
00000060: dbff b9f1 1e4e 5dbf 6b01 b26c 7258 74bf
00000070: 43d3 6881 2201 d13f 324d 372d 6c7b 463f
00000080: d29a 8203 3bfe 633f 95b3 99b7 2be7 4c3f
00000090: 4aab 3cf9 074c 543f 5a1d 03bd a131 52bf
000000a0: 835a 8792 c817 f13f aadf 96e3 f66e 563f
000000b0: 7173 04fb 3d55 b1bf ae30 4cd7 da9a 7f3f
000000c0: e933 720c 58a7 833f adcd f23c c9f3 6bbf
000000d0: e921 5f9c fcb9 823f 9fd4 2e38 2185 d33f
000000e0: a933 4e4f e60e 79bf 3765 4f39 ebdb a5bf
000000f0: bde2 ccd3 8993 8c3f 63f8 dab9 b75c 75bf
00000100: dfb0 ceb6 35dd 57bf 2d9a 3a48 94f7 833f
00000110: 7cd5 22b6 2692 c5bf 26a4 e000 e507 c83f
00000120: ed7f 332b 2643 4d3f b5c6 bb7e 6305 7dbf
00000130: 9211 107a 0560 2a3f a73b af95 701e 6dbf
00000140: 39cc f060 b1a9 6ebf c51a dd19 aabb 603f
00000150: dbb4 e7ea 4036 883f 9ffa 89fc d3c0 7cbf
00000160: 6b48 2703 c5d4 a43f 2af6 f399 191b 533f
00000170: e706 80f7 c412 7fbf 7854 402a 174b 80bf
00000180: 6a62 2d9a 134c 91bf e73a 9ca1 c6b1 83bf
00000190: 47fb fa93 5ad1 703f 0095 2e88 2df7 f3be
000001a0: 1039 5f17 f483 86bf 9b97 380a c3db 6dbf
000001b0: e03c ef18 eb4b b33f 6e7b 88d3 f0f5 623f
000001c0: 507d d7cf 6089 793f 34ce c6df eda8 4e3f
000001d0: f019 ddad b316 9cbf da77 8acc 386c 9bbf
000001e0: b218 875a 2991 6b3f cc47 963b 8352 9ebf
000001f0: a751 8308 5df7 a6bf 4eb4 ae37 d5aa 93bf
00000200: f513 7853 21be 94bf a3d5 c6c0 b5db bf3f
00000210: 0ecc 9421 e57f 803f 6738 3d9e 9df9 89bf
00000220: 217c 4869 0998 703f d2ec 4cc9 a324 b53f
00000230: d4a7 b7a5 a544 babf b7b9 310c 9bc8 273f
00000240: 40f8 948e f66f adbf 7d7a c87b 259c b5bf
00000250: 2896 efc5 4956 94bf eb48 8756 ab1f d03f
00000260: 9196 da08 73ef ba3f 6bfb c6ac 369e d13f
00000270: 09ab db06 405a 863f 4916 0421 338f 76bf
00000280: fe54 e185 a5b8 823f 79ed 287f 80ed 803f
00000290: c6e3 2fc1 110e 913f e994 ba1f d548 863f
000002a0: 5a5a ed67 d529 a0bf b813 7111 9634 d03f
000002b0: 9bdc 0640 0f4e a03f c18d 0542 a9c4 633f
000002c0: 4aae c384 7a39 943f b55a 2d3c 10b8 92bf
000002d0: 6594 dd99 e29e bd3f 8fbb 110b a90e 623f
000002e0: 731d 9a9b ed0d 82bf 5240 5e7f 1d8b 6a3f
000002f0: 2d1d d145 a4fd 67bf 6076 15d2 5c86 73bf
00000300: 2d7f 440c 997d 723f 4e6d 39f6 f580 7d3f
00000310: f006 a375 9e03 a13f 10d4 9d84 e88c 63bf
00000320: 66d1 b8b1 1c6d 73bf 21ce 3e64 0ca2 47bf
00000330: 14b9 c4ea 4b5c 92bf 9bb7 d8df 18f1 933f
00000340: 0258 9ec3 3163 8b3f b036 9737 a776 733f
00000350: 23ac 3cd9 94b5 7ebf 7ece 2cbb 56f8 52bf
00000360: eb36 b165 2a75 683f 9ce0 84c1 b824 653f
00000370: a4a5 40ab 71cb 773f f963 fc83 2cf3 a63f
00000380: f217 6fb6 8f26 64bf b807 9303 2ca6 78bf
00000390: 2091 4b6c 82c9 5ebf 5fc3 1fc9 bbf6 92bf
000003a0: 57d5 43d4 9faf 75bf 1a51 03bd a470 9f3f
000003b0: 527f d72e 057b 63bf 1d6e 0404 81ec 7fbf
000003c0: 8440 3476 8ec7 633f 5379 db8a 48f0 75bf
000003d0: 3d5d 64b5 3ae8 80bf ad7a e112 debf 94bf
000003e0: 8890 12b2 d97d 8bbf 0aef aff2 54bb 673f
000003f0: 0d4a 212d 56b8 84bf 5976 2665 28a1 9b3f
00000400: a9df 5aaa 52cc 7dbf 1d6c 7e4a 7b04 8abf
00000410: ba93 8e6c 80da a3bf cb81 1856 0ace c23f
00000420: 3d9e cab0 9e5c 66bf 16d8 be0d f742 7cbf
00000430: 702a ec60 7bb1 a3bf e51d 4851 bc28 743f
00000440: 6c41 b443 5d75 8d3f 6af9 a998 507e 833f
00000450: dbf6 d493 9b31 62bf 73a4 ed7c 47aa 75bf
00000460: 1d26 1c3c a119 90bf 714e 536b 8afa 813f
00000470: 3915 087b 2308 91bf 67d8 8622 7524 89bf
00000480: bf5f 4887 b5d5 88bf 7341 91e7 6bf5 633f
00000490: 04e6 75d9 c2f1 83bf c3b9 36b1 8dc6 ba3f
000004a0: a2b1 73f0 566b 90bf 5fb8 5c8d e1d5 63bf
000004b0: 9ade f0e3 a020 62bf 6fef 9f94 64de 813f
000004c0: 0de7 47da 36d5 9f3f f717 c059 b1f6 883f
000004d0: e250 8537 b045 7a3f b0c6 89c6 e6b6 593f
000004e0: cd6f 7540 e80d 773f 2ae0 1fc2 9e43 9cbf
000004f0: b850 65bc e8c2 813f 3488 8cbd 45a6 95bf
00000500: 3402 9d3c 5fc0 96bf 182c 5f65 c2c8 8cbf
00000510: db62 ab2e 9b33 783f 2a09 434a 43a8 593f
00000520: 433a 6763 a4f7 acbf bc41 ca64 85c7 97bf
00000530: 762c c685 5be0 8cbf c349 800c 77d0 92bf
00000540: 0dcc 736e aa05 9b3f df82 1e76 a984 693f
00000550: db64 c97b 9903 b13f c8f6 2261 f22f 8b3f
00000560: 4eb1 516b ac07 83bf 6b86 7460 bca1 643f
00000570: 7b13 fffc b319 55bf e1dc 2c00 4c6b 803f
00000580: d8a7 5c9d d178 953f ec82 56d9 f492 99bf
00000590: 9c67 9860 cd91 c93f d022 8e6e 5492 9c3f
000005a0: 9bec 20c8 c3fc 473f cb1f 55e4 1b1e 723f
000005b0: de4d d01f 43ce 163f 4e8a 377d 4164 33bf
000005c0: 72a6 7176 7151 9d3f 8bca ea6e 8c6e 0e3f
000005d0: 243b 42de 237e 87bf 7aa1 724b e81e 5c3f
000005e0: f04d f0b4 811d 91bf 2cb4 2053 da6d 95bf
000005f0: 50ec c2e0 dc9f 8d3f 2c95 a213 7ea6 01bf
00000600: 6b2e 4b2e 24d2 493f e40c 803f 4212 8b3f
00000610: 76b7 3d58 e1ed 803f 2820 3d63 f49f 953f
00000620: 222a 70ab 6e37 883f db02 e185 5d93 5e3f
00000630: 92f3 bd6b 4665 65bf 8162 74a6 b711 993f
00000640: 36e0 4b0e ce83 843f 5e3c 117c 8fb6 a33f
00000650: d594 ebe6 d451 5bbf 4dfa cbf4 b8eb 6bbf
00000660: 6398 5acf 802a 6abf 4a12 f1df e826 68bf
00000670: 0174 12ae e5fc 80bf d9c9 3d6d 3fa0 80bf
00000680: d84d fe4f 440d 973f 8d41 1db2 f606 a9bf
00000690: e68b a7d7 aaff 913f a418 e7e5 f536 7ebf
000006a0: 6b59 0a7d 540d 67bf 724d be0f 0a89 77bf
000006b0: 2487 be02 cc95 833f f31b 220e 9679 a03f
000006c0: eeb6 c5f0 b4cf ad3f 0532 2223 ad48 a3bf
000006d0: c89c 6a60 224e 81bf 7022 d32c ca49 81bf
000006e0: fe01 5fae 9115 773f 7223 627c 3299 64bf
000006f0: d27c f9c6 9c34 ad3f 5c4b 0954 14a5 4b3f
00000700: 3f4c 5196 4e08 7ebf 33d7 00fb 732c a3bf
00000710: 777e f687 89a7 903f 08ad d955 5d49 833f
00000720: c88f fa4a 0ab8 a03f d3c7 3547 92af 813f
00000730: 6e69 4ac7 c341 9ebf 8f4f 86e8 b92d 923f
00000740: 5c01 7c95 5d04 743f 0a81 0ffe ffce 6dbf
00000750: 3fe8 1b77 0e1e 77bf a319 7571 7031 6fbf
00000760: 3320 0ffc 5bc4 823f 9a73 9ca4 af63 92bf
00000770: 0a3d 3f4e fc4a a63f 0717 f651 268b 81bf
00000780: 68b3 4db7 0c07 a1bf c8f4 8aa0 d61f 8dbf
00000790: 6a82 d492 7f9a b33f 5b53 498b 69ac 84bf
000007a0: 7da6 6b8c 8103 74bf a4f0 b52b a255 a6bf
000007b0: a17b 755f f84f aebf 90d7 b58c 7448 80bf
000007c0: 9ea0 4164 9518 96bf fce2 6681 decb 78bf
000007d0: f63c 830d 492d 96bf a727 8daa ed7b a5bf
000007e0: 66dc b6c7 5b92 b3bf 326d 1c2f ac49 af3f
000007f0: e46c 5c95 7a24 ba3f c17d 961c a26e 8a3f
