weights/vsself3/vsself10_theta.npy (npy, 65152 bytes, 1 tensors)

array f8 [8128]
0	0x3fe8a8b89d4493b0	0.7705958434713605
1	0xbf666e36fcb3cc1b	-0.0027381013838918672
2	0x3fd1a54d3fbf012f	0.2757142183800338
3	0x3f8397bc3e820ac3	0.009566755921928466
4	0x3f4af3901e133525	0.0008224919985423724
5	0x3f8441563fd4282c	0.009890245268724916
6	0x3f6424db1f76fc94	0.0024589805359194836
7	0x3f2abfd2ba278b59	0.00020408103325938556
8	0xbf49bbebf545e96e	-0.0007853414668226707
9	0xbf7aae28b0f2b316	-0.006513747167599579
10	0x3f4fb721dedd9bc7	0.0009678759940755448
11	0x3f6021ae0aa03edd	0.001969184803790698
12	0xbf1bb68fcb334f5e	-0.00010571720740709447
13	0xbf6832e45cbf371c	-0.0029539547158269463
14	0x3fca87ccffab0dfe	0.20726931079671823
15	0xbf8ce95fcd8b7aa9	-0.014117001018744206
16	0x3f6369ca15946356	0.002369780250444024
17	0x3f5af22d9286f59c	0.0016446538012212302
18	0x3f6353fe4ffb44db	0.002359387115440909
19	0xbf6166ca50adcb35	-0.0021242095439729888
20	0x3fea14f49b7da6fd	0.8150580441408405
21	0xbf8e1f091f2adbbb	-0.014707633269933731
22	0xbf80097b7378aeed	-0.00783058591976934
23	0xbf5bfb398ec5759b	-0.0017078458868903027
24	0x3f9396754e0b12e4	0.01912864006841887
25	0xbf907e2cdd6e8d3c	-0.016106320395590887
26	0xbf7f9b1e2040e2f6	-0.007716291122101584
27	0x3fe0cd783c8699ad	0.5250817472595394
28	0xbf6e819d09211e41	-0.003723913870121526
29	0xbf515aeb01c9b7a7	-0.0010592741956787306
30	0x3f5d741776b1adf7	0.001797697938651475
31	0xbf63d1426f93e180	-0.0024191186499786244
32	0xbf589cc1f5c370a9	-0.0015022176876789228
33	0x3f80cc6c8fb94d45	0.008202407966712353
34	0x3f86236f341fe750	0.010809773233620895
35	0x3fd35d5b07fca31f	0.302572973060295
36	0x3f75a007bd1cff4a	0.005279569844617369
37	0x3f434dfd7c2432c8	0.0005891311377879899
38	0xbf5079e02b9a1934	-0.0010056199229509623
39	0x3f62892ddabe1725	0.0022626777262669978
40	0xbf92012f1b8d5cc9	-0.01758264165559068
41	0x3f7161fd9f483c21	0.004243841849997516
42	0x3f3a4760b55122e6	0.00040098296205263865
43	0x3f6ca410289dfe52	0.0034962001417964484
44	0x3fc2aa6590d3fc04	0.14582509586031744
45	0x3f79da77dde69440	0.006311863164602249
46	0xbf84dbf213493e66	-0.010185137952390021
47	0xbf72c7c8db81f357	-0.0045850606912808045
48	0x3f55aa417398c14b	0.0013223303962029583
49	0x3f7a50e58a34472b	0.0064248052979268095
50	0x3f5380ff895bd8b6	0.0011904235338398412
51	0xbf4758a1ab662fc3	-0.0007124699975959925
52	0xbf81046d00f0ae79	-0.008309222785178637
53	0xbf5389bff022251a	-0.001192510070298808
54	0xbf9c8b3c186f315b	-0.027874888411859682
55	0xbf3aaab66f3069df	-0.0004069037815398728
56	0xbf7155eb06e49333	-0.0042323284854191455
57	0x3f90019e3f298025	0.015631172757253026
58	0xbf7a0b7f9b9ad3a2	-0.006358622043696112
59	0x3f5ed45c817cbf8f	0.0018816855790184416
60	0x3f94a9b206cf56ee	0.020178586640972655
61	0x3f96380d7ca17c7d	0.021698199016438203
62	0xbf7783c4a7df7fb7	-0.005740898310222001
63	0xbf94052b110b1874	-0.019550965228312525
64	0x3f819091bf566097	0.008576525355963134
65	0x3fce50512e78f40b	0.2368260838428856
66	0xbf7066cea3ed07e6	-0.004004294575510747
67	0xbf7938bc8747744b	-0.006157623709865122
68	0xbf79c44a92c9f8f8	-0.006290713598558144
69	0x3f6274fbfcdf8fcd	0.0022530480991793445
70	0xbf839359379d5599	-0.009558388719294085
71	0xbf7b26d7c0aa5500	-0.006628840240087586
72	0x3f8f7ba66cbac390	0.015372562592661315
73	0xbf885b6f91c2c49b	-0.01189314998223017
74	0xbf44c8ca1c468e78	-0.0006342875354232299
75	0x3f34b240f69245c0	0.0003158005334365742
76	0x3f90ebe97d75e455	0.016524933130743175
77	0x3fe0cc30331ef926	0.5249253271538563
78	0x3faffc8f2eb00d72	0.06247374958914066
79	0x3f8996c758285eb2	0.01249461877618727
80	0x3f4d5b559e954319	0.000895897680644439
81	0x3f6cdc6f82123d9a	0.003523080624809172
82	0xbf6a0f47118b3f2a	-0.003181113057827552
83	0x3f6ca270f29d284a	0.003495426751134044
84	0xbfb26d7743117e0e	-0.07198281657610314
85	0x3f60a14dcd42b4be	0.002030040699614404
86	0x3f430d49e3af1469	0.0005814181125677445
87	0xbfa16a884a372ccf	-0.03401590257598174
88	0x3f72b5ebe2a6af94	0.004568025042697505
89	0x3f885d6d31b55608	0.011896946982839843
90	0x3fcf566aa186efbc	0.24482472312035763
91	0xbf81b60f6be7b042	-0.008648033600330621
92	0x3f7b504fe5a63f18	0.006668388460084683
93	0x3f5781762d5c6842	0.0014346746515401386
94	0xbf79998b082b12e3	-0.006249945729625425
95	0xbf7668d0cbf13f5c	-0.005471053707040454
96	0x3f85a85fc5055d10	0.01057505435953357
97	0xbf69edf85e9c6a85	-0.0031652308433767784
98	0xbf919d4583d2fc49	-0.017201505824001626
99	0x3f5d20edcee06559	0.0017778704018439255
100	0x3f7b3079b56bfc72	0.00663802664234857
101	0xbf5c43c0540e0b28	-0.001725137539523922
102	0x3f95d0a52a18b08f	0.021303730673182527
103	0xbf86ed4165930431	-0.011194716369916065
104	0xbfc2f6cc2c630741	-0.1481566635830465
105	0x3f8973009c66cb57	0.012426380894657347
106	0x3f9114db98cb34c3	0.01668112869338213
107	0x3f674d67146b5f9e	0.0028445256497029022
108	0x3f6f23cc402adc1e	0.0038012494345269895
109	0xbf8fab94de173e14	-0.015463984515832009
110	0x3f9185a330df6399	0.017111348970363236
111	0x3f8804a1838eb7f6	0.01172758276683437
112	0xbf85362a74976300	-0.010357219393811956
113	0x3f6ba8fb45076510	0.0033764751062618295
114	0x3f84c81cf01bfaed	0.010147310330919502
115	0x3f7a942e2de1dfc5	0.006488972079857496
116	0x3f98200332b7381c	0.023559617968025845
117	0x3f60a5e3754f212e	0.0020322268050884306
118	0xbf753a89c6603c6b	-0.005182779486872051
119	0xbfa2c6bc5fe6593c	-0.03667248411800236
120	0xbf74793404afafdd	-0.004998400875574985
121	0x3f56d650bf5c173b	0.001393870215396344
122	0xbf6a06b3e31e6af8	-0.0031770242139378367
123	0x3f5a4c92f98b6797	0.0016051707554453948
124	0x3f75f82965928b64	0.005363618570444515
125	0x3f5a7e977796b041	0.0016170958682364541
126	0x3f6b77c1bdbc75be	0.003353002930352316
127	0x3f6bdaf32f889284	0.0034003019066111712
128	0xbf6b97ab78f2d422	-0.0033682202407257092
129	0x3f67448c4e493173	0.0028403034541836735
130	0xbf87c7af020e7fdc	-0.011611335039390207
131	0xbf823c533d5d9b29	-0.008904123602133733
132	0xbf9994b1d82c9230	-0.02498128778383285
133	0xbf860ae22de6b9ca	-0.01076294615344588
134	0xbf6ba854992da616	-0.0033761646567895915
135	0xbfd1c441ee687f26	-0.27760360986757104
136	0x3f8360de83a91ec6	0.009462107079471049
137	0x3f70ca73349a1ae7	0.0040993213857578375
138	0x3f96a0700bdfb27e	0.022096396183700844
139	0xbf7e3c8b4e3de3b1	-0.007381958162903255
140	0x3f81c8c43c2393a0	0.008683713040633922
141	0xbf9ce4c609491e73	-0.028216451946973153
142	0xbfa7406826f7bd6f	-0.04541326022796965
143	0xbf92f358dc232398	-0.018506420551407027
144	0x3f64a0c90c95e557	0.0025180746785592833
145	0xbfa6f21baa7a4a45	-0.044815887985482784
146	0x3f72a2c34abec288	0.004549754008551184
147	0x3fa735138d40e933	0.04532681559836007
148	0xbf70d7f052f266e4	-0.004112185254734977
149	0x3fa2cda8dbba02e7	0.036725308248611026
150	0x3f9eaa966d42d2b6	0.029947615069164178
151	0x3f8b27083a55f99d	0.013258041649120861
152	0x3fb78ee5d5aaafa2	0.09202419725869374
153	0x3f863c794868136a	0.010857532045528823
154	0x3f82b78f30c93f8e	0.009139174152693188
155	0x3f68d9c261085313	0.0030335232224935143
156	0xbf7a9f5418eeb5b4	-0.00649960375350871
157	0x3f715bf5873ed860	0.004238089651996985
158	0xbf97101086318e34	-0.022522218885923276
159	0x3f9d97b723fedff7	0.028899060794827815
160	0xbf8f92e8043e2d0c	-0.015416920308573022
161	0xbf7a1485c427e41e	-0.006367228054380751
162	0xbf8f89dd5e34a4b8	-0.015399674832752161
163	0xbf7491d491a6a2e8	-0.005021887156922068
164	0xbf805af14cf77330	-0.0079859592068999
165	0x3f87c528dcf1bedd	0.011606520884213928
166	0xbf9f6a8cb6db27c5	-0.030679892216347832
167	0x3f831a768b72359d	0.009327818041380104
168	0x3f8f5ccc139298ad	0.015313715312299381
169	0x3f97b74ad506b87b	0.023160142185297588
170	0xbfb2056923258967	-0.0703950606162259
171	0x3f8994757b60327e	0.012490194156293596
172	0x3f872a261d7819be	0.011310861372305744
173	0xbf903bac4fec1eae	-0.015852634790489865
174	0xbf6a4ddace517b18	-0.003210952143987266
175	0x3f792049758758ee	0.006134306859584477
176	0x3fae8218edd99343	0.05958631423417284
177	0xbfa5322c3193c4dc	-0.04139841180029588
178	0x3f940059b9fd73f1	0.019532587029392038
179	0xbf2a2225fde699a7	-0.00019938195960129726
180	0x3f7d85cdb6dc97e9	0.0072076831545810705
181	0x3fa108ca69fec219	0.03327019256483172
182	0xbf914070a8dcb2b6	-0.01684738188412168
183	0x3fa4248f9e285c88	0.03934143834720155
184	0x3fa617b00586e510	0.043149471926378635
185	0xbfa7636ede808311	-0.045680489216698324
186	0xbf992280ab4713ff	-0.02454567952533537
187	0x3fb122e42a58bb1f	0.06693864854672114
188	0xbf81e45466a4c246	-0.008736285574373014
189	0xbf93db58f2deb0d2	-0.01939143164024488
190	0x3fa496f79304ffff	0.0402142874686433
191	0xbf9541a6a646a644	-0.020758251093559346
192	0x3f857f2383fe1407	0.01049640413817522
193	0x3f593f17b3bb3e84	0.0015409213510117212
194	0xbf6bae11910c42ab	-0.003378900823357197
195	0xbf86353b730de2e0	-0.010843719910313465
196	0xbf799d47e5fb50f9	-0.006253510334961237
197	0x3f7c0b88a3f59307	0.006846936942882526
198	0x3f73b379c214057a	0.004809833161972471
199	0xbf97c1422acb111b	-0.023198160039798226
200	0xbfa0be5dfe5a7f97	-0.032702386187565206
201	0x3f8d7f7dc2d49855	0.01440332651925417
202	0xbf80e75f6a766d09	-0.008253808437805892
203	0xbfa35f994baf2da0	-0.03783873604660504
204	0x3f8fa7d8e789db57	0.015456862035745962
205	0xbf85cdce120b8be7	-0.010646448064511161
206	0xbfa1f576a046071d	-0.03507586199249444
207	0x3f3fca531809f436	0.00048508194598878855
208	0x3fad355ebb029c2d	0.057047806099312794
209	0xbfce6669ff2b2348	-0.23750042876624833
210	0x3f2abeab6cc9e2f8	0.00020404665555753105
211	0xbf75192c9a067c2c	-0.005150961137046866
212	0x3f46ec07b05623c5	0.0006995236914671901
213	0xbf75648f71077fd4	-0.005222854917946013
214	0x3f94c07af6ce5cce	0.02026550418267164
215	0x3f7579460018332d	0.005242608488981654
216	0xbf80e78b51e03414	-0.008254135547781906
217	0x3f7ef7d3e91c1ac3	0.0075605657345991254
218	0xbf9066d543ca7377	-0.016017277014373357
219	0x3f51d3e709e047d8	0.0010881191478841947
220	0x3f8d5f64c1f26155	0.014342105072771597
221	0xbf9d2e4dd966bbcb	-0.028496948618052003
222	0xbf956d4798668d5a	-0.020924681355280007
223	0xbf8503cf5cf6181a	-0.010261173271612068
224	0xbf9287fb51b06f3f	-0.018096854077256138
225	0xbf94fd57a4daf95e	-0.020497674405072323
226	0x3f6042accfa2bedf	0.001984918138155808
227	0xbf9640e1f60bdaa5	-0.021731882708048506
228	0xbf8040d2a3199c33	-0.007936139681261256
229	0xbfab7ecaa1f73483	-0.053701717635342504
230	0xbfdd8d68f46a719a	-0.4617559801934249
231	0x3fa818bdacd019fe	0.04706375822575025
232	0xbf8302c09493946f	-0.009282593282885025
233	0xbf7aff71c0960ee1	-0.00659126696098486
234	0xbf2a7b2cd89aa92d	-0.00020203516424050755
235	0xbf8cd84d907ea54b	-0.014084440204742995
236	0x3f877037e67e82b0	0.011444508287071414
237	0x3f8b2c502346a215	0.013268114162955627
238	0x3fad653725161c02	0.057412837292808674
239	0x3f87784cf4fe4a4c	0.011459923960306949
240	0x3f96afe6d143fee0	0.0221553864694205
241	0xbf55c5fccdc5362e	-0.0013289421832100123
242	0xbf96a03678318ee1	-0.02209553822139199
243	0x3f7776b01c69de81	0.005728424008900058
244	0xbf71edc24435804c	-0.004377135136877607
245	0xbfaae59a740c8e50	-0.05253298441519105
246	0xbf868ec2ac9b072b	-0.01101448144197866
247	0xbf80bd398bc907a2	-0.008173417642982465
248	0x3f90aa09d3047b29	0.01627364492844233
249	0xbf9a4825711c4cab	-0.025665841129989413
250	0xbfc275de48bfcce2	-0.14422205497940072
251	0x3f9c539f707154cb	0.027662745702703256
252	0xbfd6f5d891e15579	-0.35875524755586913
253	0x3fb4c2ede7a0a98d	0.08109938530893697
254	0x3fb823a89401202d	0.09429410565746883
255	0x3f9c57292d302d87	0.027676242240017437
