weights/vsself3/vsself903_theta.npy (npy, 65152 bytes, 1 tensors)

array f8 [8128]
000000 a7 8a 4b bf fd e0 0d 40 21 fd 6d 61 55 35 d0 bf
       3.734858984463546 -0.25325521959890024
000010 9b f1 dd b8 a1 08 02 40 c7 ed 2c 5f bb 01 ab 3f
       2.2542147104961265 0.05274758850870458
000020 d6 27 6d fa 18 b9 fe 3f 50 fd f0 29 53 60 e3 3f
       1.9201898367195915 0.6055084056060114
000030 b5 99 33 89 ab c6 c4 3f 67 03 08 71 f5 91 87 3f
       0.16231292914672016 0.011508862983647906
000040 c6 6d 84 de f1 74 ee bf a3 e4 5c 17 15 73 f1 3f
       -0.9517754884758964 1.090596286069094
000050 c4 23 2f 51 6b 43 cb 3f ca a0 97 43 c0 9e a9 3f
       0.21299497093266784 0.05003929925061497
000060 87 9b 3b 39 1c 9a e6 bf af 46 14 65 a7 3b eb bf
       -0.706312286169905 -0.8510319685176081
000070 a4 b0 52 06 ac 60 fb 3f 28 26 a7 ac 46 d6 8d bf
       1.7111015555374616 -0.014568855422925145
000080 9d ee 08 dc 9a 7a b5 bf 77 3e 53 11 fe 62 a1 3f
       -0.0839020526117857 0.033958377470864436
000090 52 ce 79 67 2e 28 b9 3f c7 b8 61 38 e3 41 e3 bf
       0.09826936746849782 -0.60179291736656
0000a0 8d 98 9c 04 6a 81 0b 40 2d f6 2b 4e 3e 55 b9 bf
       3.438190494564941 -0.09895696075906164
0000b0 16 17 7a 41 45 fb e0 bf 58 7f 89 c4 db f0 8a 3f
       -0.5306726721616737 0.013154713569008145
0000c0 85 75 87 b9 fd cf c1 3f d0 14 ba 00 68 1d b3 3f
       0.1391598850158681 0.0746674539351091
0000d0 9c 2d 4d 50 99 51 b5 3f 54 3e 0f a5 64 00 04 40
       0.08327635012135776 2.500191964652723
0000e0 97 9c 78 a2 99 fc bf bf 32 ce bb 6e f5 51 fb 3f
       -0.12494812218266059 1.7075094533473814
0000f0 86 ec 59 14 9c 08 d3 3f 5a 57 2d 91 06 9c e2 bf
       0.29740049350193265 -0.5815461001863966
000100 1b 7c bd 25 d8 8c c0 bf 72 f9 dc 7c db 13 e0 3f
       -0.12929822771818142 0.5024239958509453
000110 88 5a b4 c3 51 27 13 40 7a c2 8b 14 54 fe e3 3f
       4.788397844202912 0.6247959519660775
000120 55 d2 af 13 7d db b7 3f 9c 01 5a 48 3d 32 d6 bf
       0.09319287996897548 -0.34681636872849153
000130 25 a3 54 5a 41 e3 e3 bf ff 35 4c 2d 66 63 db bf
       -0.6214911236066639 -0.42794184135058794
000140 34 c8 be ca ed b1 c3 bf f8 4e 84 5b 42 c0 d7 3f
       -0.1538674583403591 0.3711095708579104
000150 11 34 6f 90 42 fa bd bf be 05 6b 84 ab 93 cf bf
       -0.11709991480093175 -0.24669403043485078
000160 3a e1 93 f4 f5 f2 af 3f 18 58 fc 66 15 ea 92 3f
       0.062400518518133954 0.018471083079099143
000170 12 ca 28 e3 a2 fa a0 3f e4 4c 96 88 15 ee ba 3f
       0.033162203053866204 0.1051953752960802
000180 31 fa 51 f9 85 f5 a8 bf 8b 84 f7 fa 49 0d d4 bf
       -0.04874819439372791 -0.3133110953186324
000190 90 ae 5c 6d 9e aa cd 3f 29 d4 7f d1 38 ef b9 bf
       0.2317693742746667 -0.10130648722390902
0001a0 bd a3 28 5c 2a 58 df bf 95 d5 77 0e bd 9f b0 bf
       -0.48975619315984514 -0.06493741610741773
0001b0 c8 bd 28 df 7e 83 e2 3f c8 ca ae 14 eb 7d cd 3f
       0.5785517080857341 0.23040522107984018
0001c0 8e e1 f5 70 0e e2 d7 3f a3 bd 13 39 be 1f a8 3f
       0.3731723883752459 0.04711718031637282
0001d0 7d b3 ff c4 b2 a3 b6 bf 4f b5 14 23 60 17 ef 3f
       -0.0884353381113225 0.97160345889794
0001e0 73 c2 c3 0c 49 c0 c6 bf e8 41 e0 c2 7b 9a ca bf
       -0.17774308322215723 -0.2078394605200764
0001f0 69 0e 25 f7 fd 51 c9 bf cc c6 95 10 d1 62 cb bf
       -0.1978146988641243 -0.21395314512078867
000200 b7 68 d6 7d ff f5 c9 bf 12 98 1a 71 ad c5 e9 3f
       -0.20281976360712914 0.805380555063268
000210 aa 82 b6 e8 26 3a ad bf 50 ef d0 a8 80 0e e7 bf
       -0.05708428946241402 -0.7205203339758359
000220 95 ba 26 81 a4 31 b2 bf 02 cc f8 79 2e e6 f9 3f
       -0.07106998589618237 1.6186966671491523
000230 64 75 45 53 33 44 d4 bf 34 dc d1 bf d9 4c b2 bf
       -0.31666262752499663 -0.07148514683818591
000240 08 12 9f c2 52 01 dd bf 58 57 bd 42 d1 5e ea bf
       -0.4532057667350107 -0.8240743926532828
000250 25 57 05 8d 43 54 c3 3f d2 be 32 bf ca d4 cb 3f
       0.15100902925285556 0.21743139587260046
000260 ff d2 d5 fd 71 43 f2 3f ce 5a 62 a1 09 9b f8 3f
       1.141466132682751 1.537850981146835
000270 25 b9 19 17 ff b1 b0 3f fd c8 c6 de 20 a3 e9 3f
       0.06521601022698016 0.8011631346801377
000280 2d 17 7d 9d 77 69 d4 bf 4a ac 4d 46 91 77 a2 3f
       -0.318937209889884 0.03606847747035909
000290 3e 99 ab 58 5c 3f d0 bf c9 b2 ab 46 06 ff bd 3f
       -0.253867231933686 0.11717261529310997
0002a0 19 27 b2 de fb 31 d1 bf 4e 1a a6 8c c7 2f f9 3f
       -0.2686757731213319 1.5741649145217198
0002b0 6b 08 fa ff 72 8c c9 3f 8b ee 50 63 7d cd d5 bf
       0.19959866999494422 -0.3406671018490008
0002c0 77 9c 0e d9 51 d4 c9 bf 1a 4d 9e 3e 55 ee e7 bf
       -0.20179198359003056 -0.7478433821692392
0002d0 4f 07 e6 22 9b 81 da 3f 02 a0 21 fc 96 18 c9 3f
       0.41416052253781727 0.1960629206762406
0002e0 ba a1 cd aa 42 9d 83 bf ad 4e ad 19 fe 3c d6 3f
       -0.00957729419469976 0.34747269160764455
0002f0 b9 cc cb 70 d6 8a a9 bf 27 d9 df 0e 02 a0 86 bf
       -0.049887372273496884 -0.01104737861531342
000300 66 69 d8 d2 76 d1 d9 3f 75 30 f9 06 f4 73 c5 bf
       0.4034096774136259 -0.16760111179826578
000310 4d 80 76 48 72 94 ff bf 3a 3f 33 a7 cc 7d e1 bf
       -1.9737418013173909 -0.5466063752773842
000320 3c eb 75 ea 81 19 c0 bf 3a 3f de 9a 3b 67 91 bf
       -0.12577842663071148 -0.016995364501382705
000330 c7 bf d5 53 db 59 e6 bf d0 08 e4 4b 59 18 e9 3f
       -0.6984688413049235 0.7842222673646351
000340 26 52 57 5f 65 63 9b bf dc 97 31 6e da 73 9d bf
       -0.026746353096159713 -0.028762257552806023
000350 ff 62 99 a4 03 3a be bf 7e 80 0c b8 8e 57 a2 bf
       -0.11807272690328928 -0.035824260680102235
000360 28 18 ca 6c eb b9 cf bf d3 17 a2 e9 30 6d d0 bf
       -0.24786131679519596 -0.2566644937108979
000370 73 7b 7a c6 9e ee e3 3f 55 73 6f bc b1 06 c1 3f
       0.6228784443409111 0.1330167932600498
000380 6d 40 89 c5 3f f4 a4 3f 93 9f e1 ee 08 14 c5 bf
       0.040925972808168655 -0.16467391647460924
000390 3e 5d e9 12 70 88 b6 bf 22 98 a6 a8 90 5b bd bf
       -0.08801937543590996 -0.1146784221405999
0003a0 70 86 5c 50 50 5f d1 bf 31 03 1e e6 51 ea cb 3f
       -0.2714424881724886 0.21808837639039205
0003b0 8e d5 3b 07 1c f9 bc bf ee a8 d2 99 1e bc e3 bf
       -0.1131761090908496 -0.6167138103822063
0003c0 84 db 51 01 dd 1a d3 3f ec c0 e5 bd 3f 92 cc 3f
       0.2985146057975998 0.22321316501939437
0003d0 98 3b 5b b8 7d b4 d5 bf 62 cd a0 41 4d e8 cb bf
       -0.3391413021426444 -0.21802678780077672
0003e0 26 be 30 d4 3d e6 cd bf b6 54 5a 23 09 0d d6 3f
       -0.23358891354426808 0.34454563572337393
0003f0 da 09 64 65 b2 f2 9a bf 7f 83 ff 71 79 b7 c2 bf
       -0.026316440046693625 -0.14622419420541274
000400 74 f9 6b d0 33 fb 99 bf b0 20 ab 83 00 80 cf bf
       -0.025372323604636773 -0.24609381131290808
000410 14 dd a6 a9 af 38 c6 bf af b5 d1 f6 91 a8 d1 3f
       -0.17360492500095204 0.27591370681224253
000420 96 c1 af be f8 83 d6 bf 73 f7 79 a0 0d ee c3 bf
       -0.3518049108670537 -0.15570230804217608
000430 b9 0a 40 24 e5 1e d1 bf 90 2c cc 91 dd db da bf
       -0.26751068630270997 -0.4196695255092857
000440 69 58 db 74 84 19 cc 3f 32 9f 5d 9a 60 09 d2 3f
       0.2195287294950419 0.28182234835411457
000450 c4 ce 80 fb a2 23 a7 3f ca e9 68 05 b4 d9 d9 bf
       0.045193761063641286 -0.4039125492887733
000460 aa 1f 24 2a b7 cc c7 3f 5a c1 91 0e 6f d2 c2 3f
       0.18593492086097047 0.14704693042177547
000470 16 d1 39 f6 22 ed b6 bf 3f 35 4c cb 6a 9b e3 bf
       -0.08955591689465722 -0.612721821847721
000480 53 42 46 fc 1b 87 b3 3f 83 35 e7 62 65 5c b1 3f
       0.0762803545860689 0.06781610169055878
000490 03 9a fd c7 7f 49 c6 bf 04 17 69 de 4d fa fb 3f
       -0.17411801591079276 1.748609417716069
0004a0 0a 18 48 3a 8c f5 d2 bf f8 f8 a7 54 e8 73 cf bf
       -0.29623704616130964 -0.24572471746063917
0004b0 c3 9d 56 c0 a2 25 e2 bf cf 18 49 c1 cc c1 d2 bf
       -0.5670942074402138 -0.2930786025575686
0004c0 9d dc e2 79 e9 08 be bf 52 0c 26 55 fa f4 b0 3f
       -0.11732348657357013 0.06623806551765313
0004d0 2b bc 66 52 26 94 b2 3f 61 e4 22 10 c9 df c7 bf
       0.07257308494330121 -0.18651688850312367
0004e0 47 28 59 a9 fc 96 db 3f 21 d1 c0 c8 81 b9 eb 3f
       0.4310905126373012 0.8663948937378657
0004f0 c6 e1 74 34 4f 75 ea bf 26 4f 69 69 47 6d 9b bf
       -0.8268199944059738 -0.026784053620146818
000500 dd 60 20 09 ff 7d d3 bf f5 88 0c 37 4b 51 89 3f
       -0.3045651997686159 0.01236208688493832
000510 17 97 50 34 23 66 b8 3f 98 00 3f f5 99 42 59 3f
       0.09530849482743196 0.0015417579170247438
000520 10 ca 50 97 81 0b ec bf ee e5 d9 a9 2e 56 bf 3f
       -0.8764045672781453 0.12240878721959067
000530 79 e0 f5 55 67 ab c5 bf 8b fc ad 86 ca 70 c2 3f
       -0.16929332444465553 0.14406711174158135
000540 13 cf 5e 13 49 f4 66 bf 86 4a bd 26 a3 8c c0 3f
       -0.0028020312556352816 0.1292919100911442
000550 e4 67 78 d5 3a 3d dc 3f 49 4a 9a db 40 fc cb 3f
       0.4412371716185801 0.21863566134250537
000560 ed 66 30 75 c2 13 c8 3f eb 87 38 1e 9d 8e d4 bf
       0.1881030151569613 -0.3212044520497545
000570 12 11 95 55 74 31 a2 bf 78 df 3e 9d a0 d7 c6 bf
       -0.035533557364518256 -0.17845542600639042
000580 ad f7 4c be 8e 67 e0 3f 1e 8f 14 26 5d 12 d7 bf
       0.5126413075265553 -0.3604958412054077
000590 36 09 3a 0c 61 17 ff 3f 70 49 a2 ff f3 42 7f 3f
       1.9432077863317097 0.007632210845388662
0005a0 ff fb 8f 17 13 a7 97 bf 1e d4 08 30 15 57 cd bf
       -0.023098276436936512 -0.22922005505975646
0005b0 ab 01 fa e2 2b 90 ca bf 8f 15 22 e7 65 b1 e5 bf
       -0.20752476294366082 -0.6779050363845033
0005c0 0d f8 14 55 e0 f3 e0 3f de 0f 1d 65 9d 34 f1 3f
       0.5297700559383444 1.0753454160449034
0005d0 f7 c4 14 f4 4c 8c b1 bf 80 9f 47 76 44 41 b5 bf
       -0.06854706725131963 -0.08302715194406396
0005e0 85 8c 89 41 58 0d d5 bf 7b 3f b2 6c 5a 8b e5 bf
       -0.3289394989025783 -0.6732608912443391
0005f0 ba e4 8b fd 94 46 c2 3f a4 71 08 36 bb e4 ae 3f
       0.14277899151037393 0.06033883127767872
000600 4c fd 4c 57 01 5c d4 3f 2a a2 9a e7 06 ca b9 3f
       0.31811555409872905 0.10073893694301064
000610 75 2a 06 f0 2f 43 d9 bf 04 02 ae 7a 16 f9 d6 3f
       -0.3947257846818169 0.3589531133693813
000620 7d 56 63 5f 7a cb 8d bf b8 e1 0c b3 57 38 d8 bf
       -0.014548259769451061 -0.3784388779199861
000630 a0 07 ad d7 96 87 a3 bf e9 29 3c 6f 4f 4a b0 bf
       -0.038143838718055934 -0.06363388505648228
000640 41 39 46 b4 5d 00 a3 3f a4 11 75 31 e9 74 d5 bf
       0.037112167602674 -0.33526067571463103
000650 05 79 1c 27 cf 29 e0 3f e6 62 5b 18 cd ba da bf
       0.5051036609545753 -0.4176514375554191
000660 2f dd 10 6a 42 41 c4 3f 70 ec c2 4e 67 7b bb bf
       0.15824155978200724 -0.10735173867117154
000670 e4 c6 7c b1 eb f1 de bf 4d 51 c8 3a da ee c2 bf
       -0.48351566632037035 -0.1479141985916023
000680 47 b1 79 44 17 5e c3 bf a4 bc 4f 32 16 46 e5 bf
       -0.15130892604373455 -0.6648055060049001
000690 8d 54 9a 4f 3f dc ce 3f 13 19 b8 b0 f5 ac 8f 3f
       0.24109641444070853 0.01546661325029367
0006a0 d3 08 32 1a c1 2e b4 3f 7e 31 ae 2d d4 de cc bf
       0.07883841409241947 -0.2255501959847485
0006b0 ea 0e d5 69 7b 09 d9 bf a4 1b 4b 0b 14 91 f3 3f
       -0.39120374045545125 1.2229195061824862
0006c0 f3 7c d1 4d e3 d0 84 bf bc 02 a8 68 64 24 d0 bf
       -0.010164047062231485 -0.2522212049516772
0006d0 b9 fd 7b e7 87 b7 b6 3f 9d cf a1 27 2e c3 b3 bf
       0.08873795892213011 -0.07719696490840851
0006e0 05 66 85 71 fd af e4 3f a0 0c 60 0e 4d 7e e3 3f
       0.6464831559380292 0.6091676026120645
0006f0 60 f8 c3 d2 ab cd b0 3f c5 21 b5 d3 bc 64 bd 3f
       0.06563829322473813 0.1148183838714721
000700 2a 17 a7 08 ec 8f c4 3f ac 5f 54 50 ab 1b 85 bf
       0.1606421510934351 -0.01030668105026663
000710 1b 70 c8 03 ba 84 e1 3f 09 1e 73 0f b1 83 ab 3f
       0.547451980007739 0.0537391024932355
000720 77 b9 5f ab ce b2 c2 bf d1 bd d8 da 82 d6 ef bf
       -0.1460817658220994 -0.9949354433392107
000730 42 4c 8a 84 24 80 f2 bf 13 c0 c5 16 8c 28 d3 3f
       -1.156284826026209 0.2993498060595822
000740 4e f1 37 2d 39 3d ae 3f 0c 22 57 54 1c ad d0 bf
       0.05906084706291158 -0.2605658362995491
000750 63 6c 68 0e 96 9e b2 bf 1f 97 ad ea 15 b6 cc bf
       -0.07273233272319284 -0.22430681189433074
000760 fe fd 55 ad d1 7e cf 3f 7b 6a 97 f7 8d 80 be 3f
       0.24605771030108764 0.11914908690179431
000770 9f 76 36 c6 00 81 dd bf 34 05 06 58 f0 0c 91 3f
       -0.46099871975625634 0.016650920269517047
000780 c0 20 0a 6b fb ed c8 bf 9e 68 ab 14 5d e9 c4 bf
       -0.19476263739148258 -0.1633716917920695
000790 26 b7 49 0a ac 64 d2 3f 9b 45 50 98 3b 73 d1 bf
       0.28739453320200636 -0.2726582515179758
0007a0 41 09 0e 5c db 15 ca bf cd 9e 99 28 5e 99 e3 bf
       -0.20379201884140666 -0.612471656128912
0007b0 df 9a 81 db e5 92 e2 bf 4d 8b f7 a1 f6 3a c6 bf
       -0.5804318701965164 -0.17367442043822692
0007c0 6d d2 d3 b8 c9 a1 92 3f 10 a3 7b 2c 82 b0 d7 bf
       0.018195297151537938 -0.37014822334326514
0007d0 88 f8 64 a9 de ea cd bf 3a c0 d5 06 71 33 e1 bf
       -0.2337301566239527 -0.5375294812674902
0007e0 81 0d 8a 71 7a de f9 bf f1 ea ef 3c 98 28 d7 3f
       -1.6168159899833372 0.36185270262619357
0007f0 ff a4 75 26 cb db cf 3f d2 cf fb b0 c2 9a b2 bf
       0.24889506700427685 -0.0726739580239262
