weights/vsself3/vsself773_theta.npy (npy, 65152 bytes, 1 tensors)

array f8 [8128]
00000000: c577 7c64 09c5 0a40 cbf8 dcf9 3b9f d0bf
00000010: ae0e 2066 6f28 fc3f 1a26 aebf 3af6 abbf
00000020: 8164 0c7d 4862 f63f fe2b 30b3 d1ce e43f
00000030: e142 5d86 4e69 c03f bd0b f527 09a0 c63f
00000040: 7315 99ad 8865 e4bf 9f81 527e 8c88 eb3f
00000050: 519d 9764 e5ea c33f 165c 0009 b637 a0bf
00000060: 1081 ff9a f086 e1bf 6e58 1b4f 522d e2bf
00000070: c670 a154 a75c fb3f a50d 9551 d407 8abf
00000080: f623 ef69 c2b9 b1bf 1989 da60 4b65 72bf
00000090: 8a1c 68b6 0540 b43f cbe8 86b0 4c13 e1bf
000000a0: 6957 4975 37f4 0a40 4008 a3b3 3c13 b8bf
000000b0: e543 f13a 8477 dfbf 924e e0de c2a9 b23f
000000c0: 6fa4 bea8 fcb2 c13f 4e3b 7263 8a29 96bf
000000d0: 33a9 50dd 5fd8 b53f 2334 c618 1135 fe3f
000000e0: 8385 fcb3 3306 cebf f0b3 6607 7b99 f93f
000000f0: 7434 ee40 8f87 d13f 950c b8d0 c953 e5bf
00000100: 44bf a518 50cb babf 8913 caa0 f35b df3f
00000110: bf7a 3d3d c4c6 1040 17a0 c0de 8305 d43f
00000120: 08da 200c 551a b23f c7fb e408 9fed d2bf
00000130: 2b11 acfb 2daf e6bf 52c1 a57e 2f42 d3bf
00000140: 03eb fd84 7d79 bbbf 88ca ce97 968e d53f
00000150: 4603 b04d 6c54 babf b559 0fa3 b2d1 c8bf
00000160: d98e de62 04d0 e33f aa1f b8bb 69f1 8f3f
00000170: c1fe 4be9 9734 9f3f caf0 ca59 574f b53f
00000180: e905 e16c 0e1b b7bf 6739 9e1f 3b88 d0bf
00000190: 835c 2c88 a9bb c93f 3262 83d2 fbdf afbf
000001a0: 5124 fe81 2f2f e0bf 92d9 86e0 0262 adbf
000001b0: 0310 43be 451b dd3f 7ae3 2589 a933 bf3f
000001c0: 0d27 788a 848a cf3f 43aa 6b1c 17ed c13f
000001d0: 90d1 81f9 0058 b7bf e45e b3c9 ba3d ea3f
000001e0: b499 1979 119e a43f 3ef5 3827 6d21 c3bf
000001f0: fbd8 eb71 b15c c5bf 27b3 c9d9 e968 b1bf
00000200: 6eb3 2c28 c64d c7bf 2fe8 80e6 6117 ed3f
00000210: 5fba e131 892c b0bf f8ff c8b7 cbfd e1bf
00000220: 4d3a 4a80 1e0b c0bf d1fb 478e 1d89 f63f
00000230: b110 55df 54d6 cfbf e61e 3953 8249 acbf
00000240: 5f56 1f77 e375 debf fb4a e320 f1b3 e9bf
00000250: fddb 9fcf 0f8e b63f c289 ff5a 93b7 ca3f
00000260: 5b46 1b67 1669 f43f 7879 f803 9e76 fc3f
00000270: 7e42 3931 9aa9 ae3f 8553 998b 4a0b e43f
00000280: acf8 7f7c c8e4 d3bf e9ac f1bf 68b8 b23f
00000290: 8297 aa7a b8b4 cebf d6ad d622 82ff c53f
000002a0: 8514 973e d422 d0bf 623a cd96 934f f73f
000002b0: 0ed0 261d a390 c83f 21bf 4e36 f2ce d2bf
000002c0: 5293 1b4f 10f3 c8bf 1500 ab32 b81f e7bf
000002d0: 4134 6869 0f9e b13f 8f43 08b0 eeb4 ba3f
000002e0: 985d dc52 715c bc3f 75d9 bc32 afb5 d13f
000002f0: b6ed 453b 18e6 b2bf f0c1 b569 79ae 96bf
00000300: 38cd 8cb0 bcf1 da3f b97e 03ce 9b89 bebf
00000310: a678 becc da28 fbbf ae7d 1927 3aed d9bf
00000320: 975c 4c54 0ed1 b8bf 0720 c807 03ff 863f
00000330: 2ac1 7192 679d eabf a75e 66c9 0c68 e03f
00000340: 7836 e2cb d76a 8d3f 67e2 026d 0ca3 b2bf
00000350: a5a9 0614 02c3 b0bf c375 2717 a21b b23f
00000360: ce8e dc35 b96f d1bf 268f 6dbb 8c25 c9bf
00000370: d756 8d8c e125 e33f 91a1 e630 7e60 913f
00000380: 42b5 9cea 31d0 b03f 832c fb6a 0a25 96bf
00000390: 8861 3f42 2227 93bf cb00 ad1b 0397 c5bf
000003a0: 3e56 5a3a e194 c7bf 1735 46c7 9561 a83f
000003b0: 9c9f 9170 fe09 c4bf 14cf 8d86 c40b e0bf
000003c0: 5fb9 48a0 4f9a d23f 9560 b8a1 c24d d33f
000003d0: 3c5b c64e 6716 c8bf 62cc 2a02 40d5 c7bf
000003e0: 32aa 0d1f 2860 c2bf 812a 5a05 6635 d33f
000003f0: e660 16a7 0d55 92bf da68 6e57 078f a3bf
00000400: f41c 8161 b75f 95bf e250 07b5 02c3 cabf
00000410: 8e14 e9a8 4bfa c2bf c90f 45ce 8014 cb3f
00000420: d945 cf60 9800 d4bf 58ee 018c eeee b0bf
00000430: 2033 0917 55a6 c5bf 6abc 5a3e 8538 d1bf
00000440: b746 369c 6203 cd3f 6bfe 54f0 1457 d03f
00000450: 53f0 6856 f671 b33f 17a4 8987 cdf3 d8bf
00000460: 5b1c 33d4 f458 d23f 0647 5dde ef27 b23f
00000470: d625 0fbf e499 6a3f 36c5 1ad8 a8de e0bf
00000480: d505 fcda 708a 9c3f 8928 e47c 0038 893f
00000490: 0e3b 22c8 1650 cabf adb1 8f79 8c7d fa3f
000004a0: 9c7b 749c 9321 d7bf 7158 be62 09f0 cfbf
000004b0: 554f bbed d570 debf 998d d7c2 743a cbbf
000004c0: df57 f330 31ce c63f e44f c57b 380e b63f
000004d0: d57b 5bc8 d69b aa3f 2353 2e9f 0d60 cbbf
000004e0: c472 9faa bdd4 dd3f 735c 371f 9030 e63f
000004f0: 7fbb 0a4a 3605 eabf 3520 1d9e 3875 99bf
00000500: e3bd f6e7 cb79 c8bf 4eb0 b00b 51d4 aa3f
00000510: 6c6b 717b 1d18 bf3f b46d f3ed c33d ae3f
00000520: dd30 434b 80eb e9bf e1a9 91e6 a6a9 bb3f
00000530: 0445 ed14 8f70 cdbf 5772 3ef3 1864 bd3f
00000540: f27f ec46 b2f9 8a3f 7f3e 7e7f fe08 b23f
00000550: bb6e 1437 2ed2 e73f 4dc2 18b2 d138 cb3f
00000560: a128 2f3a 59dc c53f 2cfa 746b c4de cdbf
00000570: c6ad 3f87 d5ee ae3f a174 7283 a594 ccbf
00000580: 3746 f890 ac81 e03f e672 5b55 660f d6bf
00000590: 063c 74cb c7d2 f13f 9047 6578 4d5c 903f
000005a0: 542b db26 cfd2 9d3f 0276 396d 3c21 cabf
000005b0: e027 032b f5c2 c2bf d04b d2c0 26fd e4bf
000005c0: afc3 c7d8 01a0 cb3f 63bb 5a02 e504 f13f
000005d0: 12c0 1d65 1567 b2bf ea81 aafc 5ae3 b9bf
000005e0: cdc1 d9d0 2ea1 d5bf 2d41 cb5a 1a20 e3bf
000005f0: b8f9 c6a6 0852 ba3f 7511 2696 5fa3 893f
00000600: a0a7 6428 d23b c93f 1590 549c d4c6 9bbf
00000610: ff01 2825 fda3 d7bf 9679 002b e98f d83f
00000620: 740f 9db1 8d8e a2bf ba5b 5730 ce16 d2bf
00000630: 45bd 27e8 6c33 853f ed17 3f3f 2651 c1bf
00000640: 2481 22d8 e741 b13f 040b 8311 9efc d3bf
00000650: bf44 5f18 f74b d73f f8a6 842c f8f0 d5bf
00000660: dc09 7bb1 2d9c c13f 28a2 2b15 91bd 81bf
00000670: ba4f 2eaa 2614 dabf 5b03 5c69 2c3c b23f
00000680: fbc1 9558 31e1 cdbf 611e e2b8 d875 e8bf
00000690: 4922 c3b4 7756 cc3f 80db 271e 4bd0 8d3f
000006a0: 5d0a 30bf cd2e 82bf 3dcb 05d6 7d8c c0bf
000006b0: 248d c1aa 9fec d5bf de3e efaf f64c f33f
000006c0: cc67 3012 55a3 9fbf f112 4a37 db10 c3bf
000006d0: a798 32e7 b1af b03f 8ccb ad16 e3cb 3abf
000006e0: f5c7 81f6 3d3a e93f 6659 35bf eeea e53f
000006f0: c36c 1719 9980 a73f 3633 b6f6 9480 c13f
00000700: f15f b820 6bf0 cb3f 22a8 7efa 8569 a33f
00000710: c9ac 3126 d26d ec3f fbbb 11f7 9d85 b33f
00000720: 1d0d 8560 248a afbf bd2e aa62 7835 efbf
00000730: d50b 3f4b d4c0 f5bf 3ed4 56b3 475b d33f
00000740: ace5 6403 69d4 aa3f ab92 d5c0 7661 cfbf
00000750: 0822 5390 aca9 b0bf 9a3a 17a9 7d7f cebf
00000760: 8b53 d98d ddd5 cf3f c2c0 4f77 471b bb3f
00000770: 4f01 d612 48ce e0bf 3f13 ce42 ea9b 9e3f
00000780: d43b d100 008d c9bf ad75 9ea1 d020 c4bf
00000790: d1fc efff dec2 ce3f 8712 963c d310 d2bf
000007a0: 3f0d 0030 34c2 cbbf 9f64 5f32 c6a4 e3bf
000007b0: 0039 f3a6 b01d e3bf 0e0e 7f62 d79c c2bf
000007c0: f9f7 5968 3cf7 a23f 1f7a 03f0 6a49 d8bf
000007d0: ac50 8f62 b7c9 d0bf 524a 966e ea90 e1bf
000007e0: f711 8a7b 4a90 01c0 25cf a46a 06c6 d43f
000007f0: dbc0 b160 cc7a c93f edb5 b5a0 804f c3bf
3.346209321068246 -0.25971888924312897 1.7598718632952273 -0.054612956903906176 1.3989949116424045 0.6502464771050425 0.12821370659596368 0.17675890399013197
-0.6373942747674576 0.8604185549957498 0.15560595905047106 -0.031675041769794784 -0.5477221514993591 -0.5680324120574036 1.7101205163844937 -0.0127102458378719
-0.0692407139423635 -0.004491133162135585 0.07910190299308986 -0.5336059043686644 3.3692464030272515 -0.09404353509583618 -0.49166970974061847 0.07290285054505777
0.13827474822508942 -0.02164283973666708 0.0853328624076866 1.887955757879589 -0.2345642689552215 1.5999708451374737 0.27389890042179066 -0.6664780689756237
-0.10466480828995112 0.48998728468023295 4.194107968213472 0.3128366160694908 0.07071429773427707 -0.2957532488689449 -0.7088842311355043 -0.3009146439353759
-0.10732254502174148 0.3368278963563758 -0.102850693670928 -0.19389946901237712 0.61914271650718 0.015597177544819225 0.030474065412817056 0.08324190084653363
-0.09025659712008118 -0.2583148773927832 0.20103949688993702 -0.06225573487035198 -0.5057599581642852 -0.05738839140706199 0.4547895772959693 0.12188205335941218
0.24641472588728455 0.14004792106364236 -0.0911865815303996 0.8200353564706941 0.04026846507331375 -0.1494575921550822 -0.1668912702804802 -0.06800710265242725
-0.182060975662718 0.9091042997381517 -0.0631795641690842 -0.5622309293321441 -0.12533932937772577 1.4084754522188982 -0.24872837929627203 -0.05524832979113885
-0.4759453452400972 -0.8032155649510452 0.08810519045788108 0.20872728293677595 1.2756561305617626 1.7789592890836428 0.05988771296381844 0.6263783194104781
-0.3108388152903767 0.0731263607610121 -0.23989015569275912 0.17185999585249928 -0.25212579834289556 1.4569278612795178 0.19191397593897402 -0.29388099006154006
-0.194917715670409 -0.7226220121010579 0.0688180572835373 0.1043233089224158 0.11078556321114374 0.27671413378575177 -0.07382346579645724 -0.022149941517854488
0.4210044597741276 -0.11928724078779397 -1.6974742887319194 -0.4051041967231538 -0.09693994100631396 0.011228583979587382 -0.83171442606366 0.5127014096824113
0.01436394301370146 -0.0728004232540883 -0.06547558773914959 0.07073414864813458 -0.27244405994336496 -0.1964584269691098 0.5983741517217948 0.016969653830217594
0.06567680337748974 -0.021625674037562447 -0.018703971188956753 -0.1686710248122892 -0.18423095082532542 0.04761951501414268 -0.15655498978162263 -0.5014364841467533
0.2906683984064297 0.30162111084929083 -0.1881837019579623 -0.1861953745443286 -0.1435594703319381 0.30013418696095334 -0.0179025777084413 -0.038200597212566925
-0.020872941328232877 -0.20907625045095474 -0.14826341388303316 0.21156320640341011 -0.3125363297850448 -0.06614581030037792 -0.1691385614853056 -0.26907473649311575
0.22666580798663968 0.25531505079195566 0.07595767602555385 -0.38988054500674835 0.2866794655096265 0.07092189005677704 0.0032472102834375334 -0.5271801205437103
0.027871859899283386 0.012313846408251077 -0.20556912204889283 1.6556515453804466 -0.3614243533974617 -0.2495128376146485 -0.47563694206222823 -0.21272143853921646
0.17816748514331857 0.08615448972460588 0.05197020717400106 -0.21386881134517308 0.46610967314135743 0.6934280976955861 -0.8131362386828725 -0.024861225748537847
-0.1912169344554818 0.05240109698965566 0.1214617182135222 0.0590649822204016 -0.8099976987810141 0.10805743340612352 -0.22999752542322238 0.1148086160523659
0.01317157057707161 0.07044973957658306 0.7444068027284269 0.2126714820492616 0.17078700390840587 -0.23336081740304004 0.06041590953813229 -0.223286332305098
0.5158293563310455 -0.3446899255339261 1.1139600703643295 0.015977106545797037 0.02912448572787281 -0.20413928349709926 -0.1465746364613656 -0.6559022680324862
0.21582053265549692 1.0636949626893617 -0.07188543051393051 -0.10112541836361513 -0.33796282191817967 -0.5976688168830485 0.10281423637113718 0.012518641252207566
0.19713808986972214 -0.027125665704389307 -0.3693840849737455 0.3837836189212792 -0.03624384682782891 -0.2826419326860862 0.01035199244958441 -0.13528898323255537
0.06741189028480626 -0.3122935458197136 0.3640115488061148 -0.34283260676839644 0.1375786892513834 -0.008662351091929102 -0.40747992152432355 0.07123067447902313
-0.233434837583914 -0.7643855677606092 0.2213887817981848 0.014557444436815947 -0.008878333470424932 -0.12928746176074837 -0.34256736445805047 1.2062899467891195
-0.030896500811742375 -0.14895191383052223 0.0651808919379585 -0.0004088811316968414 0.7883596243466388 0.6849282965220425 0.04590300017636075 0.13673650785895014
0.21827448938051888 0.0379144542960861 0.8884058710076711 0.07625758439984047 -0.061600815565294044 -0.9752771307989502 -1.3595774592692937 0.3024462939604894
0.05240181127960439 -0.24516186156974604 -0.06508902095368552 -0.23826571232207955 0.24871415544717154 0.10588499701384804 -0.5251808517350954 0.029891643836452927
-0.1996154788962189 -0.15725143329193028 0.24032199379869337 -0.282276925245505 -0.21686413139114255 -0.6138640388336575 -0.5973742733711163 -0.1454114180506711
0.037042510736668484 -0.37948106230570205 -0.2623117887972153 -0.5489399108794919 -2.1954545642386125 0.32458649076873974 0.19906000825313339 -0.1508637222972732
