weights/vsself3/vsself421_w.npy (npy, 65152 bytes, 1 tensors)

array f8 [8128]
000000 01 d4 65 7c 7f 95 f5 3f 6b 69 6c 82 ad 85 48 bf
       1.348998533180975 -0.0007483575071518927
000010 b1 1a 69 ab 84 20 e2 3f 59 86 30 33 20 55 64 3f
       0.5664695117819375 0.002481997385545037
000020 39 cb 73 1e 0a 65 a7 bf 1b 88 47 b0 66 df c3 3f
       -0.04569274541599672 0.15525516135591108
000030 44 40 dc 68 d6 e9 6e 3f c7 21 ac e4 47 a1 7f 3f
       0.0037736118018827664 0.007722168763173837
000040 b3 be 0f 13 28 c5 bf bf 9e a8 4a 61 77 f3 c1 3f
       -0.12410212006920567 0.14024250269477972
000050 a8 b7 a8 0f f8 2e 64 3f 63 da a7 a0 73 0b 80 3f
       0.0024638028092089544 0.007834342327425142
000060 55 81 c8 b3 0a 5f b8 bf 35 3e d3 6a 47 b1 b4 bf
       -0.09520022286642889 -0.08083006246601417
000070 f5 e6 42 4d d1 76 d2 3f db 96 00 c2 84 82 46 3f
       0.28850204987575917 0.0006869457465696576
000080 6f bd ed 76 71 d5 6d 3f 34 52 52 7c 8a 14 69 3f
       0.0036418167214191037 0.003061552505253107
000090 78 1f 4b cc cb 11 63 3f 4e 4a 40 ea ed 36 70 bf
       0.0023278217725852222 -0.003958634715689314
0000a0 a0 8f f9 2b 68 4e f5 3f 93 c2 a7 67 a5 18 57 3f
       1.3316423146979801 0.00140968468496908
0000b0 74 9d 5a 39 3c 21 cf bf f7 5e 0a ca e4 41 a8 bf
       -0.24320175934301924 -0.04737772909464682
0000c0 ff b9 a6 66 b6 bf 84 3f 22 d1 b2 4c 43 06 86 3f
       0.010131287582081148 0.010754133012917114
0000d0 a4 8d 8a 2b 96 9b 84 3f 57 4b e0 f1 5f 6e e1 3f
       0.01006238289239187 0.544723484434466
0000e0 3d 71 72 78 0a 72 82 bf 26 34 aa 46 a0 0c 52 bf
       -0.009006578255416836 -0.0011016431041384138
0000f0 40 aa 3c ec 24 19 c7 3f 87 2e f9 ea 8a 84 bb 3f
       0.1804548409939617 0.1074911903062291
000100 88 e8 14 fb 20 2a a6 3f 30 98 ac 46 4c bd 8a 3f
       0.04329016747438269 0.013056369692616782
000110 5c c2 bc 07 6d 4c e0 bf 81 95 44 34 cf da d2 3f
       -0.5093293334121642 0.29460506538665504
000120 e4 33 f2 b6 ea 42 55 3f 27 55 a8 bb cd 1f 91 bf
       0.0012976925025072134 -0.016722883776386113
000130 f4 77 a8 14 53 97 a2 3f 9b a5 44 13 32 1f 8f bf
       0.036310764571894 -0.015196219647424061
000140 0c 65 cb a7 a0 19 a0 bf cb 65 d2 26 e8 ea 61 3f
       -0.031445522768715234 0.0021872076236604024
000150 b8 60 98 00 39 9a a0 3f b6 5a 05 42 4c aa a3 3f
       0.032426625559482 0.03840864473266008
000160 df 52 a6 15 ea fa a4 3f 1b e0 24 02 94 52 57 3f
       0.04097682489660825 0.00142349676077736
000170 c4 1d a3 0e 62 86 8c bf 35 c8 a1 ff 96 e6 a0 bf
       -0.013928190299693173 -0.03300926085002268
000180 29 f7 36 58 7b a1 b4 bf 92 8b 4f 43 ed 87 a3 bf
       -0.08058901694945732 -0.038146414248124164
000190 ce a2 e4 25 25 d0 70 3f 7c 59 64 b1 47 12 63 3f
       0.004104752644970856 0.002328052544849855
0001a0 c9 23 9e 54 15 c2 93 3f e3 d7 f8 98 7d 10 75 bf
       0.019295056619316662 -0.005142679801386027
0001b0 fc 79 0f d5 55 c1 b0 3f 6b a0 0f f6 16 89 69 3f
       0.0654500622908713 0.00311712727169682
0001c0 0d e8 e2 7c 95 15 89 3f 2e b6 91 4c 34 2a aa bf
       0.012248199342469257 -0.0511032432049031
0001d0 f4 0d 63 24 7c b6 bd bf a0 ad 00 70 4d 60 b0 bf
       -0.11606574905731987 -0.06396945938529663
0001e0 91 5d fb 5a 01 27 06 3f af 0e 91 85 2f c1 8d 3f
       4.2252282012429584e-05 0.014528628600721431
0001f0 71 cd ae 85 7f de 9a 3f 25 56 a4 d9 09 46 9c bf
       0.02623938802180476 -0.027610925587472707
000200 b7 a1 b4 6b c3 0b a3 bf be 9d 0e fa 9e c3 c1 3f
       -0.03719912233129057 0.13878237924403253
000210 75 67 4d 21 3b a6 8c 3f b6 ad 65 0d fc 18 9c bf
       0.01398893542652833 -0.02743905860681447
000220 6d d8 07 d3 d0 46 b0 3f 8a 06 2c f4 92 88 c2 3f
       0.06358056213488945 0.1447929088827105
000230 7d 5b f8 e3 09 6e cf bf 41 54 39 92 c4 e4 45 3f
       -0.2455456126342276 0.0006681403942346912
000240 47 b1 0f 08 2c 02 ba bf 78 8e 61 3e 3f f5 ab bf
       -0.1015956420594125 -0.054605461468580196
000250 b8 43 d9 3a e3 ba 87 bf 05 e2 dc 1d da e2 ce 3f
       -0.01158692859022091 0.24129797418733304
000260 ec 79 85 a6 5f 0e c8 3f 9d 7b 5a d8 d2 1c d0 3f
       0.18793864851882292 0.2517592537714622
000270 32 a9 34 c7 da 67 87 3f d0 27 12 35 15 d5 bd bf
       0.011428555683398931 -0.11653263612438924
000280 e7 f9 f8 ea b1 01 95 bf f0 ba 7b e4 1e 6a 90 bf
       -0.02051427838000022 -0.01602981824447175
000290 90 b1 77 2f 6c 5f 88 3f c4 db de 80 4b 9b 8b 3f
       0.011900754164309274 0.013479795332257079
0002a0 fe b5 cb f6 f9 ae c0 bf 7a 04 d6 91 f0 c1 ca 3f
       -0.1303398566300728 0.2090435707177994
0002b0 11 6c 3b e6 f9 5e b6 3f 01 e1 3f e6 08 25 89 bf
       0.08738672133351623 -0.012277669455202036
0002c0 2d db 6e 08 56 9a 82 3f 4f e0 ce 64 f7 e3 90 bf
       0.00908343518481799 -0.01649462273391605
0002d0 49 cf 8a 42 a1 49 c7 3f ae 09 22 f8 a7 c2 5a 3f
       0.18193450688488103 0.0016333237004181145
0002e0 79 9e 70 8b f8 7f 94 bf d7 87 d5 d3 d2 96 a5 3f
       -0.02001942015718192 0.04216631732812431
0002f0 71 73 24 de a4 c1 72 bf 16 16 50 3c f2 f7 94 bf
       -0.004579204573272531 -0.02047708981628745
000300 f5 54 ff c4 1d 6d 7b 3f 06 0a 68 f9 ac 8a 88 bf
       0.0066958582755962575 -0.011983252869872462
000310 ff 12 ae 23 72 f7 a3 3f 4a bc fe 09 6b fc 8e 3f
       0.038997237067666994 0.015129886858487169
000320 70 eb 45 9e e1 36 6d 3f 02 a5 54 9b 6b 21 8e bf
       0.0035662085157900855 -0.014712181737723377
000330 42 b8 ef 85 7a 5a a9 bf 2c 88 fd 79 b1 73 b2 3f
       -0.049518421983393526 0.07207783916740657
000340 c7 05 36 4d b9 70 9c bf 9a cb 86 fe cd fc 83 3f
       -0.027773757302844062 0.009759530382188509
000350 1d 98 17 58 02 e2 97 bf cc 3a 5d 01 b7 f4 a2 3f
       -0.023323094011992496 0.03702327624943322
000360 cd 84 23 8f 3c 3a a1 bf bb 89 a1 9f 89 70 a8 bf
       -0.03364743468569884 -0.04773359368916227
000370 61 a8 65 15 bc 72 82 3f 93 44 b0 62 73 24 a6 3f
       0.009007901576030432 0.04324684695905847
000380 af 1a f2 f9 28 02 9c 3f 46 e9 4c 71 9c a3 86 bf
       0.0273519899897347 -0.011054250915198193
000390 ca dc fa 90 66 06 7e bf 40 a9 88 96 e2 30 a1 bf
       -0.007330322885244553 -0.03357608878680418
0003a0 3e 18 c2 a0 af 15 a1 bf 2a e1 16 14 91 ae 99 3f
       -0.03336857640628964 0.025079981661947283
0003b0 10 31 e4 39 3b 5f a1 3f 6f a8 dd c6 90 73 ae bf
       0.03392968255693252 -0.05947544505654966
0003c0 4c 2b da b1 1a dc 73 3f 32 79 fb 51 79 b9 78 bf
       0.00484857967024761 -0.0060362567016610125
0003d0 85 a7 31 75 93 65 ae bf da e6 46 10 fc 34 bd bf
       -0.05936871343222009 -0.11408973119150848
0003e0 a4 50 d5 6e 6d e2 be bf 76 48 bd 56 49 89 78 3f
       -0.12064250903978518 0.005990301589763649
0003f0 ba b3 da 7b ae 9b a0 3f 73 e3 0b c3 2f 8f a2 3f
       0.032437756174977975 0.03624867683351498
000400 1f a7 b1 71 23 6f 95 bf 60 5f 5c 50 fc 25 93 bf
       -0.020931772054985417 -0.018699591069064936
000410 e5 1b e3 fe a9 4a b2 bf 52 c9 91 e3 48 c1 a4 3f
       -0.07145178292112993 0.0405371454043172
000420 37 17 0a 00 82 45 94 3f 6d 75 d6 bd bb 64 5c 3f
       0.01979640126457768 0.0017330010808572452
000430 da 25 cd 87 75 c2 ad bf 33 7d 9f 0a e6 0f a0 bf
       -0.05812423022014075 -0.031371296688798365
000440 bc 21 65 b9 e0 33 91 3f 45 46 f5 76 37 38 72 3f
       0.01679946071206627 0.004448143633753403
000450 96 97 4e 7f 5d 8f a8 bf 45 65 56 68 10 63 b1 bf
       -0.04796878985443624 -0.06791784808446717
000460 67 f9 7e f0 e0 3f a9 bf eb be e6 a8 29 28 83 3f
       -0.049315480573102026 0.009353948084793248
000470 a1 fa b7 76 5b 9e 7a bf 28 40 45 e5 b9 df a4 bf
       -0.006498677520993341 -0.040769395100710704
000480 de 78 a1 17 2e 8d 6e bf 2d ea a5 e8 b1 6d 5b 3f
       -0.0037294292679198445 0.001674102534336651
000490 ee 62 93 98 9b b6 9a bf 21 e9 53 77 91 c3 c8 3f
       -0.026087218463405053 0.19346826864768565
0004a0 6b 50 07 0e f8 83 8d bf 3c d4 ce 0a c8 d3 94 bf
       -0.014411867073171622 -0.020339131984389733
0004b0 96 24 05 b8 11 8f 32 bf 0d b4 7f 31 a7 11 8a bf
       -0.0002831857928141194 -0.012728983114323378
0004c0 61 c9 57 23 02 95 88 3f ca 80 6b ed 90 bc 92 3f
       0.012002960876064507 0.01829744767280842
0004d0 bf 5f 18 b7 1b 87 9f 3f 6e 4c 72 70 40 32 70 bf
       0.030788834619755564 -0.00395417377071104
0004e0 07 08 41 bb 81 b9 89 3f e4 9b 2d b9 72 53 9c bf
       0.01256085732177682 -0.027662079384210517
0004f0 56 38 73 ae 4c 82 71 3f 4b 25 dc de 06 82 94 bf
       0.004274653946778248 -0.020027263023654467
000500 08 5e 6f 8b 33 e2 6f 3f f7 fa 8f e4 ce 11 7a 3f
       0.0038920408946798747 0.006364639449201396
000510 14 b2 ea 85 b0 c2 79 3f f9 89 13 ba ef bd 9d bf
       0.0062891860422209685 -0.02904486249179603
000520 99 96 b7 97 dc 42 b2 bf 82 13 f4 1d d1 b8 74 3f
       -0.07133272842437534 0.005059067595770796
000530 e4 11 52 87 17 6d 84 3f 06 9c ce f2 6b 1d 5c 3f
       0.00997370130267767 0.0017159990486363976
000540 96 ff 86 92 9e f2 a1 3f fb 6f 33 96 0c 83 92 3f
       0.0350541643015269 0.018078037898575854
000550 62 5e 1d 6e f1 54 a7 3f 0a 11 fb 2b c6 a6 8c 3f
       0.045569939319361166 0.013989971368012739
000560 47 34 34 d5 6a 85 b3 bf a0 66 09 6c cc b5 aa bf
       -0.07625453667806524 -0.05216826266105312
000570 e9 bf ae 42 14 a0 a0 bf 54 5e 73 61 53 eb 84 3f
       -0.032471306934325934 0.010214473163087913
000580 ec a7 78 e9 31 3d 9e 3f 7a dc 76 86 9f 2f 9f bf
       0.029530315279920602 -0.030455105382966675
000590 d1 db a4 37 97 c7 b5 3f fc 6e da ba 5b d1 a1 3f
       0.08507676228042206 0.03480040222095046
0005a0 6a 93 1d 4b d3 fc 9a 3f 24 9c a9 9f 93 2e a9 3f
       0.026355077228248737 0.049183476676994325
0005b0 be 6e 05 77 26 57 5f 3f 4a 84 41 f6 d7 36 98 3f
       0.001912868083386351 0.023646711735981797
0005c0 3c ab 6b d4 0e 33 b0 3f da 83 ab a2 60 fd 9c 3f
       0.06327908216523509 0.02831030838831681
0005d0 2b ad 2c 3c 83 87 b1 3f d5 de 2d da 54 e8 9d 3f
       0.06847400874237468 0.029206586662865092
0005e0 33 4c d6 ba 9d fb 87 3f a7 cc 99 24 52 d8 9b bf
       0.011710388435664942 -0.02719238613503863
0005f0 35 bf 10 7e d0 51 8f 3f cf b3 a1 28 99 eb 87 bf
       0.015292767379008513 -0.011679836800078917
000600 ed 45 fa 36 65 cd 82 3f 02 ce e2 82 cb 6c 90 3f
       0.00918082307842646 0.016040019858975192
000610 40 8f b2 6e f6 69 60 bf ce 16 3a 86 27 29 96 3f
       -0.0020036519177483447 0.021641366546211675
000620 c9 05 bc 9d 58 49 6f 3f 1f aa 78 d0 5b 50 64 3f
       0.0038191538604912295 0.002479724240193506
000630 52 13 f6 92 f8 b8 59 3f 71 10 cd 6f 7c 13 94 3f
       0.0015699794274450407 0.01960558349971148
000640 bd a6 a7 84 52 82 83 3f 20 9f 32 92 ec 3d a5 bf
       0.009525913880639942 -0.04148806843414676
000650 91 d2 99 36 f9 43 61 3f 3b 25 15 97 8d 47 7a bf
       0.002107607598015378 -0.006415894590938105
000660 86 a9 47 2c 96 8c a4 3f 15 86 d1 bc c7 b3 75 3f
       0.04013509073759551 0.005298404908076222
000670 ee 83 aa fb 27 4a 77 3f 6d 18 42 4f 89 e1 8a bf
       0.0056859552229591 -0.013125488978641376
000680 7e 8c a6 7d e0 fc 80 bf 67 14 31 a8 12 7b b6 bf
       -0.008294824442435674 -0.08781544309847931
000690 48 46 a3 3d 30 43 9e 3f ab d3 9c c3 29 0b 69 bf
       0.029553178560325827 -0.003057080812960374
0006a0 61 ba 43 89 f8 61 81 3f f9 ab 54 26 09 2e a1 bf
       0.00848764580629541 -0.03355434983162548
0006b0 ce 64 87 b5 e1 fb 97 bf 59 d4 9e 0d da 86 a9 3f
       -0.023421789841312095 0.04985696235909449
0006c0 c4 75 fb 59 2c b4 9e 3f 15 b9 48 a9 f8 b0 a0 bf
       0.02998418139656224 -0.03260018412071212
0006d0 a4 34 31 19 31 1e 8e bf b2 ca 5a b8 1c 5e 74 3f
       -0.014706023770623418 0.0049725648765838616
0006e0 27 39 05 1d df 7b 7b bf 33 d4 4a 3b 88 2f a8 bf
       -0.006709929977956975 -0.04723764156134571
0006f0 01 54 f7 c5 de e5 93 3f d8 ce 69 61 66 9a a0 3f
       0.019431572754758267 0.03242797793509816
000700 e4 24 ca 36 58 33 a2 bf 99 10 7c 45 68 61 a4 bf
       -0.03554797810381574 -0.03980565880013493
000710 ae 4e a9 29 5a 13 99 3f 72 39 27 17 89 98 85 bf
       0.02448788527756445 -0.010544844645576677
000720 93 66 43 9f f4 4b ab 3f e8 49 de 85 94 33 9a bf
       0.0533138698971928 -0.025587387724565064
000730 8a 15 4d 56 9c 31 c1 bf 84 d9 ab 79 bb 27 94 3f
       -0.13432649816438086 0.019682816792703686
000740 3a 58 0e 77 89 e3 80 bf ed bc 28 11 34 a3 aa bf
       -0.008246492334176837 -0.052026393026943875
000750 95 61 6b d5 ba cd b4 bf 81 98 92 3b 9e 1e ac bf
       -0.08126418791233044 -0.05492109753804276
000760 31 0c 08 28 d4 06 86 3f b6 0b a2 8c 99 fe 92 3f
       0.01075521227995155 0.018549346169048873
000770 71 ca ee 28 cf 1e 84 bf 02 bb 50 12 7b 94 94 bf
       -0.009824388920468526 -0.02009765910423323
000780 fe df 5e eb 8e 92 a6 bf 77 c1 cc 9e df 35 a7 bf
       -0.04408690093208632 -0.04533289731478168
000790 81 7c 7e 96 8f bd a6 3f d7 0c 19 7a 46 48 96 3f
       0.044414984818325294 0.021760083391438947
0007a0 99 d0 91 3b 2a 66 a7 bf 85 1a bc da 2c 88 b0 bf
       -0.04570133187454068 -0.06457786884502965
0007b0 2d a5 f0 b7 cd 13 b6 bf f4 3a fe 96 25 a6 89 bf
       -0.0862396787712398 -0.012523931189006167
0007c0 19 13 eb bb 84 62 80 3f 97 80 88 1a 8d 19 76 bf
       0.008000409111795602 -0.005395461259951293
0007d0 ef e6 d8 eb 48 4e 93 bf 5c 94 36 b9 27 6a a6 bf
       -0.018853320498442846 -0.043778649672540054
0007e0 fa 6c b4 7c c9 25 bc bf 86 af 22 88 f9 66 b0 3f
       -0.10995158476400838 0.06407126973743801
0007f0 2d 41 6d 86 18 c8 b6 3f f4 87 b6 d6 94 35 a5 bf
       0.08899071962264733 -0.04142441864975402
