weights/vsself3/vsself138_w.npy (npy, 65152 bytes, 1 tensors)

array f8 [8128]
00000000: 75f5 514a d89e f03f 6346 2d1d 067e 38bf
00000010: 123e 420e faee c73f 5362 91d0 e8c6 493f
00000020: 8184 fbc8 1553 4bbf d339 473c 84bb b33f
00000030: e757 9ce8 29ef 663f 5ffc 6526 d23f 74bf
00000040: bbf9 3ebe 612f 6fbf 892e 24ce 148c b53f
00000050: 8557 d81e 7308 543f 25d6 17c8 ce19 723f
00000060: a5d8 2b52 a116 5bbf 9baa b0d3 5815 74bf
00000070: 599f eb73 f012 d23f a0e1 dcde 097c 463f
00000080: 35e7 6a93 d2db 643f 230d ac5a 014f 4d3f
00000090: ac0a 5ae8 a050 543f df3a 7be8 7659 55bf
000000a0: 71a0 ec68 8c37 f13f 4bb2 fa7e 6eb6 563f
000000b0: 3688 cbef 9139 b2bf b0fc 790b ab29 803f
000000c0: 8a5e 8c45 54dc 833f 4d69 3481 f461 67bf
000000d0: 8412 d269 45f5 823f 5d1f 23a3 9817 d43f
000000e0: 828e e530 e239 7bbf 3a89 9c9b 257b 88bf
000000f0: b4db 28d3 2fa9 973f 20c8 4906 b5cc 5b3f
00000100: b0e5 de9e 29f1 6d3f 3682 c4ac e414 853f
00000110: 4dea eff8 3dd3 c2bf c303 ba4b ed81 c73f
00000120: 1384 9447 744d 4d3f 51ca e558 0515 80bf
00000130: 119f fc25 c34e 2c3f a73b af95 701e 6dbf
00000140: 39cc f060 b1a9 6ebf c51a dd19 aabb 603f
00000150: 8874 b088 a62f 883f 0862 ad4c f9f9 73bf
00000160: e276 8d5d af83 a33f cee5 23bc d594 533f
00000170: bdbb e767 af59 84bf 4a67 c61a 410d 80bf
00000180: 94b3 6b12 b416 91bf 96cc 35e3 eaac 83bf
00000190: cf15 c406 23f0 703f 5be2 8a26 e396 33bf
000001a0: f587 d237 37ae 80bf 9b97 380a c3db 6dbf
000001b0: 3ad1 a5a8 cc7d b33f 6c79 bfb9 255b 633f
000001c0: cd43 f9fa e28d 773f 0c75 2d06 a284 513f
000001d0: 86c7 013e d23c 9cbf 37d2 e7a0 d2a0 9bbf
000001e0: 21eb 2009 c930 673f e432 2bac 41ae 99bf
000001f0: 25f6 9987 d63c 8dbf 79c7 66d8 b41a 93bf
00000200: 85f4 dbf0 96f7 96bf 7fe1 8b40 6e20 c23f
00000210: e368 2e49 3b09 813f d4ce e402 f5e1 89bf
00000220: ab6a 86b1 d2a9 773f 520d 8118 0fa1 b43f
00000230: 726f 0d53 7e29 bbbf 0bd7 48f6 59ed 323f
00000240: fcbd cc21 ac4a b0bf 7184 471a 7935 aebf
00000250: 7bbe 15a9 9fd4 94bf 96ca 9437 0a8e ce3f
00000260: 94c8 8415 3dfb b63f d462 3d7d 5b14 d33f
00000270: 037a 5408 2b76 863f 78b2 63f0 28a3 6abf
00000280: da3b 1a84 12df 883f 9710 dd94 36ec 823f
00000290: 5ec9 48a2 d36c 923f 54b2 2580 321a 873f
000002a0: df3d b622 c1e2 a2bf a28f 3fbe 66b8 cb3f
000002b0: c410 3fc2 5920 a13f 9203 4386 bf64 673f
000002c0: b147 fe0c b77e 9a3f 4177 040e fde0 98bf
000002d0: 3141 94de 7641 c03f fac4 662e 1e0a 633f
000002e0: 6c85 ed8d 0fe8 76bf 9715 d739 03eb 743f
000002f0: 037d 4c4b 8168 64bf dee2 c7b5 9924 70bf
00000300: effa da84 c601 733f af08 8db5 845f 793f
00000310: 0e4d 4ba7 6b31 9a3f 0215 ed96 1cdc 60bf
00000320: b8f1 61b4 e95f 6dbf cf4c 8e6f d7fa 4c3f
00000330: 1b66 a70f 3e21 97bf 03b0 8114 1996 983f
00000340: d428 bdee c6a4 7e3f 3ea2 68a2 37e5 6d3f
00000350: b487 7847 1645 7fbf 7e9d 5044 795c 57bf
00000360: b7d2 f711 274c 693f cd14 9d0b 6436 6a3f
00000370: 8dfc 1234 3509 783f fb76 2588 c8e4 a43f
00000380: 31d7 6f9b e4bc 4dbf b807 9303 2ca6 78bf
00000390: 4e3d 7714 8275 53bf a96b 3d52 4e4f 91bf
000003a0: 7eb0 8d0a 71c5 81bf bd01 aebf bb68 a13f
000003b0: f69d 5875 ffa3 54bf 4d33 b9ba 8131 7bbf
000003c0: e9fb d42d 50c9 643f db56 f0f9 9413 77bf
000003d0: 99c5 6878 3cf6 80bf 542a a648 3604 95bf
000003e0: a1ff 6022 0ad1 8bbf 9da6 ee49 58e4 693f
000003f0: 91f7 eed1 bf6e 89bf 4bf6 1ea5 3750 a03f
00000400: 1a4b 2c1f d3e2 7cbf 1158 50ba ee07 8abf
00000410: 2892 d1a2 3467 a5bf f8bf 0fff ae9e c13f
00000420: 5901 3142 03fc 73bf 013f 0d12 418c 7fbf
00000430: d366 50cf ff9d a3bf 4551 8e78 87cf 92bf
00000440: cad1 7597 e875 8d3f 066f 5736 933f 833f
00000450: e889 ba41 72df 61bf 30a7 a18f 7818 76bf
00000460: 1d26 1c3c a119 90bf 714e 536b 8afa 813f
00000470: 2630 d8fb 94d0 90bf 1c37 a9a5 e459 84bf
00000480: bf5f 4887 b5d5 88bf 703b 4e22 d808 633f
00000490: eb90 6db6 26ae 83bf f152 1a2d a2cc ba3f
000004a0: f08c 91cf c62c 90bf c43a 338c b70d 64bf
000004b0: 4a26 54c5 b598 5fbf 8fc0 2fc1 3209 803f
000004c0: 439e 22c0 c8aa a13f a210 7542 ea6c 893f
000004d0: db7f dc58 7f6d 753f e835 840a 17de 563f
000004e0: af58 5a28 88ce 753f 7fd2 7568 84a9 9cbf
000004f0: 6032 f113 1e7c 813f 6bc7 f2ed 5d91 95bf
00000500: e373 5354 e94b 93bf 2e31 a310 bcd2 8cbf
00000510: 2e59 a2c0 57f7 7a3f 724e 2483 a865 6dbf
00000520: 0d71 0764 4ae1 b0bf d35b 11af 0ca3 9abf
00000530: 8fb4 aed7 6e9f 8dbf 2325 2af7 a368 94bf
00000540: 40ee 4307 eb0c 9c3f b0d1 5c52 cf3e 693f
00000550: bc09 ac71 6127 ad3f e427 8e96 b049 8b3f
00000560: 8553 784d 8ac5 82bf bda8 0d1d 3cb5 663f
00000570: 3d3a 84f0 20c9 52bf 813b 0600 a1d5 803f
00000580: a504 e631 77c2 953f b427 b9fb 9c0f 9abf
00000590: 1bc0 73c7 d563 c93f 385a 27d5 8be1 9c3f
000005a0: d404 6b6b 4a1f 4f3f 76d1 13b3 37e2 733f
000005b0: 9e9f 6087 5745 6b3f 693a 4afc e952 51bf
000005c0: 204c ea7b c8cc 9e3f 8f0f c844 b915 61bf
000005d0: f8c1 7d4a a8d8 8dbf bc1a 070c 37a0 5b3f
000005e0: 7d1a 195e 8cfc 89bf 4336 48c1 66ec 96bf
000005f0: 50ec c2e0 dc9f 8d3f 9df3 1619 c641 22bf
00000600: 6b2e 4b2e 24d2 493f e40c 803f 4212 8b3f
00000610: 76b7 3d58 e1ed 803f 7c31 c4a6 1ea0 953f
00000620: 82f3 3690 1c8e 883f 5d90 e7be b0ee 633f
00000630: 92f3 bd6b 4665 65bf 30ff 7c2f 781e 993f
00000640: 968c 2244 598c 843f 376a 2acf 4765 a33f
00000650: 7990 c3cb 830f 57bf 0354 d7a4 f39c 6abf
00000660: 6398 5acf 802a 6abf 41ef df1c ceaa 65bf
00000670: 0174 12ae e5fc 80bf 2883 dbe1 502b 81bf
00000680: a430 fcd6 21d2 963f 6b52 4130 4772 aabf
00000690: f90c c424 f923 933f 9590 765e 3ce7 7dbf
000006a0: 97bd e98d ac17 68bf 9b67 d012 3478 74bf
000006b0: f300 9199 80cf 893f 0165 4b40 652f a13f
000006c0: 24e6 57f3 c0aa ac3f d38b c0bc b404 9ebf
000006d0: aa19 216d 35d1 81bf 06ae 39b4 0fa0 81bf
000006e0: 3169 2849 7677 623f 85b0 6d65 6e7a 7dbf
000006f0: 528e e667 5890 b13f 1d5d 1bd9 5a4a 6f3f
00000700: 3fd6 ed87 2d0a 7cbf 5d87 6b08 7fb2 a4bf
00000710: 4eb2 bc5b bdd0 923f 0b6c 1ec1 7239 673f
00000720: 3764 5abd 4d9c a03f c2ac 34c1 9b91 803f
00000730: 6234 40c9 25fa aebf 38cf 5045 583d 923f
00000740: 6519 172a 3324 773f 57ff 226c 0a46 6dbf
00000750: 93f5 967e a74e 78bf 4c59 c5db df75 70bf
00000760: b11d f384 3ae1 823f cb6b df24 77b7 94bf
00000770: 7a99 270f c2ed a73f 69b2 898d 7a78 81bf
00000780: c07c fb85 42f8 a0bf 6b17 de5e a00f 90bf
00000790: 35c2 b822 ce0b b33f 438f 9301 33dd 83bf
000007a0: 6143 1a2b 9e01 74bf 6325 c9c6 5f6c a7bf
000007b0: 1ba7 d478 37d7 afbf c0f9 aad3 ca29 80bf
000007c0: cc23 aebd 5fe0 94bf bc48 ec19 6590 7abf
000007d0: 49e9 a6ae ca38 96bf 1d6a 1d4d 008f a7bf
000007e0: cf42 1f06 9f11 b1bf 83bb 274b a3bd af3f
000007f0: 6f0e d853 349b bb3f bbbe 6792 387b 893f
1.0387804892664836 -0.0003737225462617564 0.18698049255589005 0.000786651305257522 -0.000833879124879769 0.07708002540241603 0.0027995890167273776 -0.004943676851666272
-0.0038067730947368406 0.08416872055766524 0.0012227176879426604 0.004419143429449633 -0.0016533446693621026 -0.004903170566687233 0.28240596123076994 0.0006861732669909866
0.0025462258157319625 0.0008944279300923435 0.001239926468230716 -0.00130306827661613 1.07606163965286 0.0013862685263276327 -0.07119094948169011 0.007891975677237845
0.009697588322111334 -0.0028543258173502673 0.009256880084884907 0.31394020015112806 -0.006646998938183326 -0.011953634082207832 0.02310633398357327 0.0016967552011490986
0.0036550343420144946 0.010293756983231633 -0.14707159667144012 0.18365255544270384 0.0008942430278332546 -0.00785259416145326 0.00021597034628339414 -0.003554553882600914
-0.0037430252482635565 0.002042610386442464 0.011809636160302853 -0.004877065492870709 0.03811405198096708 0.0011951529746155767 -0.009936685903964343 -0.007837780599220818
-0.01668816912108502 -0.0096071577633892 0.00413526231955559 -0.0002989105765141325 -0.008144790068687494 -0.003644829690318608 0.07613829724670476 0.0023627983882611916
0.005750548021368607 0.0010692198054223527 -0.02757576468906777 -0.02698067767228648 0.002830879829187963 -0.025078798421236295 -0.014276195538737 -0.018656564434145182
-0.022428854418639083 0.14161470557861475 0.008318389101806328 -0.012638010168849169 0.005777190228765032 0.08058256481404172 -0.10610188987396699 0.0002888054498585291
-0.06363941025914949 -0.059001717050485854 -0.020342344946981044 0.2387097140686662 0.08977109694822821 0.2981175158543412 0.010967575256072065 -0.0032516288366564693
0.01214422670025599 0.00923960344119505 0.017993265895890224 0.011280436073058876 -0.03688624905327819 0.21656498231379567 0.033449940644943804 0.002855657645426787
0.025874004524275743 -0.02429576299720471 0.12699781292077142 0.0023241605260514416 -0.00559240413608229 0.005106937981911661 -0.002491238143548126 -0.003941154890065161
0.004640365090095896 0.006194609065291497 0.025579149328064203 -0.0020580824270007856 -0.0035857739013051802 0.0008843948299833928 -0.02258774729293665 0.02401007831251435
0.007481362419478017 0.003649338398890727 -0.007634245899255921 -0.001425856041587042 0.0030880702104190932 0.0031997636805579433 0.005868156267012326 0.04080797826712331
-0.0009075275655720858 -0.006017848901310012 -0.0011876840888936538 -0.016904090661551106 -0.008677371153418042 0.034002177379992095 -0.0012598032675529259 -0.006639010196136064
0.0025373998638822293 -0.005633909167064489 -0.008282158302878527 -0.02052388018050018 -0.013582305120621476 0.0031606411352712153 -0.012418268770371362 0.03186200991283935
-0.007052254385387946 -0.012710442601058277 -0.04180302131206687 0.13765513853240896 -0.004879009941817302 -0.007702116185853703 -0.03831481366814917 -0.018369786008024098
0.014385048982810473 0.00939860353076184 -0.0021817428185653027 -0.005394431058542357 -0.015722770017452804 0.008778649711906202 -0.016420677062385057 -0.009937082582065986
-0.01212636775112219 0.00232355321572391 -0.009609510843525423 0.10468495942252411 -0.01579580919168405 -0.0024479470172090474 -0.0019284987550371052 0.007830044289193231
0.03450610490227437 0.012414770272364987 0.005231378030458668 0.0013957238207383763 0.005323917260872487 -0.027990406871554626 0.008537516578280335 -0.021062343261923838
-0.0188442666738985 -0.014073819406256929 0.0065835407096044695 -0.0035885134940459246 -0.06593766157260834 -0.02601260965851877 -0.014464250523668091 -0.01993042179177452
0.027393028562967325 0.003081707883121086 0.05694107544515556 0.013324145884116186 -0.009165840615460894 0.0027719663707347062 -0.0011465856242157812 0.008219964802973713
0.021249639912188773 -0.025450184692352898 0.19835922469019426 0.028204140553351048 0.0009497750641786159 0.004854409767393588 0.003328963236544482 -0.0010573658957217186
0.030078060687241615 -0.0020855539826260604 -0.014573397420208231 0.0016861474579045596 -0.012688728925366316 -0.022386174723626927 0.014465070351766723 -0.00013928931416087596
0.0007879902519447151 0.01321841961180898 0.00826622057476432 0.02111862080441672 0.011989806319314903 0.0024331523957119975 -0.0026117682845651713 0.024530294321493062
0.010033318893255132 0.03788208392980546 -0.0014075076169826324 -0.003248668543827994 -0.003194095212921731 -0.0026449227943866897 -0.008294863104589824 -0.008383399860976207
0.02228596567788145 -0.051653122559092456 0.0186919144334867 -0.00730060178412741 -0.00294097616215767 -0.00499744740684518 0.012602810560679667 0.033564724062395974
0.05599024744510597 -0.02931482698489758 -0.008699815171110032 -0.008606074035205868 0.002254229571247234 -0.007196837649512959 0.06860878502498594 0.003819634854930988
-0.006845643859255512 -0.04042431810172673 0.018374403690517398 0.0028350106521890565 0.03244250236929996 0.00809022601477805 -0.06050222474741741 0.017812136870090728
0.0056497572526893235 -0.00357343707682382 -0.005934385562281891 -0.004018663832843505 0.009218651945402142 -0.020231114984067305 0.046735824918687066 -0.008530576176064746
-0.033144072394628576 -0.015684610166793272 0.0743988833207901 -0.009699247823341422 -0.004884355397408808 -0.04574870397170618 -0.06218884801849197 -0.007892212471571791
-0.02038716883865614 -0.0064853619831117225 -0.021701018247520385 -0.0460128873953247 -0.06667512797799734 0.061993697094172816 0.10783698126766138 0.012442056625303058
