weights/vsself3/vsself932_w.npy (npy, 65152 bytes, 1 tensors)

array f8 [8128]
00000000: 8d57 3550 7075 f83f 7515 32e3 6f7d 5fbf
00000010: 8171 8e63 01b5 e13f d2d2 8ee3 f12e 40bf
00000020: d2c7 f4b8 b620 c1bf 0c06 751d f943 bd3f
00000030: 442b 286e 59c0 703f f2bc bdb8 5bcb b5bf
00000040: 616b c8e0 be55 cfbf e8fa 2171 b6e9 c63f
00000050: 20bb 3610 7a83 753f 90c9 8b4c 34f6 a2bf
00000060: e119 28df bb1d c5bf 680a efe1 3687 d2bf
00000070: b106 baaa 9884 d73f a848 778f c88c 463f
00000080: a62a 547c b88f 6c3f 721b cc99 9f66 7a3f
00000090: 55dc f4a7 9c7f 653f 5fd4 02a4 1d69 69bf
000000a0: 6e07 5248 bf8a f83f 3daa fc48 1b40 5a3f
000000b0: 521b bd8c a67e d8bf bba9 69a9 aa1d d3bf
000000c0: 300f e94c 4071 913f bafd c5f5 28c8 81bf
000000d0: 33d0 cbb8 8844 833f 5af7 4240 56a8 dc3f
000000e0: b7aa a36e 8342 9bbf 5c63 d42a d349 c4bf
000000f0: 1186 8dbe e756 9a3f e4f6 a67f 26e9 8cbf
00000100: 4165 6304 b3f7 aebf c74d 25ae 796c 8c3f
00000110: 453a 93d4 333f d7bf 647b 773a f593 cb3f
00000120: 88aa 612a ed1b 523f 9744 256c 8e27 b1bf
00000130: c96f 4193 edc8 b53f 91b0 3a0a 6c3c babf
00000140: 8388 2887 80cc b6bf 863e 59a1 e251 5f3f
00000150: 80a6 990e 3cc1 673f ee7c 72d3 6e98 9fbf
00000160: 453c a4b8 eedd 673f bda3 d8e7 f813 5b3f
00000170: 8ad9 1f8e 309e 9fbf d9a5 88f5 7f8a a5bf
00000180: 2893 65dc f7e0 bdbf 9b1a 6ac4 bd4d c6bf
00000190: 8883 fe30 fc6e 6d3f cf40 b9bb 9b9a 72bf
000001a0: 958e 2ee1 8bb9 87bf d303 a770 5645 afbf
000001b0: 6c6c ef5d c1ef a93f 92fe 96e4 e14e 763f
000001c0: 605e 3f45 f58c 973f 2bd8 a84f 5eda c0bf
000001d0: 7828 aa73 9cad d0bf 771d 8bed 5954 c8bf
000001e0: 1d40 6cbc 9208 353f 82c4 815b 3fb3 a73f
000001f0: 762b 21f9 c47a b83f cd3a a84d 80a8 91bf
00000200: 4a42 b515 1b0d b1bf 1317 f497 1768 c53f
00000210: 8ace d1ea c3b3 8d3f 80be 346a 7e77 b0bf
00000220: 8907 34dd 50ca bc3f 2a9c 200c e4ab adbf
00000230: 670b b585 7ef0 cfbf c407 9e8f 9a2a 563f
00000240: 7b83 c995 2397 b7bf 5330 bf7c 217f a53f
00000250: 2000 ae1a 3b1c c53f ca2a 733f b8b5 d03f
00000260: 22a6 1b9d ac33 97bf 2651 7b95 9ea0 d13f
00000270: 9c5a bf1a f880 773f ff64 302a 0ea6 cabf
00000280: 106d d4de 770b 7abf f7b8 0ee9 e93e 963f
00000290: d280 e729 8dc9 8dbf c224 82c5 860b 873f
000002a0: b2fe 150b 61df ccbf 03ab 3d21 ddda d23f
000002b0: cfec 52bc cf51 b63f e4a9 bea1 5d95 99bf
000002c0: b57d de73 84cf 9e3f f19c 1dc0 5981 87bf
000002d0: c6bd 61d7 22a9 c23f a7cd f91a c4c6 5e3f
000002e0: 5e6f c1e5 fbb3 813f 2969 02ca 2904 b13f
000002f0: 9bda 9267 763b 91bf 6701 5ce4 6769 b5bf
00000300: 81b1 ef89 a52f 803f f8f5 c9a5 eba4 b6bf
00000310: 751e 86a5 92b6 b2bf df76 03f4 22df a7bf
00000320: b794 bf4e ea28 81bf 81e2 0ada f838 65bf
00000330: b77c b039 1bab 743f 4fa6 db13 091c bb3f
00000340: 392d cc2c 3865 833f 07dc 7d29 32e0 853f
00000350: 5b46 3b8f 1d68 a9bf 71a0 03df 9fdc b93f
00000360: cfac c63a bd21 b8bf 3c1e 5203 c2d4 b4bf
00000370: ea39 df4c f180 823f 5d79 ab6d 071a ac3f
00000380: c3de f8a4 d611 a1bf 5948 df98 9dba acbf
00000390: 3001 7614 fcc1 b1bf 6ff7 81d8 ddb0 94bf
000003a0: 527d 4c8e cf08 a93f 3be6 31f9 4221 ba3f
000003b0: 516b 9687 a3d8 a5bf 817a aff4 e526 b6bf
000003c0: d24f 1daf 2bb1 723f 7f35 7cb6 4508 a0bf
000003d0: 2938 1f29 4834 b0bf 2481 9959 a4c7 bfbf
000003e0: 33f7 0a97 9f35 c0bf 03b5 3af7 9205 783f
000003f0: df26 451f 36c3 a63f bdac b3f5 fa82 acbf
00000400: bdcd 91dd 1c0d b2bf a298 0414 7152 a8bf
00000410: 0f1f cbff 83dd b1bf 9ec3 41eb ad79 b03f
00000420: 0ad7 75e8 c24e 813f 028d 08d2 4d19 9cbf
00000430: 7f34 3181 c6f1 babf d036 7654 e4ba b5bf
00000440: 9a25 a19c 27ba 923f b99d e9e1 3b2d 57bf
00000450: 4db0 4508 0622 afbf 963f ed65 627c a3bf
00000460: 2e21 b8a4 ab4e 73bf 4446 649c 52ba 853f
00000470: 3a0a a866 0852 97bf 8c29 8b6a fc7c b2bf
00000480: 6a1e 6b7a 297f 8ebf fd19 3897 9c47 98bf
00000490: 4de3 3f50 e0b9 c9bf 73f2 6e4a 8ec3 cd3f
000004a0: 218c 8e94 0fa6 9e3f f4e7 f50e 5ec3 aabf
000004b0: 7ce7 dd3a 2303 9cbf 690d 655c ee13 b4bf
000004c0: 7e82 d38b 5e2d a0bf 3b3a 2c7d e32c 943f
000004d0: 601c 0c90 e67e 753f 90c3 9e94 a449 63bf
000004e0: c20f 0359 bf3e b53f e10f 502a c889 a53f
000004f0: d3ac 392c d10c 6b3f 52b6 6d05 93ff 803f
00000500: af83 fcf0 78f4 a1bf 3e66 3fb5 853c 6cbf
00000510: 98fc 9e5d 6135 67bf 8cea 3073 7924 c1bf
00000520: 0203 642a e43d b13f eccf dc37 115a 903f
00000530: b08d d431 62a6 933f 517e f559 5657 91bf
00000540: 5052 1976 f524 943f a8ab 3120 e82b 973f
00000550: 635d 6c0f afc3 a23f 7317 458f edfe 8c3f
00000560: 65ac c94e 6f7c b43f 72eb 6efa 8829 463f
00000570: 165f 0679 68b5 983f bb04 a5c9 7134 813f
00000580: 1962 8f6c 7904 9e3f f3d3 655a 7a26 a7bf
00000590: 4b24 0959 78da cb3f 4ed4 7241 6b98 713f
000005a0: 17ee e465 70a2 76bf 8746 cc6a fce7 793f
000005b0: 407f 4077 4adb 913f 3678 fdf7 1de6 b5bf
000005c0: dd8e 9594 dbab c03f 7fd6 ab31 8a61 823f
000005d0: 6099 aa88 0a54 953f ae75 f362 f61f 1ebf
000005e0: f889 9b9c e58a b03f 1b07 2070 459f b2bf
000005f0: 2295 2b2d 2759 8e3f 3f85 99f8 e644 a0bf
00000600: 2cb8 1fa8 58c3 a43f 3e23 c0b9 f069 a0bf
00000610: 98af ad1a 4ea6 aabf 5687 8bc4 0204 983f
00000620: c3b5 4a7d 0da3 a2bf 3018 6176 694b a9bf
00000630: 611e 6ea1 8b59 a6bf 3342 fc44 42ef 8fbf
00000640: f220 deef 51a0 8b3f e0e2 5003 bfb8 893f
00000650: 3648 aa56 ef4c aa3f 504a 1f9a e3ba afbf
00000660: e5ea be12 747f a6bf ecfc 7ffc f119 79bf
00000670: 0d3f 052f a23c 9cbf 0455 483e bc8a 973f
00000680: 8e18 cd93 eb93 8bbf 1fa1 cc38 1fc0 bbbf
00000690: 1377 f42d 8324 a03f a375 34f1 c10a 893f
000006a0: 16e7 e049 b817 ba3f 9ee0 eac1 c656 a9bf
000006b0: 1a1a 3acb 1770 963f 8ca3 dadc daa5 ac3f
000006c0: 5fc7 f69e 946f a13f d6dd 8b4c 1c4b a9bf
000006d0: 3ef2 742d d453 85bf a3b7 6cbc 1348 8dbf
000006e0: a836 bd64 e8f7 9f3f 2e1d 8962 d8b7 b83f
000006f0: 0457 7f6e 40c0 a73f 1406 544f 67ad abbf
00000700: 69bb 909d a243 b3bf 2353 1a41 9933 abbf
00000710: 956f 45ac d19f 6b3f b8d1 6a17 f14a a23f
00000720: 787b fb52 394c 9ebf f34d 4051 b570 b7bf
00000730: d040 ceb4 c0a4 c0bf 576a db4c 8a5e 943f
00000740: 6a68 8355 4fd5 88bf d364 9bc5 7846 a8bf
00000750: b63b c626 c509 b6bf 1bf0 264d 838f b2bf
00000760: 9524 34e8 b4ba 843f 7c95 d907 c928 9f3f
00000770: c58d 160f 51dd 8fbf 8384 ea74 094e a7bf
00000780: 2ce8 728e a34f afbf fb5c 7c03 8eaa b2bf
00000790: a67f 5a26 5556 b13f fa5f a5f4 34b7 953f
000007a0: 408c 2578 da8d a5bf 7978 935f af81 b9bf
000007b0: 3d82 23fc ebe9 b6bf 8747 9544 611a 9bbf
000007c0: fc98 9f8c 0c20 793f ea60 98e6 e016 873f
000007d0: 85a3 8b85 485a a0bf bcaa bbf0 313c b1bf
000007e0: af62 e918 51c3 c3bf 54e8 a41e 0f03 b13f
000007f0: 5034 10e6 9bc4 ac3f d0c3 fc49 ca4e a8bf
1.5286715634478896 -0.0019219963694764007 0.5533453888379399 -0.0004938775156149938 -0.13381084471762833 0.1143184372822576 0.004089688622580582 -0.08513425121576626
-0.24480424857832886 0.17900734447535815 0.0052523391818073695 -0.03703463968658405 -0.16496990581818152 -0.2895028311142256 0.36746803925062027 0.0006881694125076181
0.003486500094941408 0.006445525589476074 0.0026243266762793573 -0.003101880924158126 1.5338738274590145 0.0016021982627970742 -0.38273013824475755 -0.29868570846761217
0.017033581442105816 -0.008682556152733823 0.009408062114268123 0.4477744700960692 -0.02662091601170388 -0.15850295630732603 0.025722142224713865 -0.01411657406867612
-0.060483545575787286 0.01387877524090343 -0.36323257216728094 0.2154528174860061 0.0011052909917689552 -0.0670098318126001 0.08509716839893068 -0.10248446702707016
-0.08905795383228292 0.0019116128145419144 0.0028997586239725703 -0.030854922919954335 0.00291344285245246 0.0016527109832031727 -0.030876883196435702 -0.04207229492414983
-0.1167139924123829 -0.17424747553396433 0.0035929608929596325 -0.004541977246461395 -0.011584370431428051 -0.06107587933684724 0.05065731307669172 0.005446321863416552
0.02299864993241696 -0.13166407479883566 -0.2605963830507174 -0.190074196804044 0.00032094557211426335 0.04628942482020994 0.09562331278099898 -0.017244343509498706
-0.066606228637519 0.16723914069751142 0.014503031352638435 -0.06432333081169794 0.11246209526509977 -0.057952047806161325 -0.2495268013827527 0.001352930963975472
-0.09214994818604609 0.041985556104550036 0.164924037959282 0.2610912913921025 -0.022658059205161625 0.27542843435118625 0.005738228948721027 -0.2081926065446069
-0.006358593219626188 0.021724371766759423 -0.014544585076635395 0.011252453711011138 -0.22556698838524408 0.29460838552647334 0.08718584392311189 -0.02498384761535445
0.030088491031731574 -0.011477185416608 0.1457866241139369 0.0018784442035241018 0.008644073437771457 0.0664697759806684 -0.01682839400447254 -0.08363961529903961
0.007903378746015434 -0.08845398709851071 -0.0730983404265489 -0.04662427166634386 -0.008378820923051184 -0.0025906429658245082 0.005045992230434829 0.1058965371591054
0.009470404498208228 0.010681526080345461 -0.049622462972945335 0.10102271265680131 -0.09426481900179627 -0.08137142735551434 0.009035000952192857 0.054886085641316674
-0.033339221609308044 -0.05611126414409346 -0.06936622142348337 -0.020205942477779567 0.048895345802743365 0.10207003196583113 -0.042668447781770376 -0.08653104041830241
0.004563494339738088 -0.03131311276056702 -0.06329775814012407 -0.12414004504671944 -0.1266364562524643 0.005864690861625779 0.04445809489932428 -0.05568680047311989
-0.07051258477604612 -0.047503980344388866 -0.06978631014782997 0.06435667985512203 0.0084510066214807 -0.027440277046605573 -0.1052516999636328 -0.08488299428992296
0.01828824895372847 -0.0014145931997065887 -0.06080645419101014 -0.03805835241530457 -0.004713697893301378 0.010609288594909512 -0.022773867860460074 -0.072219635020849
-0.014890979813016975 -0.02371067688911842 -0.20098499220309876 0.232530390114238 0.029930346910656994 -0.05227178509353783 -0.027355719058938174 -0.07842912440996987
-0.03159614045012392 0.01970248652929228 0.005247975001800048 -0.002354451605207371 0.08298870013373885 0.0420668174411103 0.0033020100980159866 0.00829996929470692
-0.03506830159881901 -0.0034468280300472822 -0.0028330709146469728 -0.13392561077656173 0.06735063586166848 0.015968579325274776 0.019189390460395195 -0.01693472789827261
0.01967223676031643 0.02262842842575777 0.036649199135520026 0.014158111510038407 0.08002372430353118 0.0006763380850921387 0.02412951697041795 0.008400811163144053
0.029313943148595898 -0.04521543839920374 0.21760467860647945 0.004295748679557466 -0.005526007704527844 0.006324754719359788 0.017438090828476804 -0.0855425577587717
0.13024468188370167 0.008975104943128585 0.020828404036956072 -0.00011491719554919982 0.06461939881732082 -0.07274278628758817 0.014818483415590725 -0.03177568230308702
0.04055287411016226 -0.03205826060736293 -0.05205005717911532 0.02345280003181157 -0.036400243324674196 -0.04940347261485589 -0.043651927429036126 -0.015593068819300537
0.013489380009346939 0.012559406555838704 0.05136821682857866 -0.06197272545218324 -0.04394114235716077 -0.006128258952229997 -0.027575048561003835 0.022990170766282084
-0.013465729187043498 -0.10840029846861342 0.03152856765721714 0.012227549718370428 0.10192443660426095 -0.04949017636448726 0.02191197564982348 0.05595287271473301
0.03405441704252498 -0.049401172966039006 -0.010413797032577606 -0.014297632396473697 0.031219130657794608 0.0965552559438165 0.0463886389622257 -0.05405733912813218
-0.07525078150568522 -0.0531280414553861 0.003372106091928682 0.03572801028113609 -0.0295876461885842 -0.09156354173347107 -0.1300278551902978 0.019891892376885014
-0.012125606343421153 -0.04741265690035736 -0.0860865802444398 -0.07250233300777646 0.010121739708227198 0.030429020980951446 -0.015558846734001439 -0.04551724960516259
-0.06115447152974726 -0.07291495881178271 0.06772358118405339 0.02120669120026262 -0.04209788052210017 -0.09963508685493307 -0.08950686364870193 -0.026467819033605202
0.0061340799529487865 0.011274106061180029 -0.03193880682176257 -0.06732475402138055 -0.15439809528722523 0.06645292757176097 0.056187507470987996 -0.04747612145582247
