ranking_learn/weights/rankRF264_w.npy (npy, 65152 bytes, 1 tensors)

array f8 [8128]
0	0x3ff067a09559d6ba	1.0252996286412057
1	0x3f34f628f7348aba	0.0003198480619223499
2	0x3fd08543944cab9c	0.25813378794071595
3	0x3f35101e6907ce68	0.000321395325072893
4	0x3f3ecbe150b32cde	0.00046991587505536097
5	0x3fba3121bd40ed27	0.10231219168138193
6	0xbf2bb9f95d6f52ef	-0.00021153611188986325
7	0xbf3249bffa3f913c	-0.00027905404044605334
8	0x3f26bcc633f54d2d	0.0001734725901579663
9	0x3fad20d060a9d28a	0.05689097576115383
10	0x3f3aa40a8f7b93ec	0.00040650613617137957
11	0xbf200dee5e65888a	-0.0001224854924642453
12	0xbf3029c99ea97dee	-0.00024663135869748456
13	0x3f91ac9234811c3c	0.01725986905537645
14	0x3fc92fc32587598f	0.19677008945900495
15	0xbf63406622f88db7	-0.002350043759877098
16	0x3f3445a6ed16f62d	0.0003093273672581689
17	0xbf3045c7129ba536	-0.0002482996957114571
18	0x3f68fd59c807d051	0.0030504945318572747
19	0x3f47103bf0e4af12	0.0007038395577061171
20	0x3ff9e0596603a54b	1.6172727570468222
21	0x3f69971c0f0f701a	0.003123812487030986
22	0xbf6d3aceed37f50e	-0.003568081048568878
23	0x3f4058c1a05d6deb	0.0004988618318110793
24	0x3f321e89d7a30e33	0.00027647843638709256
25	0x3f3ccd972fccc1c3	0.00043950024682984037
26	0x3f7223052c7cab4d	0.0044279291248966015
27	0x3fbce4e6ce51483a	0.1128677610115866
28	0xbf40c8ed706b6643	-0.0005122336741251804
29	0xbf75d31562a1da00	-0.005328258072145875
30	0x3f5110e47b895c4f	0.0010416251444860419
31	0xbf4172411f83457b	-0.000532419012438875
32	0x3f353ec61070c559	0.0003241761737085756
33	0xbf7006bca8964819	-0.003912674853738828
34	0x3f6351d2a1c94564	0.002358352079945435
35	0xbf9368bfdcc65f5e	-0.018954274988203117
36	0x3f657993985d80ea	0.0026214487760826037
37	0xbf902357cba14ed3	-0.015759822658153077
38	0x3f402ceeaec8807d	0.0004936376040554216
39	0xbf64947a59d8506a	-0.0025122060458305133
40	0xbf70ecd2ef5d3dd1	-0.0041321029328424555
41	0x3f88150a5c3268cc	0.011758881510378315
42	0x3f86f680ca1dd0fc	0.01121235482035176
43	0xbf921e96bebe2111	-0.017694812194833768
44	0xbfd37a367de67307	-0.3043342809194631
45	0xbf561b56b9c36495	-0.0013492915086799385
46	0x3f59e73d313b7497	0.0015810105878053865
47	0xbf46f54c024b24ee	-0.0007006283891196877
48	0xbef781366e3a39b8	-2.2415863794972394e-05
49	0xbf418c5bee9e6fda	-0.0005355309378844945
50	0x3f784e468f94dcbe	0.005934024456386298
51	0x3f6b79bf59ae2d53	0.0033539521513767183
52	0xbf437226cb80cbdb	-0.0005934419086827085
53	0xbf4a600156efe35e	-0.0008049017468457589
54	0x3fb413051629bd0c	0.07841522017564645
55	0xbf4684a94754655b	-0.0006872011714761749
56	0x3f43a383e55cb526	0.0005993265174077153
57	0xbf5463b934df9641	-0.0012444790513596179
58	0x3f3fbb6ddadbe676	0.0004841941071017439
59	0x3f4bfa8f6e886a7e	0.0008538437223849086
60	0xbf25ca8142e79218	-0.00016625240227975745
61	0xbf640edeb7dfa5c9	-0.0024484968152946635
62	0xbf7e66362e51d36e	-0.007421695369988919
63	0xbf8a95e5902d013f	-0.012981217825313805
64	0xbf75298fcff77cde	-0.005166589514799839
65	0x3fb69252deab3757	0.08817022262811967
66	0x3f67865159649ec5	0.002871664891376332
67	0xbf5272189e7af28c	-0.0011258354588072087
68	0x3f4e8697d4e4ae00	0.0009315720906548086
69	0xbf057fb565fdacb8	-4.1005824413209294e-05
70	0xbf5b82c8dc3a16c5	-0.0016791306997289573
71	0xbf41d12dbd5ff3e9	-0.0005437348688698249
72	0x3f76b27e6ade20e8	0.0055413187200274786
73	0xbf35b5d7546d62ab	-0.0003312731463914013
74	0xbefe4c68623ee264	-2.8894870538672532e-05
75	0xbf6060b03b6ae375	-0.001999229625053218
76	0xbf3850c092ead99e	-0.0003710241461861943
77	0x3fd93285243ed78e	0.3937085012397511
78	0x3f8e0437db50be36	0.014656483059382368
79	0xbf812268d8376689	-0.008366412256623395
80	0x3f5eff6933111e57	0.001891949399821421
81	0x3f5a7e5b62486b9d	0.0016170399113721653
82	0xbefb0e628d2f7c70	-2.5802794720305685e-05
83	0x3f8e5808d4657aca	0.014816349965881232
84	0xbfa625dd31c877d9	-0.04325762970641706
85	0x3f51fe153c684883	0.0010981757528765463
86	0x3f897af26573e7fa	0.012441533776371461
87	0x3f554aa321a23d00	0.0012995331840420232
88	0x3f52e45ab7cfb5fa	0.001153076736268742
89	0xbf8de182a1112519	-0.014590282955526267
90	0x3fa495adecf450a1	0.04020446317204685
91	0xbf2611e7e0857417	-0.00016838031320790044
92	0x3f5a67f2636f4c20	0.0016116969179520504
93	0x3f7296de7115d7ec	0.004538411057515273
94	0x3f486f5a0688e07d	0.0007456960275424998
95	0xbf4558c1e0ce2f46	-0.0006514498396525757
96	0x3f55e7ac44b21f97	0.0013369734104191394
97	0x3f70cbabc06760c8	0.0041004857107155915
98	0x3f645925d23e17de	0.0024839152046664944
99	0xbf50298946272f51	-0.0009864655081512528
100	0xbf824c331c3f5472	-0.008934401797811218
101	0x3f78d8fca8486a84	0.006066309874337098
102	0xbf413091b84a7c13	-0.0005245887301333928
103	0xbf7d5846687e351c	-0.0071642637557378895
104	0x3fbd433138ac7dad	0.11430652269017712
105	0xbf6898911b416273	-0.0030024370299027102
106	0xbf3d146f46f09959	-0.0004437228844288619
107	0x3f60d71343b4c1af	0.0020556808718980783
108	0x3f69802ef0fbe37c	0.003112880403815797
109	0x3f63a75d513da73d	0.0023991415600236586
110	0x3f800497211afb37	0.00782125539569521
111	0xbf94b4304cd3ef0f	-0.020218615235520206
112	0xbf6a24ca0a1761ad	-0.003191370590439577
113	0xbf965020cd12afbc	-0.0217900395552275
114	0x3f3dcd808a397b57	0.000454753763028328
115	0xbf70b69048c5f690	-0.004080356226379714
116	0xbf77f82172efa00a	-0.005851870212588048
117	0x3f934ee98631bb31	0.01885571366841105
118	0xbf77d79499ce7feb	-0.005820827934172694
119	0xbfab3d703bfdef4b	-0.05320311291049381
120	0x3f6589f76b373d8f	0.0026292641066231813
121	0xbf66ecda925d6fa2	-0.0027984875659238942
122	0xbf6491665deb1ec3	-0.0025107383110912498
123	0x3f544cbd2f4e6af0	0.001238999129077708
124	0x3f4c95c7d8ca1065	0.0008723474325767032
125	0x3f72105834e61792	0.0044101186343875765
126	0x3f5a77da8f365c09	0.0016154894227378167
127	0x3f74b618afb45717	0.005056473189389419
128	0xbf58616a45556fdb	-0.0014880693246004304
129	0x3f605bea603688ad	0.0019969537404032817
130	0x3f62fb1655c6b9ac	0.002316993354006777
131	0xbf618e283e7f0add	-0.0021429811494909482
132	0xbf79cf8c8800b7b0	-0.006301449728239136
133	0xbf99f02f3ef3ef14	-0.025330293862665235
134	0xbf95d2b7f4488fbf	-0.021311640057447564
135	0xbfa5e54cf80728b2	-0.04276505019841305
136	0xbf6e7ad2a551796a	-0.0037206758666307642
137	0xbf844ca4fb4402b1	-0.00991181270410499
138	0x3f620135e6af0800	0.002197842860796051
139	0x3f522eba974ac0eb	0.0011097738435346626
140	0xbf511ceb0074d76c	-0.0010444922389302959
141	0xbf483e08d3109e0e	-0.0007398169601672848
142	0xbf517c0afeab774b	-0.0010671717997676352
143	0xbf81071e88e21b4e	-0.008314360191673888
144	0xbf8b49cf287b17e3	-0.013324373648526183
145	0xbf71035a675afab3	-0.004153588428094923
146	0xbf83fb67a8fbf073	-0.009756860584723115
147	0x3f7c7bece58c13ef	0.006954121949779498
148	0xbf5e58e3896fb01b	-0.0018522474326756525
149	0xbf991b845f2a5530	-0.024519031818802606
150	0xbf8c8b6fe10cdfb3	-0.013937830024232633
151	0xbfa2988162e14f75	-0.03631977397949885
152	0x3fbbcbe9cb65aa6b	0.10858021941900524
153	0x3f4a37514e1d7108	0.000800051402829933
154	0x3f4679b96f3601b2	0.0006858973924153604
155	0xbf6760820e239635	-0.002853635801431743
156	0x3f7b0ed344afd868	0.006605935351208549
157	0x3f559b5b9592fe76	0.0013187784555127847
158	0x3f628bbdf426d08d	0.0022638998063602756
159	0xbfaea1d0f07a35f2	-0.05982830939784013
160	0x3f8a3a29c6baaf71	0.012806249978289693
161	0x3f83766f1d1d219f	0.009503238750441066
162	0x3f53ba9f3ed919df	0.0012041621333921321
163	0x3f62a1451c27c55e	0.002274165134843172
164	0x3f8af618b6a79e58	0.013164704393559365
165	0xbf8466c9b834ad95	-0.009961677488340462
166	0xbf7312ecf4908ad3	-0.004656720740089343
167	0xbf76994051ba5cff	-0.0055172455282879165
168	0xbfafd1e95d13e671	-0.06214837323382206
169	0xbf07e45c663f9bf8	-4.557044010749378e-05
170	0x3f9249a722366d37	0.01785908838574565
171	0x3f8a5ba392610809	0.012870099930413674
172	0xbf521f51bf8346be	-0.0011060999223001934
173	0x3f8463595355ee85	0.009955118041708797
174	0x3f4d104b16e0aa74	0.0008869520804684742
175	0x3f80f74372ba9ecf	0.00828411764025763
176	0xbf95f6778ade91a9	-0.021448009348789352
177	0xbf9eb635a59101e5	-0.02999194930112194
178	0xbf7735364190fdf2	-0.0056659812335619775
179	0x3f779ea333c93e1b	0.005766522892897831
180	0xbf55c869cc3ab4f9	-0.0013295205289225993
181	0x3f7409c4dba093da	0.0048921289217433665
182	0x3f81a54f1e761961	0.00861608325682245
183	0x3fb7401aa7d2f3a7	0.09082190129534116
184	0x3fa0aafa771094bc	0.032554461511872884
185	0xbf771f719eea07c8	-0.005645221549118014
186	0xbf2048e776fdd048	-0.000124243025762307
187	0xbf8c2c19af1bbb5d	-0.013755989700681754
188	0xbf9ff42b4a552c04	-0.0312048687094766
189	0x3f8f8aaf214033ab	0.015401237680657895
190	0x3f77bd71993f6cd3	0.005795902008652837
191	0xbf834dbefec9e689	-0.009425632620366347
192	0x3f7255d8a4f38618	0.004476400629955822
193	0x3f5d7ae98e289603	0.0017993241132300282
194	0x3f449de449f19f16	0.0006291737262360288
195	0x3f902b0f016091d5	0.01578925558000484
196	0x3f6b5e7be1306c36	0.0033409518741911682
197	0xbf7707dc13350e91	-0.00562272993858283
198	0xbf64b00713c59bf0	-0.0025253427722193786
199	0xbf71bc5dc1c690ec	-0.004330030668288947
200	0xbf76081dc1375576	-0.005378833989614909
201	0x3f702e1e2e2f514e	0.003950231449341436
202	0x3f84540fb6f21d29	0.009925959368287511
203	0xbf73242fa762f641	-0.00467318167482983
204	0x3f7fbc22715918f6	0.00774777845578555
205	0xbf947d3976d8b74c	-0.020008943442170676
206	0xbf948a9894262e3b	-0.02005995182257279
207	0x3f9f48ac64860748	0.030550664554090973
208	0xbfa9de3b58c75554	-0.05052361925815299
209	0xbfb1d9b9751bdf51	-0.06972846135238099
210	0x3f91046787635427	0.016618363989284426
211	0xbf8eee8734dee8a5	-0.015103393841730936
212	0x3f7eb1652ac675b0	0.007493395980785619
213	0x3f7a170316676f7d	0.006369602261170002
214	0x3f906ed6d124c6eb	0.01604781772147749
215	0x3f95b747234448aa	0.02120696213484822
216	0x3f73081cd7a4ac4b	0.0046464087156819584
217	0x3f8aa65ebff6927f	0.013012638314486622
218	0xbfb72711a6c8fbf3	-0.09043989488507957
219	0xbf94d448a446d12b	-0.020341048266076783
220	0xbf82787acdadf045	-0.009018859292830092
221	0x3f368b3b146e725b	0.0003439921605890344
222	0x3fa8bfaf9e5db169	0.04833744819811409
223	0xbfb09f9fa1c5a9d8	-0.06493566226496428
224	0xbfa7f5e69b9cdedf	-0.04679794931001679
225	0xbfa2ca08b4b06f0f	-0.036697647148882344
226	0xbf7e3a11b8408e24	-0.007379597871508579
227	0x3faf058cab16cb55	0.06058921421517619
228	0xbf9bf09d0340d2d7	-0.027285054515419595
229	0xbfa33031879cc1b8	-0.037477062038650144
230	0x3f6d28cec4ab0d70	0.003559497684678163
231	0x3fb00e6dfed3b026	0.06272017928466819
232	0xbf7b4a7e415335c5	-0.0066628391115961015
233	0xbf4ed2a65e4e65b6	-0.0009406387658714075
234	0x3f6de9d7e742e05c	0.0036515442717153634
235	0xbfb2c2331e4b64fa	-0.0732757519684987
236	0x3fbd3176e88d7fc9	0.11403601815754806
237	0x3fc58b42c780c327	0.1683124040732988
238	0xbf494df60477e2bf	-0.0007722331292248848
239	0xbf804c1b60e3a3ed	-0.0079576624816173
240	0x3f7b813275f5fa2c	0.006715008842887598
241	0x3f90c244a600e769	0.016366074211169677
242	0x3f991c5f0ed3c855	0.024522290496811944
243	0xbf8a33194580b5e3	-0.012792775567585351
244	0xbf88e342fe697ac9	-0.012152217282332416
245	0xbf82fae2f3874546	-0.009267590577027317
246	0xbf3986822f12d4cf	-0.0003894870597592305
247	0xbf98cf98405a157d	-0.024229411056258855
248	0x3fa2272944738eed	0.03545502625072836
249	0xbf91d8ccaf5a1eef	-0.01742858715309031
250	0x3f6b38bc51085c03	0.003322952085237586
251	0xbf89ba2cae35b607	-0.012562130991422128
252	0xbfa3095c4cda4a75	-0.03718079031127256
253	0xbfb10c95ffd56467	-0.06659829612671474
254	0x3f8c939278fdc242	0.013953346555099281
255	0x3fa1f32dfe520b9d	0.03505843858240285
