ranking_learn/weights/rankRF155_theta.npy (npy, 65152 bytes, 1 tensors)

array f8 [8128]
00000000: 2344 8861 19fd f43f 0a2e 87f5 eb81 b0bf
00000010: 3011 10f1 11a4 d83f 6aa8 cacc 29b0 9bbf
00000020: 503d 1ea1 b505 523f c855 5543 e5b1 e2bf
00000030: b310 b40b b800 8b3f 81bf dd82 5d84 4a3f
00000040: ead8 29dc 33d5 8f3f 2f88 ae5d 18fc d8bf
00000050: e309 a978 b93c 673f c9e0 fe16 9930 913f
00000060: f586 3411 3e3e 663f 9d59 cd0d b644 843f
00000070: cd14 09ce d6d3 8cbf 6adc d93c 7bb2 ae3f
00000080: 457f 5976 f2c0 18bf e3ef 1977 ccb9 563f
00000090: ed04 8e7e 28d7 773f e7cc 2aa9 45a3 8cbf
000000a0: 736c fef8 adfc 1140 6fc6 7683 29ba 9ebf
000000b0: 7532 111e 9b35 71bf d602 c66c b491 95bf
000000c0: c418 699f d8ff 713f 43da 0bdf a6bd 6fbf
000000d0: a060 d52d 2d4c a63f 8bb2 586c 75bf e3bf
000000e0: 3888 3be3 6ac5 953f 75c3 679b c786 85bf
000000f0: f407 773c 51f6 773f 0409 0522 09c2 783f
00000100: 50d4 65c0 2292 823f 7efd 52d4 4538 98bf
00000110: 9145 2ab3 b52b 77bf 14e3 d941 accd c9bf
00000120: a636 2250 29fa 9b3f 0e7a 2096 0069 a2bf
00000130: 701a 19e8 0e5c 94bf 616e 7ed4 6df9 87bf
00000140: 79d4 e5fd 0ae6 603f 5779 98de d614 a93f
00000150: 323b 8a72 3e87 b9bf 9594 1836 b51f 843f
00000160: 6f64 6d0b a143 883f b3cc d9fd a2d0 633f
00000170: 64fb 1f26 65d5 0a3f 62a4 b1b7 da90 7f3f
00000180: 5fb8 1e0a 0f35 773f 5511 e96c 5f1c 77bf
00000190: 6ae5 7f6a a18f 6cbf 1363 b075 0781 91bf
000001a0: 6415 fd1c 67a6 64bf e756 0fd7 0356 67bf
000001b0: 63f8 2eab b847 d1bf 966d 6242 e9cc 573f
000001c0: fcdf 38b8 312e 933f bb25 1f62 39f4 8dbf
000001d0: bc75 f243 abb8 19bf f8ff 6e11 b1f5 80bf
000001e0: 7b64 8c05 ffcf 8dbf 6bac 2704 a623 833f
000001f0: 788b 597d 0b66 893f a799 7510 b2a0 6c3f
00000200: 5710 6de9 df9b 6c3f 374b b5e2 4cfd b63f
00000210: 846c ceae bafc a0bf 6ecf 9456 7d0c 753f
00000220: 39b8 3f5a abe2 a23f 209c e702 3e71 8fbf
00000230: 0c63 78ee 402a 7f3f 76e9 92d8 b57b 7f3f
00000240: 29f5 2290 58dc b0bf 90d2 3a14 e0b5 853f
00000250: e35f c545 eed5 923f 1966 d408 ad70 6a3f
00000260: 6ac8 d38c 1551 a13f 07dc 70a8 9128 d33f
00000270: 80e3 c5bf 81f2 b6bf fce4 c12e 1667 913f
00000280: 083d f4eb 5b7b 94bf 2363 40c3 b17b a3bf
00000290: 0cee 7f0b fc5c 7e3f 3b52 d8d9 1502 72bf
000002a0: 8a05 d4c1 a9ab ad3f 00c2 f788 7e42 b6bf
000002b0: 51ff 60b4 f2f1 b3bf 4273 20a4 d573 a7bf
000002c0: d0db e973 eb49 b2bf 09eb e2f9 eb91 a8bf
000002d0: 22f5 6348 cc9c c53f 49cf 7616 fe76 983f
000002e0: 648a e2a3 337d 86bf fb3a aa7f 67df b7bf
000002f0: d67d fd56 9206 57bf e766 4be8 370e 95bf
00000300: 6d4c 8f63 72ba b0bf c634 39fb e89d 73bf
00000310: 9606 5df9 1396 64bf 7f59 5799 2b06 a6bf
00000320: f962 9981 116f 75bf c0e3 012a 6133 603f
00000330: 2486 e5eb 2c9b 98bf a960 c468 0693 babf
00000340: 9818 fc6c 4f14 d3bf 0480 ad2e 7285 ad3f
00000350: 075c 72c5 a445 a33f 36bd 0d2a 9f23 8fbf
00000360: 48d1 b96d c162 a83f 3fbf 31e8 efb1 89bf
00000370: 4ee4 0d2f 1a7d a93f d173 ce92 632f acbf
00000380: b571 6bd3 b86b a5bf 44bf 231f f2b8 a93f
00000390: 8325 0470 78c0 a2bf 05c5 2a0d 7671 bd3f
000003a0: b953 98b4 a26f adbf ed83 c312 764e cd3f
000003b0: 7f15 14bf e5ad 90bf 3b0e 8038 c8c6 c03f
000003c0: 0325 d1b4 ba3c 7abf a364 d10f afe5 70bf
000003d0: e0a4 5f20 518a a83f fe76 62bf fd59 603f
000003e0: 0d37 9544 4466 99bf 3c61 a727 07d6 85bf
000003f0: 35cb 3c96 45dc 85bf c84d 25c5 fd85 96bf
00000400: dde0 4547 6136 b9bf a207 fd1c 84ac 583f
00000410: 944c 599a 485d 7f3f 2957 5ee7 7ccf c1bf
00000420: db84 b140 14ae b5bf 46d6 1544 354a 96bf
00000430: 39d1 ec93 fdb7 bbbf 6165 dd8f 45bb d3bf
00000440: 2798 d6ca c708 653f 01a5 9617 279e 78bf
00000450: 8345 d325 3a89 9a3f 587b a4a4 3a36 83bf
00000460: 6255 9c1f fffb ae3f 7a31 7a78 b9d7 723f
00000470: 5dd2 176a 465d 77bf ada9 d982 61c9 99bf
00000480: 4fbd ec73 9ea1 b43f 3e61 20f6 e782 853f
00000490: 290b 07b5 8dce 783f 69c5 8e41 edc8 c93f
000004a0: 3a4e e6df fbfe ad3f e108 8e01 9e2d 90bf
000004b0: b9c6 9d81 e87c abbf 84f6 af6a 0fa5 7dbf
000004c0: 7910 c65b deab c3bf 4860 66d5 ce0e cfbf
000004d0: 8b02 e6a1 da4a bcbf 7506 63c9 4900 98bf
000004e0: 6310 7c93 9924 a23f 5c4d dc41 edfc 373f
000004f0: cdbb f95f 4c73 963f f72c 5edb 96d0 aebf
00000500: 0324 d158 1120 a53f 6602 214f af7f 82bf
00000510: 18ec f490 1fa5 95bf 90b4 7613 1245 953f
00000520: 9d7c 6daf 7838 593f 8f8b 99df 677c 823f
00000530: ba5f 82cd c8f3 91bf f3f9 4fc9 2112 be3f
00000540: 746b e1ab 0fb1 91bf 15d4 565e f9fb a5bf
00000550: bc41 9466 1292 e3bf 6cfe 9dcc ac1a b4bf
00000560: d724 fd0c b6d1 b23f 614b 31e8 ad41 c93f
00000570: 40cd 6957 c5ce 9cbf 9d2e 8ac4 cf3b 9d3f
00000580: 4c2a be41 2883 99bf 4e1c fe2f 74ac b13f
00000590: 8a38 0e78 10fc 923f c587 51ee df26 903f
000005a0: 5638 374b 8450 efbe 0463 a00f e255 873f
000005b0: e0fd 98de 1569 cabf 5d41 e780 9ba4 c7bf
000005c0: 87c1 2da7 c99f b5bf cbdc 29e7 c29b a0bf
000005d0: 3b20 b31f 8700 b33f a728 1a6a b830 a73f
000005e0: 10a8 00ad ac41 9cbf 9715 f224 6262 cebf
000005f0: cf60 fbd0 ec6f 84bf d1a8 316a 9108 85bf
00000600: be05 1931 7aec 61bf e52b 5ebf 5022 81bf
00000610: 4511 29e5 d3f1 6e3f 96ce b1c2 0f7b ae3f
00000620: eb2a ba5d 4098 8e3f 313c 55b1 fb1a 53bf
00000630: 745e f059 ddd5 893f 5b18 4c67 28b7 8cbf
00000640: e6d2 571d e780 96bf eac5 c160 b4e3 ba3f
00000650: 9210 b680 bc51 d1bf da48 8557 9d4e 923f
00000660: e1a5 bb77 46ab 933f 78cb c98e 3a4c 95bf
00000670: 924c 7a22 e016 833f b023 57af 62e7 593f
00000680: 2873 0108 a992 a9bf 4e81 964b 91e0 e8bf
00000690: 7167 5164 f1bb 663f 3e1b 4064 54a5 88bf
000006a0: 343f 6590 e262 95bf 4a96 b0ab 9787 6cbf
000006b0: be01 2f6f 1db6 983f 7c0e 61ae e3ee c73f
000006c0: 1a8a 061a 6756 9bbf 9a41 3adf dc61 49bf
000006d0: 42c5 ee71 76a2 9a3f 6984 101d 5db3 b33f
000006e0: c67b 27fb f05d b23f cc58 5560 d1d4 c3bf
000006f0: 2886 e7a4 18a4 b33f a024 d013 81f1 c7bf
00000700: 25b1 8bb3 1969 b83f 16a2 cfe9 5f9c c5bf
00000710: 2b74 5273 2975 bc3f 7da1 766c 895e c2bf
00000720: 071e f1de 95e6 ccbf 9b4b fd70 0360 a0bf
00000730: 90dc 71f1 066d f9bf 7aa6 1661 f0c6 adbf
00000740: 3800 1007 c13e 993f 6502 7918 f197 7cbf
00000750: 9947 6854 f97f a3bf 6a7d 1093 3187 87bf
00000760: 3788 60ea abc3 acbf d4e9 f10f 5836 a13f
00000770: da9a d687 d95b 743f c39e 660e 07df a3bf
00000780: 27b8 eef3 b34e b2bf 15fa 543a f82e 873f
00000790: 73e4 067e 8231 b1bf 96ba 0bb6 d3ae d23f
000007a0: 7bde b39e 07a8 b4bf de37 33dc 773b b73f
000007b0: 3f7a fee7 4427 d03f f662 9b62 fdd4 79bf
000007c0: d777 84a1 6d6b c03f 53a5 5cb3 a3d1 a13f
000007d0: 7efd 13c8 afb4 a5bf 52ed 7746 6f9f ca3f
000007e0: 4a0f ff72 a24a 13c0 5953 2a7f dc76 84bf
000007f0: c94b 3d8e f513 96bf 20b4 e14f 9c30 8abf
1.3117917833190027 -0.06448244804703776 0.3850140432480371 -0.02703919708680084 0.0010999940609258303 -0.584215766439848 0.013184964997443016 0.00080923620201466
0.015543370395999696 -0.3903866686688415 0.0028365728842640755 0.01678694918493376 0.0027152263879920376 0.009896681114395284 -0.014075925982192672 0.059955454996207205
-9.442787048774295e-05 0.0013870712977270764 0.00582042520625346 -0.013983291840622815 4.496757402924334 -0.030007027291225116 -0.0042015132213007915 -0.021063632143980403
0.004394384558116641 -0.0038746127323705816 0.043549930424604755 -0.6171214214460446 0.021260900611089734 -0.010510978155225928 0.005850140885231159 0.006044421840046835
0.009067794319643024 -0.023652163585891277 -0.005656919255345187 -0.2015891381777456 0.027321477428407313 -0.03595735390284825 -0.01988242427457937 -0.011706216857240994
0.002062818020187648 0.04898711650115455 -0.09971990867982752 0.009826102937106543 0.011847742234453144 0.002418821661927939 5.11809819414486e-05 0.007706503262945837
0.005665835140389402 -0.005642292743292939 -0.0034864571243786073 -0.01709376960579607 -0.00252075328163197 -0.0028486323358077772 -0.27000252453934176 0.0014526632235519524
0.01873090445425872 -0.014625976855216707 -9.811921425969308e-05 -0.008281119675189061 -0.014556877476524335 0.009345337869453204 0.012401666415092313 0.0034945943659067838
0.0034922955777876674 0.08980255637042665 -0.033178171003975826 0.005138864138007777 0.03688559986754609 -0.015352711166043476 0.0076086555850671915 0.007686338745026658
-0.06586221236189672 0.010600805871356728 0.018394206055148642 0.0032275561885739654 0.033821748200254145 0.29935113381674266 -0.08963786060293266 0.01699480686554454
-0.020001827503674213 -0.03805308826867406 0.007412895727607626 -0.004396519999791122 0.05795031062190066 -0.08695212215366865 -0.07791058448583256 -0.04580562237263176
-0.07144042568130193 -0.0479882948433979 0.16884759459200277 0.023891420479869727 -0.010980990828391053 -0.09325262896366475 -0.0014053753947890122 -0.020562051346906165
-0.06534495287569238 -0.00478926666580754 -0.0025129690283457002 -0.04301582571831641 -0.0052328761899722515 0.0019776246772917616 -0.02402944745825243 -0.10380592401304746
-0.29811463969270724 0.057658737371411944 0.0376407137893509 -0.015204661818386183 0.04762844528605342 -0.012546419404514729 0.04978257965462572 -0.055049049063405804
-0.04183747845465594 0.05023914938089871 -0.03662468306908819 0.1150125295778431 -0.057492336793223804 0.2289569465274605 -0.016288366115096316 0.131066348636624
-0.006405572244213123 -0.004125293574440611 0.04793027420221008 0.001996036148809276 -0.024804178892103446 -0.010662132165564324 -0.010674041411765959 -0.021995511205501278
-0.09848602285444792 0.0015059747856444945 0.007657321553398284 -0.13914452836314098 -0.08468748645238426 -0.021767456322285626 -0.10827622281505435 -0.3083051590852702
0.002567663401992898 -0.006010201171571029 0.025914104994460906 -0.009380777501574109 0.060516331299519846 0.00460026215990827 -0.0057041884006037965 -0.025182269679513137
0.08059110956377434 0.01050358981960697 0.006056359809408809 0.2014442987543064 0.05858599765920443 -0.015799015850924362 -0.0536873491499938 -0.007237491819066858
-0.15368251305710937 -0.2426394025794727 -0.11051718189811248 -0.023438599507022723 0.035435485127920406 0.0003660277596832706 0.02192420326030824 -0.06018515994863976
0.04126028260413508 -0.009032601930926986 -0.021137707922417176 0.020771295965165637 0.0015393427435908332 0.009026347647880488 -0.017531526129999732 0.11746417202810004
-0.017276997438198063 -0.04293803478814354 -0.6115810397623629 -0.07853202815567223 0.07351243798361239 0.19731687390830202 -0.028132518253596972 0.02854847561915951
-0.024914387714981154 0.06903768703169641 0.01853967411766936 0.01577329532700113 -1.493192608039929e-05 0.01139427766979529 -0.20633195275330163 -0.18471092027767613
-0.08446941691886965 -0.03243836471386315 0.07422680400770869 0.045293581916739094 -0.027594278392065574 -0.23737742237078116 -0.009979105117438184 -0.010270248463900707
-0.002187956481777247 -0.008366232719501052 0.003777421815614942 0.05953263522760925 0.014938834057166747 -0.001166101258906382 0.01261494570466868 -0.014021220829374117
-0.02197610012622677 0.10503699648122447 -0.27061379022075827 0.017878015963398088 0.0192080507830833 -0.020798602070907418 0.00932097535340962 0.00158104550551939
-0.0499470541260279 -0.7774130321813943 0.0027751650509743532 -0.012034091290855305 -0.020885028899385108 -0.003482624274982614 0.024132213507756843 0.1869778253040869
-0.0266967877993328 -0.0007746056057432061 0.026010370925807942 0.07695562324126261 0.07174593097396018 -0.15493218616274473 0.07672266031252006 -0.18705762355265154
0.0953537047714162 -0.16883467594676976 0.11116274896126359 -0.14351003452362568 -0.22578690896828865 -0.03198252443566859 -1.5891179496227643 -0.05815840897714693
0.024653450065670962 -0.006980840472863824 -0.03808573871005123 -0.011488330174016698 -0.056180355415805065 0.03361773676529692 0.004970407227495166 -0.03881094027320622
-0.07151341157325018 0.011320056228780332 -0.06716170861081298 0.2919205930510683 -0.08068893074584509 0.09075116277674009 0.2523967996184275 -0.006306638513444032
0.1282784498843614 0.03480254711605348 -0.042394154714197704 0.20799055996745125 -4.822885319535837 -0.009992334967401527 -0.021560513311964322 -0.012788029849810256
