ranking_learn/weights/rankRF76_w.npy (npy, 65152 bytes, 1 tensors)

array f8 [8128]
0	0x3fe2fa37cfac0552	0.593044190987863
1	0xbf3c5d3d363fdae9	-0.00043280357772294706
2	0x3fdc217d966bb637	0.43954410256887705
3	0x3f49ffe1efc55d8b	0.0007934430318909264
4	0x3f39ea77f622bf49	0.00039544514414567973
5	0x3fb88ecd806afaa9	0.0959289968986733
6	0xbee0aa38dd553098	-7.946457950901411e-06
7	0x3f27feb8b8799721	0.00018306736841394117
8	0x3f28afd619b5728a	0.00018834579973771678
9	0x3f9fdf6b3c51acd7	0.031125712925512552
10	0x3f4460a9bfe4b604	0.0006218747001064955
11	0xbf2bafd02a4b6962	-0.00021123329238188342
12	0x3f0ee7dc116c59e5	5.8947947925758704e-05
13	0x3f4243feed4efb37	0.0005574221382785631
14	0x3fb47dbeb2d874be	0.08004371515604
15	0x3f741cc8d46ca19d	0.00491026353010007
16	0x3f381ec21ec31515	0.00036804427396604336
17	0x3ebe52274f5b6f40	1.8072672082679954e-06
18	0xbf08d81db4022e68	-4.738655707211826e-05
19	0x3f000f9e6ef0e36e	3.063394785169411e-05
20	0x3fefbd3ba0443e69	0.9918497209745968
21	0x3f645fa59ff30bfd	0.002487014280263987
22	0x3f09b2a0d3532920	4.901459980429152e-05
23	0x3f53102e12bdf333	0.0011635255750370276
24	0x3f420be63f1ea6a3	0.0005507349253452597
25	0x3f1d8f58209dadb8	0.00011276221644400993
26	0x3f6a7963bcb88cbc	0.0032317111961376026
27	0x3fc4762d09239502	0.15985644289245476
28	0x3f15461c0fad2a1b	8.1153357240606e-05
29	0x3f2e9266b097f073	0.00023324492967436195
30	0x3f116cc9f5274cdb	6.647093440586024e-05
31	0xbf61886fdfad458e	-0.0021402535470904155
32	0xbf467a1a897e69aa	-0.0006859426093684302
33	0x3f5440f2bba7fd3a	0.0012361879768148635
34	0x3f4fef80e97036ea	0.0009745959713442752
35	0x3fb8dd4bc62feab8	0.09712670887521824
36	0xbf3dffe1307e191a	-0.0004577564982287827
37	0x3f3e1c8730de29c3	0.0004594640785106319
38	0x3f271c8b6aee1e2c	0.0001763267696015409
39	0xbf163ab3e6b16ac0	-8.479807881781997e-05
40	0x3f37da3a3bdbf390	0.0003639595196174789
41	0x3f64dd5378d6c8c9	0.002546942740729728
42	0xbf470e69322a7baa	-0.0007036222126152087
43	0xbf7d49b7abf2f273	-0.007150380580409721
44	0x3fc13df64f034e71	0.13470343454411052
45	0xbf473631825e626d	-0.0007083646530530848
46	0x3f080585b72fdc28	4.581751172588077e-05
47	0x3f274261df87ca24	0.00017745442143242516
48	0xbf4553e7138c14b7	-0.0006508711149712164
49	0xbee2c6d797414275	-8.953441217014424e-06
50	0xbf05f433f2aa1017	-4.187377483780301e-05
51	0x3f71bff107c94995	0.004333440327700795
52	0x3f2815a682291e93	0.00018375070165376327
53	0x3f4089400905530e	0.0005046427413995817
54	0x3fb56def43f65477	0.08370871934160272
55	0x3f1788bf6fae393e	8.977573808819237e-05
56	0xbf11ec049618e608	-6.836679451618238e-05
57	0x3f49c3e51d3c221e	0.0007862919542001611
58	0xbf3f8dbdbf064673	-0.00048147089457826266
59	0xbf6f8a7b13689e82	-0.003850212461902037
60	0x3f5cd0f46c233619	0.0017588030755634253
61	0x3f2dbb7167edeb24	0.0002268386778857208
62	0xbf5bede12a36be24	-0.0017046641231494098
63	0xbf5df598430ac688	-0.0018285738880589337
64	0xbf4894a95cca98ed	-0.0007501437153976366
65	0x3fbef021c12f6a5b	0.12085162130771591
66	0xbf54b3a15fc53bc3	-0.0012635303420045353
67	0xbf5a91a6f9b65b6e	-0.0016216402644652866
68	0xbf3032199fbfb7ec	-0.0002471268232956392
69	0xbf15a1478cfc7110	-8.251189433078712e-05
70	0xbf440e41ba76159e	-0.0006120510997084554
71	0x3f3c85d0bdfd266c	0.00043522211307287536
72	0xbf61c2b8c5c83541	-0.002168045886952769
73	0x3f31efa513e014d0	0.0002736833592965173
74	0x3f61a2db8a845628	0.0021528518592599695
75	0x3f2ff6f6011aeb32	0.0002438712404478571
76	0x3f55d9bfb5314110	0.0013336536547008983
77	0x3fc70b1c257896f5	0.1800265486683014
78	0x3f7bd2d8c4b38a4b	0.006792876006530844
79	0xbf62ddc303e89890	-0.002303009881205638
80	0xbf41a9f0201ba8fd	-0.0005390570151722337
81	0x3f70703b319a19b7	0.004013282037368552
82	0x3f61a46a761065b4	0.002153594905860168
83	0xbf73cd5ec1ce28f2	-0.004834528107389812
84	0x3f82a509fd066483	0.009103849443635298
85	0xbf5b25c47311d19e	-0.0016569536640221659
86	0x3f5d9868a88e0f6e	0.001806356626020435
87	0x3f4da5602fc51e70	0.0009047240887775764
88	0xbf4b49139044923c	-0.0008326859974983679
89	0xbf8101e0d8df0af8	-0.008304363840470938
90	0x3fc9fb993c1fbbb1	0.2029906791280758
91	0x3f4c7e59f957a543	0.0008695544553890894
92	0xbf631cf961ed14ad	-0.002333151889077975
93	0x3f3db003d0849097	0.0004529961884307625
94	0xbf458f8ce88551c4	-0.0006579816845638177
95	0x3f2792d1cacdec06	0.00017985163631437112
96	0xbf5d82e38628d10c	-0.0018012258448268396
97	0xbf590abc56b5a1cc	-0.001528438496132367
98	0xbf51531f665b841a	-0.001057415641689602
99	0x3f2fc4f24ae73a70	0.0002423806922266683
100	0xbf2eaf42bd9c06bf	-0.00023410501199099505
101	0x3f167330175a8baa	8.563977265878148e-05
102	0xbf43242927733297	-0.0005841446826707228
103	0x3f25eb59faf834c8	0.00016723130600874146
104	0x3fad693aae6bb207	0.05744346026571994
105	0x3f62eab7421f07f8	0.0023091868651770008
106	0xbf388e33b634cba6	-0.00037468683713653484
107	0xbf3f3122a7262470	-0.00047595115679450236
108	0x3f4b0ad0fc970794	0.0008252640192767274
109	0x3f478d804c6f04a4	0.0007187725503784615
110	0x3f6ce17705d96092	0.003525478807926482
111	0x3f3bfc3af3e803c2	0.0004270214011797246
112	0xbf3b9ec454960e0b	-0.00042145055029882476
113	0xbf10369e7cb6a3d2	-6.18490441214447e-05
114	0xbf8945e2bef9bbf1	-0.01234032769499824
115	0x3f59cc9f909e2cf4	0.0015746649027928413
116	0xbf659f2af27ecce4	-0.00263937366613619
117	0xbf658c35a6f7a120	-0.0026303336996883614
118	0xbf0ffd8da71cdd30	-6.1016927146823725e-05
119	0xbf9e983604453749	-0.029877513895647998
120	0xbf0e0877cb745189	-5.728355011505859e-05
121	0xbf51babe1acc1ff4	-0.0010821205607403047
122	0x3f535ef245f4defa	0.0011823049497489677
123	0x3f5236fa2409c07a	0.0011117403775209576
124	0x3f630f841c7c1195	0.0023267345712858025
125	0x3f51feefd7b1a172	0.0010983793461268568
126	0x3f18c4f0e67cd54e	9.44873842144329e-05
127	0xbf54e4364f51131b	-0.001275113141006651
128	0xbf7109740f76a8b9	-0.004159406052545994
129	0xbf215d455a7ea5d0	-0.00013247939682274482
130	0xbf72b24f00d56d94	-0.0045645795883858704
131	0x3f65366c4f676793	0.0025894275124586723
132	0xbf86692d00743132	-0.010942794395781694
133	0xbf5985dfa6e58078	-0.0015577968693705462
134	0xbf573901fd29191d	-0.001417400305074041
135	0x3f812f265cd975fb	0.00839071246007971
136	0xbf235ab4f1f850ed	-0.00014766176990178102
137	0xbf40337ac4f45496	-0.0004944180927021365
138	0x3f4e3a4d20141ec4	0.0009224773968136914
139	0x3f657b3cef965cb8	0.0026222410348953583
140	0x3f2cbd8dab7ce67c	0.00021927217835031657
141	0xbf64c200762bf84a	-0.002533913518504104
142	0xbf621b5bc8d5b6bc	-0.002210311190245699
143	0x3f519bc5966ea1bf	0.0010747365538269352
144	0xbf6b8a39a87b59ab	-0.003361809361972242
145	0x3f538ed5ce1c200b	0.001193722528514132
146	0x3f4a7d6ec5a8ebdc	0.0008084097747266222
147	0x3f76ea23137c66aa	0.005594384208757278
148	0xbf603ff496286fdb	-0.001983621318926138
149	0xbf67e60476cfc4c2	-0.0029172980489354525
150	0x3f758e9e631cc1aa	0.00526296491607107
151	0xbf84c2347c2f347d	-0.010136041679198233
152	0x3fc7a341331bb84d	0.1846696376373437
153	0x3f7134f4d68ae997	0.004200893782292068
154	0xbf57dcbb155b4641	-0.0014564349161684394
155	0xbf5511cc1db5f937	-0.0012859814949873324
156	0x3f35be7508aed03c	0.00033178670190215135
157	0x3f55c43d44d53cb3	0.0013285253838437982
158	0x3f6bf167dbfd69ed	0.003411009645714494
159	0xbf8dc410d7367055	-0.014534122054833324
160	0xbf519bf8584a3478	-0.0010747838252058977
161	0xbf5e3c9a2cc4fd8b	-0.001845503388793054
162	0xbf51899629a04c14	-0.0010704008514081974
163	0xbf7a3d5c31e0592c	-0.006406173835804812
164	0x3f8a4845966a5ff2	0.01283316006929167
165	0x3f68a1af235f25de	0.0030067845027346015
166	0x3f80dc6e4556d7c4	0.0082329382811216
167	0xbf601b00a9f25f0e	-0.001966000839796928
168	0x3f2ef1a3950865e8	0.00023608323910266561
169	0x3f629f8e314ffac1	0.002273347587560565
170	0x3fb2927dd224ac89	0.07254778271151187
171	0xbf8f795247daaab5	-0.015368120973410762
172	0xbf40041d8dd7d004	-0.0004887718493464814
173	0x3f708ebdddc2208c	0.004042379059804212
174	0x3f47bbe1fc60239c	0.0007243016668790794
175	0x3f5d85637c108e5c	0.001801821854550043
176	0x3f82f9b0197e1073	0.009265304353682979
177	0x3f2ded7eb70aaac0	0.00022833034338039758
178	0x3f4e4561ea3636a5	0.000923798379902603
179	0x3f8ed5d367588110	0.015056277839051307
180	0x3f7ed73bcf8f4430	0.007529481540545155
181	0xbef5db1e383caa00	-2.0843438974052844e-05
182	0x3f6219bdc48e2723	0.002209540024016203
183	0xbf9a3f21c142beb4	-0.02563145391530837
184	0x3f9bd04bfcab2d48	0.027161776825591205
185	0xbf98952cba9b5838	-0.024006556405616858
186	0xbf8a4641bbf00847	-0.012829316661740487
187	0x3f30e4ba0272ef6c	0.0002577737927358301
188	0x3f7950daf7a840ed	0.006180625287484737
189	0x3f8b431b031c4787	0.013311587364601042
190	0xbf6254e0ecc8c1be	-0.0022377389016343388
191	0x3f5adc176373a542	0.0016393879321248838
192	0x3f50c156635aed90	0.0010226577409600847
193	0x3f5f813c54290bb2	0.0019229020259820926
194	0xbf4a58d334dbc77e	-0.0008040457994111653
195	0x3f7a2bdc82cb9655	0.0063894857127927045
196	0x3f34a19c2ca72a66	0.00031480849125090635
197	0x3f45ff8e43ef8f85	0.0006713337569377176
198	0x3f5aaa74e48d8811	0.0016275540858363728
199	0x3f6adc324b9a60a4	0.0032788259821466426
200	0x3f5fe8de8814aa2c	0.0019476102027719084
201	0xbf7a8d4d250c642a	-0.006482411715091488
202	0x3fad17c9e1e00c8d	0.05682211763635179
203	0xbf7019eb12ffbd7e	-0.0039309675776019164
204	0xbf7fbe615a77b1e1	-0.007749920164752373
205	0xbf6f2b28c08d4578	-0.003804759592107739
206	0x3f9cb65c736f2046	0.02803940252832173
207	0x3f7e103672e614ef	0.0073396803767355875
208	0xbfa4533550715e24	-0.03969732863395972
209	0xbfabc55222213f3f	-0.05423981348633199
210	0x3f80e467ad11025d	0.008248147934979128
211	0x3f81d65f3f685bd2	0.008709663507984109
212	0x3f6f65d6edf1f77c	0.003832740577819514
213	0xbf437ec5944aa686	-0.0005949463598728534
214	0x3f682403340c4df8	0.002946859604330273
215	0x3f9619375861c470	0.021580567140010165
216	0x3f65687c6a4f4050	0.002613299368455592
217	0xbf29d2c03799b82a	-0.00019701572800862158
218	0x3f831b05b9ee8158	0.009328884827312464
219	0xbf7968b633bc7878	-0.006203376509601559
220	0xbf6e98926123706d	-0.003734861276013793
221	0x3f952ba0f8f0bebd	0.02067424315845189
222	0xbf8c0d848427c078	-0.013697657855090237
223	0x3f826735f1fa2126	0.008985921332410895
224	0xbf6b059005f01564	-0.003298550887395878
225	0x3f71b513a419beaa	0.004323078844762721
226	0xbf4dd655d6059513	-0.0009105605241016855
227	0xbf71e3d28a2b192e	-0.004367659016401055
228	0xbf94da313c6c869e	-0.020363587677940324
229	0xbf823cf493ae76ad	-0.008905325657731689
230	0x3f6f740b5a126ff1	0.003839513942308408
231	0x3f4e840b22a83518	0.0009312681552856887
232	0x3f624f7d1d1547ea	0.0022351688027493115
233	0xbf38bcfc0c64d478	-0.0003774752953121306
234	0x3f6661d4ed0c3630	0.002732196684866371
235	0x3f63bcac65bee0fe	0.002409302438504678
236	0x3f8ada200908fc46	0.013111353183488227
237	0x3fc7504260e389ab	0.18213681918048272
238	0xbf5e0eacd7f99d19	-0.0018345535208029228
239	0xbf9358c052c31011	-0.01889324669970455
240	0xbf6a5398d2a22b28	-0.0032136902637537497
241	0x3f28705fe539d522	0.00018645449255287003
242	0xbf7dd989ecffc9be	-0.007287539265222907
243	0x3fa5f68d4f46bebc	0.042896667411125716
244	0xbf5f97164905097d	-0.0019281118039350114
245	0xbf6ab927badd2e6a	-0.003262117002042865
246	0xbf6e008652fea29c	-0.0036623595733156888
247	0x3f6ae84fe97d5ddf	0.003284603193531174
248	0x3fb5183c976eacc0	0.08240107247427186
249	0x3fa14c054ee1708d	0.033783117178900125
250	0x3f5df4e09cf49a19	0.0018284028518081917
251	0xbf735fcce06bd26f	-0.004730034160037463
252	0xbfa93624d8005d08	-0.04924121033416823
253	0x3f785dc68712adb8	0.005948806284475187
254	0x3fa4d608ce38975d	0.040695452855557625
255	0x3f95d28c576db158	0.02131099017735613
