ranking_learn/weights/rankRF4_theta.npy (npy, 65152 bytes, 1 tensors)

array f8 [8128]
00000000: 7fcb e9c2 3380 bf3f 7bef c92b 977d 633e
00000010: 9d22 27d0 f520 b1bf b3fd 14ff 60dd 3f3f
00000020: 8b7d fdcb 9155 373f f292 a960 cf32 b13f
00000030: 3841 99f4 c49d 4fbf c0bd 3983 41e3 00bf
00000040: 6902 772b 4f4a 2e3f 1926 d5f5 0dee c2bf
00000050: ee27 795e af34 83bf 9a39 542c 7012 79bf
00000060: 9c4d 166d 4c12 6abf 72ca 85d6 2563 39bf
00000070: 750d 7458 4da1 a23f 1249 cd9a 6cb9 613f
00000080: 5e7f e2b2 4f46 5e3f 3d6e b472 a2a4 623f
00000090: f0a0 f771 e8e3 40bf 169b f641 e72e 2bbe
000000a0: f3ee 1c01 d67a c23f 2a4f cbf0 74f3 57bf
000000b0: 7b96 365c 5daf 50be 2769 ba60 41d9 403f
000000c0: 9889 c747 658a 38bf c4a5 4704 ae28 773f
000000d0: ecaa f323 8e2e 5ebf 0eb4 db79 55ee a43f
000000e0: 40b0 e427 b6ea debe 221b 8bca 19a4 4abe
000000f0: da33 8f7a dc27 693f b99e 2a52 e122 7dbf
00000100: cbc6 2295 5b20 803f e29b bd73 fec8 86bf
00000110: ba18 5560 c2fb 40bf 4a42 c5b2 5a54 c0bf
00000120: c904 2eef fbe9 39bf 5d63 3eee e9e8 6e3f
00000130: ae4b a94a b741 59bf 223b 943d 06a3 65bf
00000140: 6bd0 4df0 4150 643f 55c5 b9aa 2e62 663f
00000150: 4017 4b8a ac79 6b3f 285b 2516 21b0 76bf
00000160: 4de1 e28e 7f3d a0bf 12ef 11d5 d2ac 61bf
00000170: 3d8c 0ab5 30bd 8abf 60e3 7e13 418b 803f
00000180: 6c78 66d1 6080 1f3f 4bf2 278e 0572 53bf
00000190: 96bf 3314 44ac 403f a41e ed9a 1f91 68bf
000001a0: b3b1 721d d5d7 943f 89a2 df7f 9e00 86bf
000001b0: d6ca 32f9 ead3 bebf 58b9 3131 a80e 6bbf
000001c0: 81e6 fd5c c502 713f ab34 610c 7f66 62bf
000001d0: d80a 7e78 9d1e 59bf 1308 04d6 6c31 5abf
000001e0: e889 1aad 1c33 193f 6aaf c26b 66d0 653f
000001f0: c034 48a9 6092 84bf 8707 1d78 cbc5 7b3f
00000200: 5bb2 b055 c6bf 853f 390d f03d 9acd b3bf
00000210: 700d 4b4f f512 75bf 201d a075 b946 24bf
00000220: 9c1b 90ca f489 843f 91b4 95ef c3cc 38bf
00000230: d4c0 8acd 12ec 6d3f 6caa 5cb4 337e 2abe
00000240: 6314 0fd7 c639 71bf 9bc8 f7c6 fbfb 64bf
00000250: ecd2 2a31 6d73 80bf 488d 126b 78e5 7f3f
00000260: 1d70 3373 d1f3 85bf 3436 6d73 8c65 a83f
00000270: c709 918d 9a59 753f 5648 190e d56a 5abf
00000280: f7e7 d87d 83fa 6c3f 2b30 96dd 8e04 76bf
00000290: 5487 a98f 3956 69bf c1b0 f3ac 892f 86bf
000002a0: 012e a38e eac3 7dbf 9e3c 9afe 409f 5a3f
000002b0: ce22 aadb ae19 55bf e5db 0b2a 30b6 5c3f
000002c0: 64c4 eb57 3104 8abf d653 5a2f c706 82bf
000002d0: 3d60 08cd d71f b4bf 6e36 1da8 2553 83bf
000002e0: 8873 94c2 af21 143f dd6c 7d66 a3e0 8ebf
000002f0: ae4f f6fa 137f 87bf 3583 9538 bdd3 823f
00000300: 8e87 d200 eff5 8e3f e531 34c5 792d 913f
00000310: 8b73 7a53 cb30 823f 0ced 86a0 3d80 97bf
00000320: ffe8 7299 a648 2dbf 2da5 a236 5231 89bf
00000330: e2c5 caf0 692e 7a3f feee 1912 f201 95bf
00000340: 51f2 65c2 cab9 bcbf e6bb fe4a f6ac 763f
00000350: 56eb e661 0092 89bf f4ca 621a e501 9e3f
00000360: e61a 8691 2e90 90bf 908f 1340 08f5 73bf
00000370: a285 3aed 86b0 8fbf 82df 9051 674b 77bf
00000380: 0acb 137d 6ba1 973f c6b7 f868 852e 803f
00000390: 92fd 4abf 697b 883f 19cd ba40 a7a5 7d3f
000003a0: e2ea 3b25 fb6e 89bf 209b 2d95 dc21 83bf
000003b0: 0a1c 03c6 1e31 a73f 5425 fd1f 8ee3 b13f
000003c0: ad24 e0d4 734b 80bf 41e5 94e1 712f 63bf
000003d0: c699 0b6f cbda 56bf 0c27 ac80 00e5 3ebf
000003e0: 8e0c a101 0139 80bf 1769 30c9 60d1 8b3f
000003f0: 210a 29b2 92d1 6dbf 8a7e 63cd 01a8 73bf
00000400: f49b 49a6 6f6b 73bf c8a9 1ad3 e097 6fbf
00000410: f3cc 0356 268c 913f e6e1 26f2 d629 76bf
00000420: 69d4 10f2 4266 a33f 1527 3a82 9bdb 6e3f
00000430: 7478 f496 ed38 9e3f dcbe 90ff 5507 85bf
00000440: 541f 8c3f a17d 693f 9f98 089c 93e1 683f
00000450: c8fd 7e40 6474 59bf a543 8221 94f6 763f
00000460: dee5 291e 7e5e 6abf 4d57 e06c fca2 5a3f
00000470: 269d 8b32 1792 8c3f 9934 761b e070 98bf
00000480: 9245 4717 3182 7abf bbf5 695d 2ab8 6cbf
00000490: 2df0 811c 49d9 85bf 9ac5 fee9 96ce 40bf
000004a0: 7e69 5234 5f25 823f 0aee 5f40 cc13 933f
000004b0: 2959 b37f 6448 a7bf 64d9 6604 8a74 903f
000004c0: 11d2 6515 0d0e acbf e919 ab8b 9e03 733f
000004d0: 6f12 f1ac 34dd 593f c483 88cd 853d 8b3f
000004e0: b052 6b9a e3a2 6ebf 07aa 3a19 9064 4bbf
000004f0: f3b0 f2ab 69a7 65bf fe22 8acc 5455 803f
00000500: 3448 3ebd 192f 84bf 5020 d645 ec15 863f
00000510: d1a5 cf11 577e 783f fe19 71fd a506 733f
00000520: ef91 69e4 c149 643f 5372 8d41 5882 723f
00000530: 15d4 53bb 1384 933f 81f2 b0a2 1925 60bf
00000540: 79fc eb0d 827c 8ebf 6961 277d 44c7 54bf
00000550: 60e9 5c88 c0a1 b1bf 1847 8713 fbac 7d3f
00000560: c49f fa49 5dcc 8c3f d54b b07a 331b 833f
00000570: 935a b127 2647 9abf 82a9 d839 951b 89bf
00000580: 9a42 171c 0bf2 8e3f d648 6fad ae69 4bbf
00000590: 8361 52b4 85d6 843f 673a 00e8 5acb a3bf
000005a0: 19b8 0c88 9734 8ebf 3e8b 6272 7da1 5fbf
000005b0: 76bb 5ad0 48ad 803f 546c e6e6 c537 423f
000005c0: 566b 05ee 77e4 91bf 58b3 2302 9ec4 a53f
000005d0: bea3 e328 c2e1 6e3f cfb7 75d1 0a67 12bf
000005e0: d92c 3441 975c 86bf 9694 916b 2bc4 bfbf
000005f0: acbc 5101 70cb 983f 1582 d828 526a 92bf
00000600: 16eb 5454 c495 a7bf 0a29 1955 105e 813f
00000610: 05bf 4111 e5e5 8fbf e841 d87f 1051 a0bf
00000620: 3ed6 4b46 82e2 a13f 6f86 b4e6 e891 8b3f
00000630: 02f1 c5cc 5a98 a13f 624c 9dc9 80be 963f
00000640: 5b4e 13b2 1782 8c3f 677e 9061 c726 993f
00000650: 063c aeae 492d 833f 97cb 37c2 7d81 98bf
00000660: ae3a 1544 7717 c0bf 689b fdf8 ae61 aabf
00000670: 5fdb 5d9c b9e8 a0bf 096d 04aa 0c03 b0bf
00000680: ba7f 6a6f 57c5 98bf 9b99 6d7a 95ad ba3f
00000690: 88e8 cd11 df75 873f 1139 f950 66d8 9b3f
000006a0: 232b bad2 483f 8c3f 8bc7 f52b 7fae 96bf
000006b0: c52b 4ae4 dd26 96bf c019 2bed 5713 993f
000006c0: 6a6c 159b c02f 88bf 11e7 4e34 3ff1 9abf
000006d0: 8612 4b3f b7e3 833f d542 c709 55cb 92bf
000006e0: 7a4d c96c f134 a9bf 4770 b5dc 833f 933f
000006f0: e152 8d1c cf9b 823f f7ad 48a5 e7a6 b33f
00000700: 8fee 1f56 1eb8 943f 9d2e 6289 1931 a7bf
00000710: 4ad9 2d28 3fc9 a6bf 04a3 d5a7 e7f8 963f
00000720: c5b7 f7cb 023f 91bf 222d 0c6f b911 91bf
00000730: 6b17 9312 b981 b03f d6ce f7a2 ef23 723f
00000740: af75 58fc 3166 81bf bd9c 8fb4 caa0 94bf
00000750: 333f 591c f7ff 6f3f c010 f30b 5ca9 613f
00000760: 41af a9f9 cbfd 89bf 5862 0f00 9745 5cbf
00000770: 6ef5 8e5b c0ea a1bf ced6 16e8 3fd7 34bf
00000780: f51e c031 f834 753f ee8e 4498 a514 95bf
00000790: f917 4195 b6b7 90bf f00a b5af bcd1 8abf
000007a0: c562 63d2 fce5 aebf c659 9aa2 71d7 9bbf
000007b0: 6c67 9714 7840 723f a8c0 29d6 62d8 98bf
000007c0: 1914 e034 4a7a 77bf df75 1c4c 3a5f 9bbf
000007d0: d2ac e1b0 287b b93f 2eea 8335 4552 90bf
000007e0: 93ad dbdf a443 a6bf cf84 4759 f932 863f
000007f0: 1bd6 f77e 9b78 723f 9695 4e9a 8aca 353f
0.12304996021866364 3.630404907681966e-08 -0.06690918285233712 0.0004862176711703761 0.0003560524892147413 0.06718155012056196 -0.00096485249486914 -3.221076658809939e-05
0.00023109642437015306 -0.147889847789245 -0.009377832480044614 -0.006121099640280648 -0.0031825535485922717 -0.00038737939623626546 0.03638688759567802 0.0021636124787757305
0.0018478182132994551 0.0022757695020468025 -0.0005154499994519928 -3.1645428636102863e-09 0.1443736558375047 -0.0014618532178944468 -1.553913421343998e-08 0.0005141801097637053
-0.0003744599596570363 0.005654029610448533 -0.0018421543207362513 0.040880843282003906 -7.371149534567882e-06 -1.2405690989574857e-08 0.0030707651353396427 -0.007113342437754682
0.007874217499508692 -0.01112555304253066 -0.0005182932951946142 -0.12757428864508064 -0.0003954162668194481 0.0037731713254739855 -0.0015415468175390234 -0.0026412126432043973
0.002479676043032388 0.00273236384037349 0.003353917114824606 -0.0055390636865329315 -0.0317191945954983 -0.002157604009480959 -0.013056164288462674 0.008078106315098033
0.00012016859941474536 -0.001186852860541115 0.0005088169495177537 -0.002998887757175899 0.02035458557354426 -0.010743368413345127 -0.12042111000009056 -0.0033028874400350787
0.004153033209030378 -0.0022461396611449156 -0.001533178119615888 -0.0015986979342987914 9.612906003523376e-05 0.0026628494652722228 -0.010044818082884155 0.006780428697142577
0.010619687547739056 -0.07735599529410288 -0.005145033112685979 -0.0001546956435165359 0.01002875559971788 -0.0003784159049107861 0.0036526076549635387 -3.084188379423421e-09
-0.004205490798033204 -0.002561561348323483 -0.00803265863701471 0.007787199386402328 -0.010718952491906514 0.04764975461021628 0.005212405893930633 -0.0016123848548841488
0.003537422961724875 -0.00537544066299848 -0.003092873024159207 -0.0108328586488472 -0.0072669184102767135 0.0016248831474603774 -0.0012878615949906583 0.0017524214128437018
-0.01270330953181737 -0.00880199063548474 -0.07861088519746402 -0.00943593425077013 7.67959142149011e-05 -0.015076901021237205 -0.01147285089135849 0.009192922868068368
0.015117518627736162 0.016775038396234527 0.008882130131775209 -0.022950137064737183 -0.00022341760334205343 -0.012301103870714225 0.00639191992802199 -0.020515234331909042
-0.11220996137667184 0.005536043245156974 -0.012485506999714662 0.02930410359904108 -0.016175010330267713 -0.004872352817276396 -0.015473417391435988 -0.005687144840571425
0.023076705464471416 0.007901232019403081 0.011954141760155666 0.007238057452627866 -0.012418710778992762 -0.00934192972426967 0.04529663245335065 0.06987846642473033
-0.00795641415972378 -0.0023419594041597385 -0.0013949381502072907 -0.0004714132525554949 -0.007921226370063896 0.013582950725368676 -0.003639971271043111 -0.004798895874244766
-0.004741130953880724 -0.00385660086688697 0.017136191368035857 -0.005410995132870222 0.037889568375626244 0.003766826370171903 0.02951403840881324 -0.010267898427712856
0.003111662805512264 0.003037250804726346 -0.0015536288283185418 0.005606249462417977 -0.0032188857306294357 0.001625772961693045 0.013950520734808135 -0.023868085552341076
-0.006471816789102818 -0.003505785697881262 -0.010668345625383402 -0.0005129086384753512 0.008860343727339123 0.01863021033203264 -0.0454741865047928 0.01606956149927309
-0.054794701444652934 0.00464212352625857 0.0015786184701635194 0.013300938925626123 -0.0037397809386255573 -0.0008359626394470195 -0.002643305196747042 0.00797525643544494
-0.009855462157961715 0.010784002190817571 0.005979862323309119 0.004645012281861314 0.002476576514981447 0.004518837690593874 0.019058521565018156 -0.001970815724716524
-0.014885917711124673 -0.0012682122074832664 -0.06887439088032954 0.007245045439462826 0.014061669178161547 0.009329225713406256 -0.025662037060409103 -0.012259641483144849
0.015110098643078818 -0.0008365729253177144 0.010174793782696373 -0.03866085130731705 -0.014748748626143325 -0.0019305920664371558 0.00814301381919134 0.0005559650724537104
-0.017473100569400067 0.042515695344127635 0.0037697593862628656 -7.02000000864782e-05 -0.010918790509569497 -0.12408706070125883 0.02421355255176809 -0.017983707182908832
-0.046064505857847646 0.00848019370745991 -0.01557520827211035 -0.031868472677277826 0.03493125064953205 0.013461894550860635 0.03436549901650389 0.022211086564606915
0.013920006868296022 0.02456199200616851 0.009363723414734803 -0.02393146989738745 -0.1257161219059148 -0.05152651585995366 -0.033025551164363114 -0.06254653120815958
-0.024190298247617405 0.1042111801049032 0.01145529053768636 0.027192686741096376 0.01379258053863947 -0.022150027330503568 -0.021632639940928806 0.024487851954086315
-0.011809830410746087 -0.02631090885890958 0.009711677187973732 -0.01835377571279902 -0.049232048539717035 0.018796978326790528 0.009086244639243403 0.07676551614047598
0.02023360634483012 -0.045296476383638075 -0.04450414052455416 0.02243387185936553 -0.016841930102536446 -0.01666917553215542 0.06447941497307645 0.004428802566952069
-0.008495703233218103 -0.02014462210709377 0.0039062334424570188 0.002155952242533926 -0.012691110188107426 -0.0017255758868853967 -0.03499413602501532 -0.0003180056592911707
0.0051774687854118 -0.0205865740000623 -0.016325810298688712 -0.013095354187162539 -0.06034841602531097 -0.02718904070806063 0.0044560137407304405 -0.024262947389104866
-0.005731859082520629 -0.026730452437837 0.09953550642392209 -0.0159388364709036 -0.0434848330749801 0.010839412724580914 0.004509551435594196 0.0003325069795273248
