ranking_learn/weights/rankRF311_theta.npy (npy, 65152 bytes, 1 tensors)

array f8 [8128]
00000000: d134 d903 2eea e5bf 1e63 5978 85a7 8b3f
00000010: 3895 81a7 e336 f63f 7be3 caef 98f8 923f
00000020: f26c d4f3 7a9a 7b3f 585d 764d ebe8 f1bf
00000030: 1462 7f25 1003 953f 1c83 91a8 de17 a93f
00000040: 6e45 ad50 2c91 783f 0995 aa52 22de a73f
00000050: a683 e7b3 e57a 663f d09c 2b72 15b3 a1bf
00000060: 9395 81e8 dd1b 4b3f 122e 0d90 551a 8bbf
00000070: 3c40 c0b0 b793 f03f 2190 9b97 d753 813f
00000080: 2af9 402c 1603 6a3f 1b0b 9693 a10b acbf
00000090: feca 7413 6dae 703f b551 dc79 62a7 c83f
000000a0: ee4b d420 157e f63f d0d0 738b fa9f 8c3f
000000b0: dc7d 3cd5 1ca2 91bf 8134 e21c 4c90 80bf
000000c0: a7a6 eb93 699a 72bf b3e7 77d1 d6a6 5d3f
000000d0: fa07 c3ac 962b a2bf 6c50 8c45 df88 e0bf
000000e0: b220 08dd a13d be3f b2a4 c4d7 4965 6d3f
000000f0: 2de3 9f5c 6e72 613f 1177 4e89 b235 7e3f
00000100: 556e 7428 9f47 923f 7861 6edf 89a7 b1bf
00000110: 84e8 164a b838 903f e9fb 9e20 1c9e bb3f
00000120: fd08 bc9d 61d5 a13f 4aa4 ea13 1431 a23f
00000130: 5f7c 5242 4ee2 83bf 5209 9607 1f3a 77bf
00000140: 1ae1 e475 f9ad 62bf c2ae 5b9d 6fcc 513f
00000150: 6715 426c f423 a03f 4caf db40 c067 78bf
00000160: 08cd 0ba8 03b1 b63f b4da ac4f e115 a93f
00000170: c77b 2206 16ad 76bf acfb d956 0c0c 5b3f
00000180: 0ccc 85a4 fbf9 743f ce0d 9462 533c 73bf
00000190: dce3 5d5e a661 98bf d489 14c1 9da2 7abf
000001a0: 4590 3c5d 58be a93f e937 a7df 6b49 8b3f
000001b0: f20c a95b 316c cabf bd12 5634 8f84 8d3f
000001c0: 090f 7368 eed0 c03f 09c7 4dfb 2610 7cbf
000001d0: 2779 c112 29e9 3d3f 33a8 4a63 52c2 963f
000001e0: 2abb 9d84 e33d a3bf 0aff e0c4 4931 923f
000001f0: 92a7 5a1c 43be 983f 07e5 f53c 1c2b 8cbf
00000200: 5e0b 90ac 1e0e 74bf 432c d1af 3f2a f13f
00000210: e07a a546 f2f9 e33f 9b59 a304 b5cd 89bf
00000220: 9d01 8378 5a2e 923f b8c6 8afa b2c2 81bf
00000230: 1cf8 98ba 356b 933f a8ac e081 0f0f a43f
00000240: 8f32 5519 a5b0 b0bf 32b8 5ab5 9a42 ac3f
00000250: b407 57d5 c457 bcbf a558 b37d 91a8 86bf
00000260: c36c 9934 7cfd a03f 91d3 2c45 d4e9 88bf
00000270: 5c6e 57cc 72f8 9d3f 6fd7 bc2d c4a5 81bf
00000280: 4ebb 10fb 0395 7bbf 8278 b9ed f199 90bf
00000290: ef9a 3a9c 3886 69bf b583 940f 551d 9bbf
000002a0: 4ba4 8b4e 0fc2 82bf dc6c a0af 2147 97bf
000002b0: 9be3 f3e4 9cbd a03f 1852 a5b6 28df 8e3f
000002c0: bc29 59b8 73eb adbf 0aef e69d 5696 89bf
000002d0: 536a 40c8 3193 e1bf 209f 0354 3a37 a23f
000002e0: 8a58 3a16 18e9 833f 6635 a0eb b7e2 c6bf
000002f0: d5e5 c53d 51db 64bf 081d dd0c 162b a3bf
00000300: 3915 e26a d0fb a0bf 5c9c 672f e400 6f3f
00000310: ae4b 02ee 099b 763f 7e91 6da8 ac53 86bf
00000320: aa7c 0353 be28 973f 9b95 f510 7d59 babf
00000330: 4ad1 4577 b87e 81bf 7347 63e2 f497 c5bf
00000340: 8d8d eb2c 370e c6bf 6197 7170 8525 a43f
00000350: 7349 8f7a 046b dc3f 97c3 a838 1c5d 953f
00000360: dd87 37bf 85c7 8b3f 8d1d 6e32 9daa ab3f
00000370: 4c5a 5991 9cd9 a03f abf9 e275 b587 91bf
00000380: 6c18 dc9d 7720 a6bf da24 589a 1641 90bf
00000390: 51ba 3378 5b6c 6e3f 16e5 c4a2 7e9e 7d3f
000003a0: 41f5 e36b 9336 bcbf 2cb8 2910 9045 c63f
000003b0: 8b1d 29a6 3497 883f 4180 1d6a 41de cfbf
000003c0: 6a46 e327 4a59 bb3f e31e f0ab 9ea5 9abf
000003d0: 2e5d fe2d f964 b83f 6ff5 f256 0c14 b1bf
000003e0: 94cd be75 9f19 74bf 897f 718e 651e e8bf
000003f0: e58d 958f 4c9c bd3f ce67 6fdb 0a18 a73f
00000400: b62f a91e 0864 91bf 5e3e c50a 96f8 71bf
00000410: 1848 65d4 66c1 9cbf aa8c 30f9 bdd7 b2bf
00000420: 9bae 4bfb 57d8 423f cb5a 3995 9d0a c3bf
00000430: 8999 1492 16fc a9bf 8b45 c04a 3955 f4bf
00000440: 163d 4b1f 2690 813f 143b 8932 c40c 773f
00000450: 975a 850d d180 a93f 559b 6a16 5dc1 7b3f
00000460: aef8 8c9b 8696 9a3f 6a1d 33d9 88bb 993f
00000470: a5c4 1520 c661 b0bf b0c4 733f 13e1 b03f
00000480: 8b65 9fad cbfb adbf 2e89 e7a0 b1c5 8fbf
00000490: 629b a29d b9aa b53f 3800 0ff6 1128 b43f
000004a0: 6d3d 59ba 122f a33f b818 a23b 4bac c1bf
000004b0: f015 bdf4 cb2b b4bf be91 8548 b1f9 b03f
000004c0: 21a2 2057 3ca3 cf3f 4fc5 72e4 9b13 933f
000004d0: f039 80b6 1519 b9bf f0e2 d530 707c 94bf
000004e0: 7ea7 532a 7a40 913f e67f bab2 de76 aabf
000004f0: 0878 1e92 b7ab a9bf 84d8 4982 e538 c0bf
00000500: 4342 c701 d7d2 a0bf e441 a2b1 1dce 913f
00000510: 2e7c bb25 4b6c c13f 0e3e 385b d8f7 ad3f
00000520: c0aa d99b f2ba 86bf 15fd e664 d652 82bf
00000530: df6f 8403 6aa9 863f 21dc 8cc1 837f bc3f
00000540: 166c 66fb 27d3 b5bf 1ab5 98ac 4500 86bf
00000550: d88c f913 33fb e3bf 4552 acb6 4597 a03f
00000560: a4dc 614e 8e33 413f 6533 f907 902c e93f
00000570: 92cc c6e9 9cef 7f3f bde1 a155 87c9 a33f
00000580: 5473 282f 1f21 ca3f a7b8 c241 da2f 963f
00000590: 6c14 4665 e9f2 903f 41de 6130 d5d4 ba3f
000005a0: b219 575d 09b3 90bf 1715 5990 455b 3cbf
000005b0: 3c94 d144 e55e ac3f 757d 7790 45f5 c9bf
000005c0: 4e78 4a0c a4f1 d13f 805f 69ff f874 c23f
000005d0: 3458 995a f067 b63f 2cbc f0bc a07a 91bf
000005e0: 4e1c 077d 82d6 8d3f 6f8e 99d0 dfe9 e03f
000005f0: 218f 36f4 f5af b73f 9474 7926 eddb 94bf
00000600: 617d 74c4 a4f8 a3bf 7d1d 8c0d e025 84bf
00000610: 1287 f4a4 b192 86bf b394 234f 61df a93f
00000620: 770d bf35 5fcf d03f 0484 7463 6488 133f
00000630: 5654 ec0a 0cca 933f 8f5a 7d6c 4eb5 c73f
00000640: b9c1 6d4e f2b5 e7bf 219b d3d1 0649 d23f
00000650: e2ce 20af f396 a6bf 8c5b 8726 93d8 9cbf
00000660: 6053 eb6d c8f6 c53f dae3 3e11 3990 b8bf
00000670: 510a 31f0 40dd 88bf 1508 803b 9de5 6c3f
00000680: 3f6d 8562 8633 c8bf 4e25 68bf 082d de3f
00000690: feda 94a7 f554 b13f 7dcf 6957 8d58 c63f
000006a0: dc5c 7fc7 5d41 b3bf 6531 1373 83ea b33f
000006b0: 00d4 b75e 2cf6 ca3f 2f8b 753a ce0d a43f
000006c0: 9e99 deb8 42fd b8bf 66eb e2d0 eafa 88bf
000006d0: 3fe2 4870 6310 d4bf e813 57de d6c6 d43f
000006e0: ff8a a4be 2bef bc3f 8afb eea7 7359 a5bf
000006f0: 35c2 1d81 c18e b2bf 4c06 3b78 1e1d c9bf
00000700: 011d 290d 5e60 a9bf 5399 33e1 339e cebf
00000710: 56a1 cea2 cda3 cb3f 8cc2 ba7f ae6a c7bf
00000720: 17cf ad41 343a d6bf 9e9d 9b0b 6943 c0bf
00000730: 3b5d 89ea 6b2b dcbf 0fe5 e393 850b cfbf
00000740: 0632 99e3 7a38 6f3f c750 27fe 8208 6a3f
00000750: c5ca 9927 af30 b6bf 1621 e2a5 45de acbf
00000760: 36fb 66ff 4a02 bbbf 8fba ffd3 1e68 7a3f
00000770: 71f0 8b08 d663 bb3f b12b bd80 74ad 953f
00000780: eb33 23f4 68a4 c53f a739 3629 62cb c2bf
00000790: d9ff 4e5f 6e76 a6bf 2d4a 4cae 1e0d c93f
000007a0: df91 4109 9bb8 d13f 1aaf 6a61 396b b63f
000007b0: 4b52 ebdc 751d d23f 48f3 c5c4 81f0 c0bf
000007c0: 486b 59dd d5b8 87bf 5523 881f 3c3e bebf
000007d0: 53d2 4361 a678 d7bf 63ea 01a0 3ab2 ddbf
000007e0: 1c89 4f19 da4b 06c0 afed 7173 eeef 86bf
000007f0: cb2c 8694 6b47 aebf f68f c1bb fd8a 6e3f
-0.6848363948025967 0.013503115401520879 1.3884007018289832 0.01852644885613895 0.006739120753333371 -1.1193650270341404 0.020519497193022998 0.04901023681373415
0.005997822862654585 0.04661662348852686 0.002744148863016399 -0.03456942576104327 0.0008272965942636594 -0.013233822306253838 1.036063852723614 0.008460697473715641
0.0031752999366566797 -0.05477623869503231 0.004072595670822519 0.19260817480302497 1.4057818682092562 0.01397701013636557 -0.01721997310153066 -0.00808772528787416
-0.004541790402734647 0.0018097970804533514 -0.03548880442532716 -0.5167080267297144 0.1181279339435857 0.0035883371584942364 0.0021297603134339455 0.0073754285885152685
0.017851340145268974 -0.06896268563139596 0.015841369173110312 0.10788131519710444 0.03483109522314185 0.035530688697072835 -0.009708987616532548 -0.005670663079742804
-0.002280223109803481 0.0010863389956580626 0.03152431317816245 -0.0059583196541373555 0.08863852360427782 0.048995057083108945 -0.005536161452396499 0.0016508217335340176
0.00512121484676965 -0.004696202967582731 -0.02381000472039206 -0.0065027391695217825 0.05028034341947366 0.013323633921483906 -0.20642678237536632 0.014412993225741183
0.13137607669897758 -0.006851341507045702 0.0004564023281598155 0.02222565394428262 -0.03758154863213854 0.01776614441064254 0.024163292508695706 -0.013754101381652463
-0.004896278210256037 1.072814642701602 0.6242610339939709 -0.012599386409800675 0.01775494919343289 -0.008672140379846524 0.018963660730371243 0.03917740307255119
-0.0651953875396407 0.055195650709137914 -0.11071424683089398 -0.011063706062867171 0.033183938427748604 -0.012164743767792337 0.029268068048493454 -0.008616955419352227
-0.006733909177497234 -0.01621225369887514 -0.0031157594365426237 -0.0264790812262878 -0.009159202179448786 -0.022732282966995906 0.03269663138230002 0.015074079584032993
-0.0584369814428842 -0.01249377889040872 -0.549218073955965 0.035577605014451175 0.009721935442297065 -0.17879389767805803 -0.00254598491136158 -0.037438096113470876
-0.033171189353235105 0.003784604715508828 0.00551895026014197 -0.010901783838286102 0.022616361443280532 -0.10292798675580743 -0.008542481555857368 -0.16869984678356395
-0.17230882352224022 0.03934876439670521 0.44403182953569525 0.02086299987621806 0.013564152620293807 0.05403605690576816 0.03291024469642831 -0.01711925060293999
-0.04321645547865746 -0.015873292131833285 0.0037137781633796237 0.007231230422172238 -0.11020776161236247 0.1739978865547881 0.012007151909655863 -0.24897020036132925
0.10683120225737644 -0.026022414440403884 0.09529073117152073 -0.06671216128139233 -0.0049072483924875905 -0.7537105352493977 0.1156661844775538 0.04510530403759071
-0.016983153220550405 -0.004387460805744673 -0.028081518853760284 -0.0736044629452858 0.0005751065824290581 -0.1487614611275688 -0.050751405078972196 -1.270806591030438
0.008575723485960068 0.005627409359091801 0.04981091775942053 0.006776202796266191 0.025964835399684354 0.02512945008927884 -0.06399191172910663 0.06593437480093445
-0.058561673111124334 -0.01551378986636517 0.08463630770220967 0.07873642213144272 0.03746851467860322 -0.13807049190308418 -0.07879328465522639 0.06631000538397466
0.2471690583636397 0.018629489725474454 -0.09803901391590109 -0.02000594423359109 0.016847523530408186 -0.051688155476995054 -0.050138222300333324 -0.12673634397259914
-0.032858580557903604 0.01738783261004241 0.1361173567047173 0.05853153337022486 -0.011098761922047173 -0.008947062448781776 0.011065319282856421 0.11132071948382861
-0.08525323760697776 -0.010742706613280851 -0.6244140043385427 0.03240411620041476 0.0005249447683714115 0.7866897731524715 0.007796872083804323 0.03864691658322126
0.2041357975257606 0.02166691805239709 0.016551634603747464 0.10481007033546864 -0.016307970354114416 -0.0004326863130226939 0.05541149582931168 -0.20279759935418054
0.2803735847500136 0.1441947219016093 0.08752348148240757 -0.01706935074997433 0.01456930107168666 0.5285491060462401 0.09252869808420573 -0.02037020251588169
-0.03900637529499807 -0.009837866223746822 -0.011021983953984047 0.05053238001873108 0.2626569771639064 7.451164934881021e-05 0.019325435797402278 0.18522053048464612
-0.7409602672396921 0.28570719233396075 -0.04412042153162844 -0.028169917322738366 0.1715937172617954 -0.0959506671050713 -0.012140757875504312 0.00352745732743732
-0.1890724164066828 0.4714986676413745 0.0677026304373207 0.17457739608982684 -0.07521616097016043 0.07779714164207048 0.21063761353403265 0.03916782821285946
-0.09761445058265969 -0.012197336673457303 -0.31350027051260904 0.32463618958382634 0.11302445797313608 -0.04169808793039127 -0.07249078180553499 -0.19620114203103112
-0.04956334982539979 -0.23920296188516463 0.21593637895171963 -0.1829431651763297 -0.3473024979968939 -0.1270572001151153 -0.4401502409359243 -0.24253911706163264
0.003811111467064035 0.0031778868153456738 -0.08668036190810387 -0.056383301257542026 -0.10550373778731345 0.006446953222605813 0.10699212750108857 0.02116949115524464
0.1690798942640009 -0.14683177006049883 -0.04387230790553049 0.19571288595814576 0.2768924322502055 0.08757361057604066 0.28304812025206577 -0.1323396883780339
-0.011583014314216947 -0.11813712854212828 -0.36673888681915406 -0.46400323510866864 -2.787037084331258 -0.011199820421316923 -0.05913864315069758 0.0037283855181602333
